checkpoints/best_model.pt (torch, 150180 bytes, 7 tensors)

convolution_layers.0.fc_neigh.weight f4 [64, 253]
0	0x80008ca4	-5.0452e-41
1	0x80008b34	-4.9937e-41
2	0x00008b15	4.9893e-41
3	0x80008acc	-4.9791e-41
4	0x800089a8	-4.9382e-41
5	0x8000a851	-6.038e-41
6	0x0000a89d	6.0487e-41
7	0x0000895b	4.9274e-41
8	0x80008a82	-4.9687e-41
9	0x80008a4f	-4.9616e-41
10	0x000089f9	4.9495e-41
11	0x80008b19	-4.9899e-41
12	0x00008a72	4.9665e-41
13	0x00009471	5.3251e-41
14	0x80008afb	-4.9857e-41
15	0x80008afa	-4.9855e-41
16	0x800097aa	-5.4407e-41
17	0x80008c13	-5.0249e-41
18	0x00008ce6	5.0545e-41
19	0x00008eed	5.1272e-41
20	0x00008bf8	5.0211e-41
21	0x0000895c	4.9275e-41
22	0x80008920	-4.9191e-41
23	0x00008a98	4.9718e-41
24	0x800096b8	-5.4068e-41
25	0x00008960	4.9281e-41
26	0x80009a77	-5.5412e-41
27	0x00008bc5	5.014e-41
28	0x00008a61	4.9641e-41
29	0x00009ff8	5.7386e-41
30	0x00008c09	5.0235e-41
31	0x00008a63	4.9644e-41
32	0x80008b6b	-5.0014e-41
33	0x80008eac	-5.1181e-41
34	0x00008f3c	5.1383e-41
35	0x00008b43	4.9958e-41
36	0x0000953f	5.354e-41
37	0x80008a06	-4.9513e-41
38	0x00008bcb	5.0148e-41
39	0x00008a15	4.9534e-41
40	0x00008f3a	5.138e-41
41	0x80008b9d	-5.0084e-41
42	0x0000a320	5.8518e-41
43	0x80008ee0	-5.1254e-41
44	0x80008f61	-5.1435e-41
45	0x80008b8e	-5.0063e-41
46	0x80008c58	-5.0346e-41
47	0x00008c31	5.0291e-41
48	0x00008d5f	5.0714e-41
49	0x80008a98	-4.9718e-41
50	0x00008e13	5.0967e-41
51	0x80008c3e	-5.031e-41
52	0x00008ae0	4.9819e-41
53	0x00008bb3	5.0115e-41
54	0x00008bc8	5.0144e-41
55	0x000090ba	5.1918e-41
56	0x80008bac	-5.0105e-41
57	0x0000ac91	6.1905e-41
58	0x800097d4	-5.4466e-41
59	0x80008b5d	-4.9994e-41
60	0x80008a8f	-4.9705e-41
61	0x00008b88	5.0054e-41
62	0x80008c1c	-5.0262e-41
63	0x80008cea	-5.055e-41
64	0x0000940c	5.3109e-41
65	0x00008904	4.9152e-41
66	0x80009195	-5.2225e-41
67	0x80008ed5	-5.1238e-41
68	0x00008bb2	5.0113e-41
69	0x00009232	5.2445e-41
70	0x80008a0c	-4.9522e-41
71	0x80008ad0	-4.9797e-41
72	0x000088ca	4.907e-41
73	0x00009966	5.5029e-41
74	0x80008920	-4.9191e-41
75	0x80008a05	-4.9512e-41
76	0x00008954	4.9264e-41
77	0x000089ca	4.943e-41
78	0x80008aab	-4.9745e-41
79	0x80008929	-4.9204e-41
80	0x80008b2b	-4.9924e-41
81	0x00008a8f	4.9705e-41
82	0x80008b15	-4.9893e-41
83	0x0000893d	4.9232e-41
84	0x80008bfc	-5.0217e-41
85	0x0000a790	6.011e-41
86	0x000088d7	4.9089e-41
87	0x00008a41	4.9596e-41
88	0x80008b17	-4.9896e-41
89	0x80008990	-4.9348e-41
90	0x8000895d	-4.9277e-41
91	0x800088df	-4.91e-41
92	0x80008a50	-4.9617e-41
93	0x00008903	4.915e-41
94	0x000098df	5.484e-41
95	0x000088da	4.9093e-41
96	0x8000894a	-4.925e-41
97	0x00008a11	4.9529e-41
98	0x80008ae8	-4.983e-41
99	0x00008a14	4.9533e-41
100	0x00008ad3	4.9801e-41
101	0x00008906	4.9155e-41
102	0x80008aa6	-4.9738e-41
103	0x0000994a	5.499e-41
104	0x00008adf	4.9818e-41
105	0x80008b7d	-5.0039e-41
106	0x80008912	-4.9172e-41
107	0x80008991	-4.935e-41
108	0x80008acb	-4.979e-41
109	0x80008a6c	-4.9656e-41
110	0x800089ff	-4.9504e-41
111	0x800089f5	-4.949e-41
112	0x00008931	4.9215e-41
113	0x0000894a	4.925e-41
114	0x00008d9b	5.0798e-41
115	0x8000a64c	-5.9656e-41
116	0x8000a2f5	-5.8458e-41
117	0x00008b08	4.9875e-41
118	0x80009af4	-5.5587e-41
119	0x00008ba3	5.0092e-41
120	0x80009c9d	-5.6182e-41
121	0x000088de	4.9099e-41
122	0x00008ca7	5.0457e-41
123	0x8000891b	-4.9184e-41
124	0x80008bea	-5.0192e-41
125	0x80008b31	-4.9932e-41
126	0x00008ba3	5.0092e-41
127	0x00008acf	4.9795e-41
128	0x00008a13	4.9532e-41
129	0x0000a392	5.8678e-41
130	0x0000a67f	5.9728e-41
131	0x00008a61	4.9641e-41
132	0x80008e17	-5.0972e-41
133	0x00008a0b	4.952e-41
134	0x00008ae8	4.983e-41
135	0x800090ac	-5.1898e-41
136	0x80009e23	-5.6729e-41
137	0x80008971	-4.9305e-41
138	0x8000896e	-4.93e-41
139	0x00008988	4.9337e-41
140	0x80009262	-5.2512e-41
141	0x00008e0e	5.096e-41
142	0x800088ca	-4.907e-41
143	0x80008b07	-4.9874e-41
144	0x80008ab0	-4.9752e-41
145	0x800089d0	-4.9438e-41
146	0x80009a15	-5.5274e-41
147	0x800089cd	-4.9434e-41
148	0x80008a4c	-4.9612e-41
149	0x800089f9	-4.9495e-41
150	0x00009f05	5.7045e-41
151	0x00008a03	4.9509e-41
152	0x80008ac4	-4.978e-41
153	0x80008dd2	-5.0876e-41
154	0x00008b0b	4.9879e-41
155	0x00008a7e	4.9682e-41
156	0x8000a143	-5.785e-41
157	0x80008b78	-5.0032e-41
158	0x80008ab8	-4.9763e-41
159	0x8000a19c	-5.7975e-41
160	0x80015711	-1.23069e-40
161	0x8000895c	-4.9275e-41
162	0x800089f9	-4.9495e-41
163	0x0000937b	5.2906e-41
164	0x000088d4	4.9085e-41
165	0x800089fe	-4.9502e-41
166	0x00008c24	5.0273e-41
167	0x80008a96	-4.9715e-41
168	0x8000aa35	-6.1059e-41
169	0x8000905d	-5.1788e-41
170	0x800088e4	-4.9107e-41
171	0x800089d0	-4.9438e-41
172	0x00008ab0	4.9752e-41
173	0x00008ead	5.1182e-41
174	0x00008a0f	4.9526e-41
175	0x80008942	-4.9239e-41
176	0x800088c0	-4.9057e-41
177	0x80008a88	-4.9696e-41
178	0x8000892f	-4.9212e-41
179	0x80008b67	-5.0008e-41
180	0x00008a89	4.9697e-41
181	0x8000a096	-5.7607e-41
182	0x00008aef	4.984e-41
183	0x8000958c	-5.3647e-41
184	0x80008b72	-5.0024e-41
185	0x800089c0	-4.9415e-41
186	0x0000ad49	6.2163e-41
187	0x80009495	-5.3301e-41
188	0x00008a4d	4.9613e-41
189	0x80008a2f	-4.9571e-41
190	0x00008995	4.9355e-41
191	0x80008e6e	-5.1094e-41
192	0x80009754	-5.4286e-41
193	0x00008a91	4.9708e-41
194	0x000088c9	4.9069e-41
195	0x00008a27	4.956e-41
196	0x80008bae	-5.0108e-41
197	0x00008cea	5.055e-41
198	0x00008935	4.922e-41
199	0x8000891d	-4.9187e-41
200	0x80008c64	-5.0363e-41
201	0x800089a3	-4.9375e-41
202	0x8000979d	-5.4389e-41
203	0x000089a9	4.9383e-41
204	0x00009c43	5.6056e-41
205	0x80008ec3	-5.1213e-41
206	0x80008bea	-5.0192e-41
207	0x00008986	4.9334e-41
208	0x8000aa6d	-6.1137e-41
209	0x80008ba5	-5.0095e-41
210	0x000088e2	4.9104e-41
211	0x80009650	-5.3922e-41
212	0x00008d06	5.059e-41
213	0x00008b18	4.9897e-41
214	0x000089f7	4.9492e-41
215	0x8000acd4	-6.1999e-41
216	0x80009084	-5.1842e-41
217	0x00008a02	4.9508e-41
218	0x00008a73	4.9666e-41
219	0x00007c84	4.4668e-41
220	0x80009615	-5.3839e-41
221	0x80008c4c	-5.0329e-41
222	0x0000897d	4.9322e-41
223	0x80008f9c	-5.1517e-41
224	0x0000ac79	6.1872e-41
225	0x00008b6d	5.0017e-41
226	0xbf140b5f	-0.5782985
227	0x3e2fa0d3	0.17151193
228	0x3d29e489	0.041477714
229	0xbd85ccb7	-0.06533187
230	0xbc75842e	-0.014985127
231	0xbe8c2723	-0.2737361
232	0x3d04862d	0.032354522
233	0xbdfe2acd	-0.12410507
234	0x3dba2854	0.09089723
235	0x3e6e62e7	0.23279916
236	0x3e7ad74c	0.24496192
237	0x3f3d093d	0.7384222
238	0x3d7e759a	0.062123872
239	0x00008b54	4.9982e-41
240	0x3eb0ba2d	0.3451704
241	0x3d1e8b69	0.03870717
242	0x3e48abdf	0.19596814
243	0xbe3644c8	-0.17799675
244	0xbda36563	-0.07978322
245	0xbed1cb68	-0.409755
246	0x0000a097	5.7609e-41
247	0x00008a57	4.9627e-41
248	0x00009bcf	5.5894e-41
249	0x80008d30	-5.0649e-41
250	0xbdde5b7c	-0.10857293
251	0xbdf9f7bf	-0.12205457
252	0xbbeef0c8	-0.007291887
253	0x80009a93	-5.5451e-41
254	0x00008a0b	4.952e-41
255	0x00009fd2	5.7333e-41

convolution_layers.0.fc_self.weight f4 [64, 253]
0	0x3e3a6838	0.18203819
1	0x39730bf7	0.00023178743
2	0xbc47a32b	-0.012184898
3	0x3c0de799	0.008661174
4	0x00008982	4.9329e-41
5	0x3e83b0ec	0.25720918
6	0xbd56fd86	-0.052487873
7	0x8000899b	-4.9364e-41
8	0xbcb79091	-0.022407802
9	0x0000ac67	6.1846e-41
10	0xb7404f9c	-1.1462627e-05
11	0x800089c2	-4.9418e-41
12	0x8000a4a4	-5.9062e-41
13	0xb6b036a1	-5.2515684e-06
14	0x3e7fd691	0.24984194
15	0xbc1105ae	-0.008851452
16	0x37a49f46	1.9624491e-05
17	0x80008a1b	-4.9543e-41
18	0x3d709be3	0.058742415
19	0x3d3ca773	0.04605813
20	0xbd9f1027	-0.07766753
21	0x80008c09	-5.0235e-41
22	0xbe4c2c41	-0.19938757
23	0x3e28969a	0.164637
24	0x80008a8d	-4.9703e-41
25	0x3e6c8cef	0.23100637
26	0x3e075a95	0.13218148
27	0xbddb230d	-0.10700045
28	0x3ad11091	0.0015950372
29	0xb6c68bbd	-5.9171275e-06
30	0x3bdf97b1	0.006823503
31	0x800091ff	-5.2374e-41
32	0x3ecaa304	0.39577496
33	0x800089dd	-4.9456e-41
34	0x3b2fe945	0.002684192
35	0x302b607e	6.234656e-10
36	0xba69e2cd	-0.00089220406
37	0xbcf38f1d	-0.029731328
38	0xbc042b25	-0.008066927
39	0x3d4697ff	0.0484848
40	0x00008ad6	4.9805e-41
41	0x00008a9f	4.9728e-41
42	0x80008b4a	-4.9968e-41
43	0xb78c71e6	-1.6742339e-05
44	0x00008bec	5.0195e-41
45	0xbc1c3023	-0.009532961
46	0x3eb8497d	0.35993567
47	0x3ea1bdf0	0.31590223
48	0x3daa8ba8	0.083274186
49	0x38afa3db	8.375171e-05
50	0x80008fd4	-5.1596e-41
51	0x000089cd	4.9434e-41
52	0x000088d9	4.9092e-41
53	0x3bb03147	0.005376968
54	0x0000988d	5.4725e-41
55	0x0000a594	5.9398e-41
56	0x3ea5e33f	0.32399938
57	0x3df5c053	0.119995736
58	0x800088d3	-4.9083e-41
59	0x80008b00	-4.9864e-41
60	0xb82a7a5f	-4.0645125e-05
61	0x80008cf3	-5.0563e-41
62	0x3d10a3b7	0.03531238
63	0x0000899e	4.9368e-41
64	0x00008cc3	5.0496e-41
65	0x00008b35	4.9938e-41
66	0x80008b9d	-5.0084e-41
67	0x378c7460	1.6743492e-05
68	0x000089c3	4.942e-41
69	0x80008fb9	-5.1558e-41
70	0x3d29e469	0.041477595
71	0x8000a71c	-5.9948e-41
72	0x3cb8a84c	0.022541188
73	0x3da14512	0.07874502
74	0xbe5a964f	-0.213464
75	0x8000a5d0	-5.9482e-41
76	0x2642ce47	6.758683e-16
77	0x800089af	-4.9392e-41
78	0x3e9973d6	0.29971188
79	0x3e99c4cd	0.3003296
80	0x3c0cafef	0.008586868
81	0xb637c188	-2.7381775e-06
82	0x3e1ac5e1	0.15114547
83	0x3c91eb00	0.017812252
84	0x3e0ac977	0.13553415
85	0x80008cb6	-5.0478e-41
86	0xb4c1fb44	-3.613187e-07
87	0x800088fe	-4.9144e-41
88	0x0000892c	4.9208e-41
89	0x80009126	-5.207e-41
90	0x00009aec	5.5575e-41
91	0x800092b0	-5.2622e-41
92	0x0000896f	4.9302e-41
93	0x80008b15	-4.9893e-41
94	0x80008988	-4.9337e-41
95	0xb5d900ef	-1.6168032e-06
96	0x3c540431	0.012940452
97	0x396ce448	0.00022591755
98	0x00009401	5.3094e-41
99	0x000089e7	4.947e-41
100	0x80008952	-4.9261e-41
101	0x0000a342	5.8566e-41
102	0x8000aee6	-6.2742e-41
103	0x8000895a	-4.9272e-41
104	0x3d8d71d6	0.06906478
105	0x3980a8f9	0.00024539957
106	0x3ba93a7b	0.005164442
107	0x3c3dd068	0.011585332
108	0x80008d26	-5.0635e-41
109	0xbe464039	-0.19360436
110	0xbc403beb	-0.011733036
111	0x80008afa	-4.9855e-41
112	0x80009e44	-5.6775e-41
113	0x00008964	4.9286e-41
114	0xbe10cc6a	-0.14140478
115	0x0000acb0	6.1949e-41
116	0x80008ced	-5.0555e-41
117	0x00008963	4.9285e-41
118	0xb73c52d4	-1.1224958e-05
119	0x80008a4b	-4.961e-41
120	0x000098f1	5.4865e-41
121	0x80008cb1	-5.047e-41
122	0xbd891345	-0.066931285
123	0x3d698336	0.057009898
124	0x3d9ce6b7	0.07661193
125	0x3dc5ac77	0.09652036
126	0xbca43fff	-0.020050047
127	0xbdddf51a	-0.10837765
128	0x3e288f64	0.16460949
129	0x80008c93	-5.0429e-41
130	0x3ec45715	0.38347688
131	0xbdde1772	-0.108443156
132	0x3e0badb2	0.13640478
133	0xb6a4563a	-4.897619e-06
134	0x8000a8b8	-6.0525e-41
135	0x3d99f51e	0.075174555
136	0x80008a52	-4.962e-41
137	0x00008c20	5.0267e-41
138	0xb4d8eb5f	-4.040439e-07
139	0x3f648e42	0.8927957
140	0x3de901ca	0.11377294
141	0x000089a6	4.9379e-41
142	0x3741e3b3	1.1556712e-05
143	0x80008f88	-5.149e-41
144	0x00009437	5.317e-41
145	0x00001da1	1.0629e-41
146	0x00008b92	5.0068e-41
147	0xbde61dad	-0.11236129
148	0x00008afa	4.9855e-41
149	0x3c09a9b9	0.008402281
150	0x3d15c4c3	0.0365646
151	0xbe0d67e7	-0.13809167
152	0xbcb3628c	-0.021897577
153	0x800089fc	-4.95e-41
154	0xbda1c302	-0.07898523
155	0xbeb15fad	-0.34643307
156	0xbd2febab	-0.04294936
157	0xbd7da447	-0.061924245
158	0x3e6a9bba	0.22910967
159	0x3d23bc42	0.03997446
160	0x00009214	5.2403e-41
161	0x3e1650a4	0.146792
162	0x80008d84	-5.0766e-41
163	0x00009df7	5.6667e-41
164	0x800089df	-4.9459e-41
165	0x000089f7	4.9492e-41
166	0xbe4f2abc	-0.20231146
167	0x00008d72	5.0741e-41
168	0xbd4b3ca3	-0.049618375
169	0xbb87e495	-0.004147122
170	0x3ca0e83b	0.019641986
171	0x3dbba100	0.09161568
172	0x3e1c8010	0.15283227
173	0x0000919e	5.2238e-41
174	0x00008a36	4.9581e-41
175	0x80008b04	-4.987e-41
176	0x80008c76	-5.0388e-41
177	0x00009f34	5.7111e-41
178	0xbca3c04d	-0.019989157
179	0xbe0411bf	-0.12897395
180	0x3da9fcc0	0.08300161
181	0xbb4c528a	-0.0031177127
182	0x00008c00	5.0223e-41
183	0xbd4af64e	-0.0495513
184	0x3d0c9883	0.034325134
185	0x80009063	-5.1796e-41
186	0xbe23e5ed	-0.16005678
187	0x000092f5	5.2718e-41
188	0xbe34d16c	-0.17658013
189	0xbe1beb5f	-0.15226506
190	0x217c734b	8.553351e-19
191	0xbe10dc14	-0.14146453
192	0x3da0de58	0.07854909
193	0xbdfb0cb6	-0.12258284
194	0xbc957d60	-0.01824826
195	0x3d87a473	0.06623163
196	0x0428cc3a	1.9842081e-36
197	0x98f0e69a	-6.2271394e-24
198	0x35546cbf	7.91344e-07
199	0x3c027292	0.007961886
200	0x3d01d26a	0.031694807
201	0x37732305	1.4492082e-05
202	0x3c23ec02	0.010004999
203	0xbbf0528d	-0.0073340596
204	0xbc1530e1	-0.009105892
205	0xbe4687e4	-0.19387776
206	0xbc18328c	-0.009289395
207	0xb8a4b565	-7.853917e-05
208	0x9cc18f17	-1.2808657e-21
209	0x3a1877c9	0.0005816189
210	0xb9c02cf9	-0.000366546
211	0x3786307d	1.5996624e-05
212	0x3d0378e6	0.03209772
213	0xb7ab9447	-2.0453836e-05
214	0xbc85d40f	-0.016336469
215	0x3c08e043	0.008354249
216	0x3cfb68da	0.030689646
217	0xbd844307	-0.06458097
218	0x3db18525	0.086679734
219	0xbda65a91	-0.08122743
220	0x3a834067	0.00100137
221	0x3e279186	0.16364107
222	0x37bfd6fb	2.2869082e-05
223	0x3e1337e3	0.14376788
224	0x3e54426d	0.20728464
225	0x800090b8	-5.1915e-41
226	0xa551ede8	-1.8208466e-16
227	0x3ddbd6c7	0.10734325
228	0x3dc68a75	0.09694377
229	0xbe41e6a8	-0.18935645
230	0xbb0ca293	-0.0021459206
231	0xbda85e5e	-0.08221124
232	0x3d9dcd15	0.07705132
233	0xbe9ed27b	-0.3101996
234	0xb9733aef	-0.0002319624
235	0x3ca88766	0.020572376
236	0xbe03b3c1	-0.1286154
237	0xb708d7b0	-8.15645e-06
238	0xbd253829	-0.04033676
239	0x00008c53	5.0339e-41
240	0x3c3502fa	0.011048073
241	0xbec61127	-0.3868496
242	0x3e8530db	0.26013836
243	0x3d9455dc	0.07242939
244	0x3d67ebd2	0.05662138
245	0xbdc4df44	-0.09612897
246	0x80008ae0	-4.9819e-41
247	0x3e030500	0.12794876
248	0x80008b2a	-4.9923e-41
249	0xbde0ca52	-0.109760895
250	0x3e2fc4f1	0.17164971
251	0xbe8deb9f	-0.27718827
252	0xbda2e293	-0.07953372
253	0x3d2d0d98	0.042249292
254	0xba238bb9	-0.0006238777
255	0xbd25bad2	-0.04046137

convolution_layers.0.fc_self.bias f4 [64]
0	0xbd287982	-0.041131504
1	0xbe4870aa	-0.19574228
2	0xbc88d179	-0.016701447
3	0x3d0332af	0.032030758
4	0xbdb79e73	-0.08965769
5	0xbe0e2e33	-0.13884811
6	0xbd01fd4d	-0.031735707
7	0xbe0b7ca0	-0.1362176
8	0xbd5cb459	-0.05388293
9	0xbcf11dc1	-0.029433133
10	0xbe00ee5f	-0.12590931
11	0xbe8d2fe7	-0.2757561
12	0xbd0f4f4b	-0.03498773
13	0xbe0afbea	-0.1357266
14	0xbddf2662	-0.10895993
15	0xbda67678	-0.08128065
16	0xbd452081	-0.0481267
17	0xbe820397	-0.25393364
18	0xbd3d2a26	-0.046182774
19	0xbcfacaac	-0.03061422
20	0xbd962c80	-0.073327065
21	0xbd918da0	-0.07107091
22	0xb1da534a	-6.354104e-09
23	0xbdb061b4	-0.086123854
24	0xbc19941e	-0.009373693
25	0x05196f86	7.214509e-36
26	0xb5c3aa38	-1.4578172e-06
27	0xbdbcdfca	-0.09222372
28	0xbccb9438	-0.02485095
29	0xbd74bbea	-0.05974952
30	0xbe148275	-0.1450289
31	0xbdfd398c	-0.12364492
32	0xbc50c4ee	-0.012742264
33	0xbca7cbbb	-0.020482888
34	0xbe46af05	-0.19402702
35	0xbe3d6ae2	-0.18497804
36	0xbe54ecd7	-0.20793472
37	0x3be2851f	0.006912842
38	0xbe109973	-0.14121036
39	0xbe2049ee	-0.15653202
40	0xbd0e039a	-0.034671403
41	0xbda30def	-0.07961642
42	0xbb802b80	-0.0039114356
43	0xbd3d203e	-0.046173327
44	0xb5444959	-7.3122425e-07
45	0x3d311e7f	0.043241974
46	0x9d197149	-2.0307948e-21
47	0xbda40f51	-0.08010734
48	0xbdbc92fb	-0.09207722
49	0xbb58bcf3	-0.0033071607
50	0xbdeb1a53	-0.1147963
51	0x3b6ce4c8	0.0036147106
52	0xbd25ba56	-0.040460907
53	0xba444d77	-0.000748835
54	0xbd98291b	-0.07429715
55	0xbe896247	-0.26832792
56	0xbe10c5bc	-0.1413793
57	0xbdc60dc3	-0.096705936
58	0x94a731b8	-1.6882301e-26
59	0x3c3e30da	0.011608327
60	0xbd466f42	-0.048445947
61	0xbdb8a127	-0.09015112
62	0xbcdf46da	-0.027255464
63	0xbde15809	-0.110031195

convolution_layers.1.fc_neigh.weight f4 [32, 64]
0	0x3d82ffd7	0.06396454
1	0xbc84b266	-0.016198348
2	0x3d38e6fc	0.04514216
3	0xbe0a3f16	-0.13500628
4	0xbe22e5e8	-0.15908015
5	0xbc8867a6	-0.016650986
6	0x00008a89	4.9697e-41
7	0x3e77a788	0.24185002
8	0x3d816dea	0.063197926
9	0xbdff83f0	-0.12476337
10	0xbd83f851	-0.06443847
11	0xbcbbd0ee	-0.022926774
12	0xbc9fdf19	-0.019515561
13	0xbca66dc2	-0.020316008
14	0x3e3ea4f6	0.18617615
15	0xbe29fff5	-0.16601546
16	0xbe051baf	-0.12998842
17	0x3bd915e6	0.006624925
18	0xbd4846d2	-0.048895665
19	0xbd0e3248	-0.03471592
20	0x3d23f19c	0.04002534
21	0xbd3e5e37	-0.04647657
22	0x150509c6	2.6866846e-26
23	0x39c92930	0.00038368395
24	0xbc9aa739	-0.018878566
25	0x800089b7	-4.9403e-41
26	0x000088d4	4.9085e-41
27	0xbdeae126	-0.11468725
28	0xbc3a576d	-0.011373383
29	0x3aa6d7a7	0.0012729064
30	0xbd129651	-0.035787884
31	0xbc46e06a	-0.012138465
32	0xb1ba686f	-5.425185e-09
33	0xbca2db90	-0.019880086
34	0xb9a9c362	-0.00032379763
35	0xbd4b22fb	-0.049593907
36	0x3c84d1bf	0.016213296
37	0x3d42077c	0.04737042
38	0x3d5589cf	0.052133378
39	0x3d3c824e	0.046022706
40	0x3cfb5116	0.030678313
41	0xbe3afeaa	-0.18261209
42	0xbccabdcf	-0.02474871
43	0xbd201f11	-0.039092127
44	0x254bf5ce	1.7690725e-16
45	0x3d2354d7	0.03987583
46	0x8000899d	-4.9366e-41
47	0xbe2ed761	-0.17074348
48	0xbd31cfc3	-0.043411028
49	0xbcf649b7	-0.030064447
50	0x3e5bbba1	0.21458293
51	0x3d8f493c	0.0699639
52	0x3e31f66b	0.17379157
53	0xbc5f84a0	-0.01364246
54	0x3df3356f	0.11875426
55	0xbd508744	-0.05091025
56	0x3e5a4cbe	0.21318337
57	0xbd661c89	-0.056179557
58	0x8000893d	-4.9232e-41
59	0x3d8a525b	0.06753989
60	0x3dbceec5	0.09225229
61	0xbc63a6ed	-0.013894779
62	0x39753016	0.00023382934
63	0xbd0f467f	-0.03497934
64	0xbd79c5b7	-0.06097957
65	0x3d17644a	0.036960877
66	0xbcdfc93e	-0.02731764
67	0x3e1319f0	0.14365363
68	0x3e221232	0.15827253
69	0x3c8524ad	0.01625284
70	0x00008a47	4.9605e-41
71	0xbe767f72	-0.24072054
72	0xbd70f2b5	-0.058825213
73	0x3dcafaa0	0.09911084
74	0x3d9014be	0.07035206
75	0x3d7022fa	0.058627106
76	0x3cc9ce96	0.02463464
77	0x3d27ecb5	0.040997226
78	0xbe390818	-0.18069494
79	0x3e3ad4e9	0.18245281
80	0x3dfc991a	0.12333889
81	0xbb9b0e61	-0.0047319387
82	0x3d833b99	0.06407852
83	0x3d13cf60	0.03608644
84	0xbd2711e9	-0.040788565
85	0x3d079087	0.033096816
86	0x800088c5	-4.9064e-41
87	0xb976fb0c	-0.0002355391
88	0x3c61a08c	0.0137711875
89	0x00008924	4.9197e-41
90	0x000089a6	4.9379e-41
91	0x3dfc74a6	0.123269364
92	0x3c334db3	0.010943818
93	0xbb57cc03	-0.0032927997
94	0x3d4d68a2	0.050148614
95	0x3c5cb32e	0.013470454
96	0x312348b5	2.376095e-09
97	0x3d07ca44	0.03315188
98	0x3c05ff34	0.008178521
99	0x3d177bea	0.036983408
100	0xbb2901d5	-0.0025788445
101	0xbd2ff162	-0.04295481
102	0xbcd147a0	-0.025546849
103	0xbd0fbc65	-0.035091776
104	0xbca7140b	-0.0203953
105	0x3e3ae143	0.18249993
106	0xbb92ca11	-0.0044796546
107	0x3d75e833	0.060035896
108	0xb6748816	-3.6438046e-06
109	0xbcc40e23	-0.023932522
110	0x00008934	4.9219e-41
111	0x3e416f5d	0.18890138
112	0x3ce0a5c4	0.027422793
113	0x3d37add5	0.044843514
114	0xbe5094eb	-0.20369308
115	0xbce008e2	-0.027347986
116	0xbe163c02	-0.14671329
117	0x3cbd8480	0.02313447
118	0xbdc07b58	-0.09398526
119	0x3d543df0	0.05181688
120	0xbe423bf9	-0.1896819
121	0x3d7869a9	0.06064764
122	0x000089f6	4.9491e-41
123	0xbd48dbfa	-0.04903791
124	0xbd85f3a4	-0.065406114
125	0x3d0f0125	0.0349132
126	0x3b2c1e66	0.0026263236
127	0x3d4ce93d	0.05002712
128	0xbd2c8bb6	-0.042125426
129	0x3ce6a25d	0.028153593
130	0xbc8b07da	-0.016971517
131	0x3e166a97	0.14689098
132	0x3e22332f	0.15839837
133	0x3c45617d	0.012047169
134	0x8000ab97	-6.1555e-41
135	0xbe678033	-0.22607498
136	0xbd2a4bda	-0.041576244
137	0x3dcb58cc	0.09929046
138	0x3d6d86ee	0.057990007
139	0x3d125038	0.035721034
140	0x3cb0562b	0.021525463
141	0x3d3f3538	0.046681613
142	0xbe16e75a	-0.14736691
143	0x3e252e17	0.16130863
144	0x3e0c4d2f	0.13701318
145	0x3b6702ed	0.0035249547
146	0x3d633f15	0.05548008
147	0x3d137c3d	0.036007155
148	0xbd2e6b2e	-0.042582683
149	0x3ca4cb23	0.020116394
150	0x80008942	-4.9239e-41
151	0xba2925a1	-0.00064524455
152	0x37be27f3	2.2668368e-05
153	0x000088fd	4.9142e-41
154	0x00008987	4.9336e-41
155	0x3de4832c	0.111578315
156	0x3cc675a7	0.024226023
157	0xba66e016	-0.0008807195
158	0x3d16270e	0.03665834
159	0x3c53f060	0.012935728
160	0x30d33270	1.5366606e-09
161	0x3cde2d2e	0.027121153
162	0x3c68157b	0.014165278
163	0x3d56b740	0.052420855
164	0x3b62dd0b	0.0034616615
165	0xbd487e54	-0.0489486
166	0xbd0ae048	-0.033905298
167	0xbcf8c2e9	-0.030366378
168	0xbd012f3a	-0.03153918
169	0x3e395524	0.18098885
170	0x3ab39c96	0.0013703282
171	0x3d62499c	0.05524598
172	0x325bcd0a	1.2794098e-08
173	0xbd39f8a3	-0.045403134
174	0x80008970	-4.9303e-41
175	0x3e450f15	0.19244035
176	0x3d9a5103	0.07534983
177	0x3d12d3ce	0.035846524
178	0xbe395ce3	-0.1810184
179	0xbd53c5ca	-0.0517023
180	0xbe343bfd	-0.17601009
181	0x3c822316	0.01588587
182	0xbd849c4f	-0.06475126
183	0x3d1dc8eb	0.03852169
184	0xbe441c5c	-0.19151443
185	0x3d591d1a	0.05300627
186	0x800089a8	-4.9382e-41
187	0xbd68d0de	-0.056839816
188	0xbdd2e4bc	-0.10297534
189	0x3caa7a45	0.020810256
190	0xb9d39f78	-0.0004036387
191	0x3d8ba26e	0.068180904
192	0xbd5b8efa	-0.05360315
193	0x3cc24ea0	0.023719132
194	0xbd0b039a	-0.03393898
195	0x3dfedb8d	0.1244422
196	0x3e199eca	0.1500198
197	0x3c43a2c8	0.011940666
198	0x00008b43	4.9958e-41
199	0xbe6a5129	-0.22882523
200	0xbd78bc58	-0.060726494
201	0x3da460a6	0.08026247
202	0x3d701a49	0.058618817
203	0x3d61b897	0.05510768
204	0x3c9e9f54	0.019363083
205	0x3d2861a7	0.041108754
206	0xbe25c380	-0.16187859
207	0x3e334308	0.17506039
208	0x3dfb0597	0.122569256
209	0x3b439efd	0.0029849403
210	0x3d81a8d6	0.06331031
211	0x3d0ffe94	0.035154894
212	0xbd35c46e	-0.044376783
213	0x3d1a0a8e	0.037607722
214	0x000089e4	4.9466e-41
215	0xba5caab8	-0.0008417773
216	0x3c996738	0.018725976
217	0x000088fa	4.9138e-41
218	0x80008a42	-4.9598e-41
219	0x3dcfaaa3	0.10139968
220	0x3cdd5629	0.027018623
221	0xbaba3281	-0.0014205725
222	0x3d222f2a	0.03959576
223	0x3be744d2	0.0070577646
224	0x289a05dd	1.7099977e-14
225	0x3d0b4c87	0.03400853
226	0x3cb93f10	0.022613078
227	0x3ce0c20c	0.027436279
228	0xbbb85151	-0.005624928
229	0xbd29970e	-0.041403823
230	0xbcd20c06	-0.025640499
231	0xbd29e082	-0.041473873
232	0xbb850da1	-0.0040604626
233	0x3e2e5187	0.17023288
234	0x3b3a0d47	0.0028389262
235	0x3d81030d	0.0629941
236	0xb09ac26b	-1.1260232e-09
237	0xbcd59531	-0.026072117
238	0x000088f5	4.9131e-41
239	0x3e25431a	0.16138878
240	0x3c5ffde6	0.013671374
241	0x3d28ffb6	0.04125949
242	0xbe2a63d9	-0.16639651
243	0xbc7ebcef	-0.015547975
244	0xbe07ee51	-0.13274504
245	0x3c9ec13c	0.01937925
246	0xbd68def7	-0.05685326
247	0x3cc845b0	0.024447292
248	0xbe02eba1	-0.12785198
249	0x3d0a0baa	0.03370253
250	0x0000899e	4.9368e-41
251	0xbd5b7091	-0.05357415
252	0xbcdebea6	-0.027190518
253	0x3ca50673	0.020144677
254	0xb9976ad5	-0.0002888056
255	0x3d4ff571	0.05077118

convolution_layers.1.fc_self.weight f4 [32, 64]
0	0x3e30c8ee	0.17264149
1	0xbd60554e	-0.054768853
2	0x3e3c4b79	0.18388166
3	0xbe30895d	-0.172399
4	0xbe1768eb	-0.14786117
5	0xbd0ebf23	-0.03485025
6	0x800089bb	-4.9408e-41
7	0x3ecd9ba1	0.40157798
8	0x3dbf7877	0.09349149
9	0xbd6dde62	-0.05807341
10	0xbc854bd4	-0.01627151
11	0xbe50c219	-0.20386542
12	0x3b4b1a2c	0.0030990941
13	0xbd9b6ef9	-0.07589526
14	0x3d9d3168	0.07675439
15	0xbe079da2	-0.13243726
16	0xbe5ca330	-0.21546626
17	0xbc0dee21	-0.008662731
18	0xbe08ebfc	-0.13371271
19	0xbcba798c	-0.022763036
20	0x3d90f093	0.07077136
21	0x3e4254ee	0.1897771
22	0x183e1a71	2.4570274e-24
23	0xbd3297b3	-0.043601703
24	0xbd251e82	-0.040312298
25	0x0482a7fb	3.071712e-36
26	0x8000898b	-4.9341e-41
27	0xbdaac467	-0.08338242
28	0xbc97c0e0	-0.018524587
29	0x3e33f078	0.175722
30	0x3bdcdee0	0.006740436
31	0x398c06eb	0.00026708035
32	0x800089fd	-4.9501e-41
33	0x3bb819f4	0.005618328
34	0xbe1c5465	-0.15266569
35	0xbdbef33f	-0.09323739
36	0xbcf3249c	-0.029680543
37	0x3d634009	0.05548099
38	0xbe1020a9	-0.14074959
39	0xbc1ab168	-0.009441711
40	0x3e3b4ec6	0.18291768
41	0xbe3a786d	-0.18210001
42	0x3cdf87eb	0.02728649
43	0xbdbc48a4	-0.091935426
44	0xb13cf049	-2.7494187e-09
45	0x3d7f2f9d	0.062301267
46	0x9b1762f7	-1.2522405e-22
47	0xbe2e00e1	-0.16992523
48	0xbdd18c7c	-0.102318734
49	0xbe79c796	-0.24392542
50	0x3e3232bc	0.17402166
51	0x3e842f15	0.2581717
52	0x3ddd8331	0.108160384
53	0x3e2039e8	0.1564709
54	0x3e0719ca	0.13193431
55	0xbd890cc7	-0.0669189
56	0x3dd6713b	0.10470816
57	0xbd15cb8c	-0.03657107
58	0x14083b44	6.8779334e-27
59	0x3e0199cc	0.12656325
60	0xbd4fb000	-0.050704956
61	0xbde0d460	-0.10978007
62	0x3e288847	0.16458236
63	0xbdb5fbf7	-0.08885949
64	0xbe2834bf	-0.16426371
65	0x3d72d342	0.059283502
66	0xbe2d70d7	-0.16937576
67	0x3e21568a	0.15755668
68	0x3e33459f	0.17507027
69	0x3d4725a7	0.048619892
70	0x80008984	-4.9331e-41
71	0xbeb79df8	-0.35862708
72	0xbd92fad2	-0.071767464
73	0x3dd3b68f	0.10337555
74	0x3b55d860	0.003263019
75	0x3e659a79	0.22422208
76	0x3c30c0e9	0.010788181
77	0x3dd225a8	0.102610886
78	0xbd2c0444	-0.041996256
79	0x3defdee8	0.11712438
80	0x3e5b48fd	0.21414562
81	0x3bf8ad02	0.0075889835
82	0x3e0f8824	0.14016777
83	0x3cd92e0d	0.026511217
84	0xbd6e5a2d	-0.058191467
85	0xbe47cb2d	-0.19511099
86	0x800088de	-4.9099e-41
87	0x3d641d25	0.055691857
88	0x3cf946a7	0.030429197
89	0x84144254	-1.7427773e-36
90	0x800089e7	-4.947e-41
91	0x3da97bca	0.08275564
92	0x3a4ef27b	0.0007894409
93	0xbe25cc7c	-0.16191286
94	0xba2a2696	-0.0006490735
95	0x3bcb73da	0.006208879
96	0x0000892e	4.9211e-41
97	0x3c9352e2	0.017983858
98	0x3e2e0c75	0.1699694
99	0x3dc29a00	0.095020294
100	0x3d8dd806	0.06925969
101	0xbca6d016	-0.020362895
102	0x3e40b22c	0.18817967
103	0x3cc4ad6d	0.024008477
104	0xbe27c161	-0.16382362
105	0x3e28885f	0.16458271
106	0xbd0f9667	-0.035055544
107	0x3ddeda78	0.10881513
108	0xb1a3a26e	-4.7623905e-09
109	0xbc227f2f	-0.009918018
110	0x989e7c61	-4.0967633e-24
111	0x3e452eca	0.1925613
112	0x3e000c7a	0.1250476
113	0x3e71bf0d	0.23608036
114	0xbe1d94b2	-0.15388754
115	0xbe84b1ee	-0.25917
116	0xbdbfbaaa	-0.09361775
117	0xbe13f1c2	-0.14447692
118	0xbe05bac3	-0.13059525
119	0x3db35dbc	0.08758113
120	0xbdbf6400	-0.09345245
121	0x3d300cbd	0.0429809
122	0x134e782a	2.60601e-27
123	0xbd145bac	-0.036220238
124	0x3d8d31a2	0.06894232
125	0x3e04cc58	0.12968576
126	0xbe1acc2f	-0.15116952
127	0x3deba745	0.115065135
128	0xbe252547	-0.16127501
129	0x3d7ae227	0.061250832
130	0xbe174329	-0.14771713
131	0x3e203cfa	0.1564826
132	0x3e3ac8b1	0.1824062
133	0x3d3c3078	0.04594466
134	0x80008fc9	-5.158e-41
135	0xbeabe85d	-0.33575717
136	0xbd8acf00	-0.06777763
137	0x3db2fd3d	0.087397076
138	0x3ae96d1a	0.0017809004
139	0x3e4f15e6	0.20223197
140	0x3c982501	0.018572332
141	0x3da0b115	0.07846276
142	0xbd736597	-0.059423055
143	0x3e0d0a56	0.13773474
144	0x3e5ae943	0.21378045
145	0x3a646c9e	0.0008713695
146	0x3e10271b	0.14077418
147	0x3ccb748c	0.024835847
148	0xbd66d9fd	-0.056360234
149	0xbe38e144	-0.18054682
150	0x00008de4	5.0901e-41
151	0x3d116f67	0.035506632
152	0x3cfe767a	0.031062353
153	0x04d27c51	4.948493e-36
154	0x80008931	-4.9215e-41
155	0x3db2c836	0.087295935
156	0x3ac27654	0.001483629
157	0xbe1ed4f9	-0.1551093
158	0xb901b2c3	-0.00012368993
159	0x3c620253	0.013794499
160	0x0000895e	4.9278e-41
161	0x3cbce12b	0.023056587
162	0x3e22a224	0.15882164
163	0x3dcf9bd9	0.101371475
164	0x3d860f94	0.0654594
165	0xbcc28062	-0.023742858
166	0x3e0da414	0.13832122
167	0x3c86b9ee	0.01644608
168	0xbe18e4ab	-0.1493098
169	0x3e3a8b7f	0.18217276
170	0xbccbc6b1	-0.024875017
171	0x3dd01f36	0.10162203
172	0xb2ff28cf	-2.9704465e-08
173	0xbcaac351	-0.020845087
174	0x9b119bb1	-1.2044425e-22
175	0x3e406557	0.18788658
176	0x3df77a7d	0.1208391
177	0x3e80aa1c	0.25129783
178	0xbe1ce1af	-0.15320466
179	0xbe802c4d	-0.250338
180	0xbd9a5b47	-0.07536941
181	0xbdfc235e	-0.12311433
182	0xbe06d573	-0.13167362
183	0x3d932a6d	0.071858265
184	0xbde4b85e	-0.11167978
185	0x3d2e833e	0.04260563
186	0x928929a3	-8.65618e-28
187	0xbd6cdad7	-0.05782589
188	0x3d79bfe0	0.060974002
189	0x3e21a4ad	0.15785475
190	0xbe13667d	-0.14394565
191	0x3de71eab	0.11285146
192	0xbe02145b	-0.12703077
193	0x3d714aa8	0.05890909
194	0xbe2210d4	-0.15826732
195	0x3e11dee3	0.14245181
196	0x3e15601e	0.14587447
197	0x3d1c7479	0.038197014
198	0x80009d8e	-5.652e-41
199	0xbead59c0	-0.33857536
200	0xbd710229	-0.05883995
201	0x3db074e0	0.08616042
202	0xbb3e171a	-0.0029005469
203	0x3e443f1c	0.191647
204	0x3c0ee97d	0.00872266
205	0x3d8d969e	0.069134936
206	0xbd16992e	-0.036767177
207	0x3dd8f081	0.105927475
208	0x3e403c8c	0.18773097
209	0x3b24bf5b	0.002513847
210	0x3dfdfed6	0.12402122
211	0x3ce2bd88	0.027678266
212	0xbd4395fa	-0.04775045
213	0xbe3488e9	-0.17630352
214	0x000088df	4.91e-41
215	0x3d063a4d	0.032770444
216	0x3c5d5a70	0.0135103315
217	0x872a6130	-1.2817939e-34
218	0x0000892b	4.9207e-41
219	0x3db5fcc1	0.088860996
220	0xba82c096	-0.0009975608
221	0xbe241ab3	-0.1602581
222	0xbb8f2405	-0.0043683075
223	0x3b6b3a91	0.0035893063
224	0x8000ad9a	-6.2277e-41
225	0x3cc0d264	0.023537822
226	0x3e0db123	0.13837104
227	0x3dae7ae8	0.08519536
228	0x3d71ccb0	0.059033096
229	0xbd0abb99	-0.033870313
230	0x3e057e28	0.13036406
231	0x3c752dc4	0.014964525
232	0xbe1bc5a6	-0.15212116
233	0x3e2afdd2	0.16698387
234	0xbcd0f81e	-0.025508936
235	0x3dac05c0	0.08399534
236	0xa8188263	-8.465968e-15
237	0xbcc18675	-0.023623684
238	0x9c2f6abf	-5.804061e-22
239	0x3e266450	0.16249204
240	0x3dc0e81a	0.0941927
241	0x3e5242a7	0.20533238
242	0xbe01d074	-0.12677175
243	0xbe5f5be0	-0.21812391
244	0xbd8e0d2a	-0.069361046
245	0xbe407861	-0.18795921
246	0xbe09ebf8	-0.13468921
247	0x3d96eb7c	0.07369134
248	0xbd5358c7	-0.051598337
249	0x3c9cba65	0.019131849
250	0x120041cc	4.047078e-28
251	0xbd3623c1	-0.04446769
252	0x3d985979	0.074389406
253	0x3e0cd21f	0.1375203
254	0xbe02a85e	-0.1275954
255	0x3dc86678	0.09785169

convolution_layers.1.fc_self.bias f4 [32]
0	0x3c1dc937	0.009630493
1	0xbc4a8eb7	-0.012363127
2	0xbc43f7c0	-0.011960924
3	0xbc099056	-0.008396229
4	0xbc4258b5	-0.01186197
5	0x3c4fb471	0.012677298
6	0x3c2af0e5	0.01043341
7	0xbbd4856a	-0.0064856308
8	0x3c43d0e6	0.011951661
9	0x3c4163ed	0.011803609
10	0xbb130406	-0.0022432818
11	0x3c6f8553	0.014619189
12	0xbc2c60ae	-0.010521097
13	0xbbfe819e	-0.0077669164
14	0x3c67d9e0	0.014151067
15	0x3c0b4099	0.008499288
16	0xbc30c27e	-0.010788558
17	0xbbce96a0	-0.006304577
18	0xbbfe4da2	-0.0077607194
19	0xbc1ea0a5	-0.009681855
20	0xbb9a242f	-0.0047040205
21	0xbc1ce01a	-0.009574914
22	0xbb40591c	-0.0029349988
23	0xbad4f3de	-0.0016246994
24	0xbad21da9	-0.0016030568
25	0xbab99a37	-0.001416034
26	0xbc3576ed	-0.011075717
27	0xbb8db296	-0.0043242676
28	0x3c714a32	0.014727162
29	0xaecf1cf8	-9.418416e-11
30	0xba825ba4	-0.0009945524
31	0xbc335d46	-0.010947531

classify.weight f4 [1, 32]
0	0xc0174b6a	-2.363978
1	0x402e8f9f	2.727516
2	0x4028c145	2.6367962
3	0x4015f425	2.3430264
4	0x402e9819	2.7280333
5	0xc01e463e	-2.4730372
6	0xc015fcf1	-2.3435633
7	0x4033eb96	2.811254
8	0xc018c08a	-2.3867517
9	0xc01a08b0	-2.4067802
10	0xc020e57e	-2.514007
11	0xc014dce6	-2.3259826
12	0x4025123f	2.5792387
13	0x402d7e0b	2.710818
14	0xc0174bf4	-2.3640108
15	0xc0176c8d	-2.3660004
16	0x402b3d22	2.6756063
17	0x402552a8	2.58317
18	0x40271166	2.610437
19	0x4030aea5	2.7606595
20	0xc01ca8fa	-2.4478135
21	0x40397f1e	2.8983836
22	0xc01c4cd9	-2.4421904
23	0xc0207cfd	-2.5076287
24	0x4027fabc	2.6246786
25	0x40257cfc	2.5857534
26	0x40352bc2	2.8307958
27	0x4033deb6	2.8104682
28	0xc018175f	-2.3764265
29	0x00008a15	4.9534e-41
30	0xc020c9ec	-2.5123243
31	0x4025d62f	2.5911977
