checkpoints/epoch_04_val_loss_5.8897.pt (torch, 76530 bytes, 5 tensors)

convolution_layers.0.weight f4 [253, 64]
000000 e3 49 91 bc 8b e7 bb bb f6 d8 3b 3c 08 ab dc bc
       -0.017735427 -0.005734389 0.011465302 -0.026937023
000010 2e 90 2d 3d 29 c5 29 3d ee ff 04 bd 45 8f 94 bd
       0.04237383 0.041447792 -0.032470636 -0.07253889
000020 06 0d 5c bd 26 fc dc 3d 37 84 cc bd aa ac 06 3e
       -0.053723358 0.10790281 -0.099861555 0.13151804
000030 ac 7a f0 3d e1 c3 82 bd 4a a4 09 bd 47 34 04 3e
       0.11742148 -0.06385017 -0.033603944 0.12910567
000040 bf 34 ff bd 09 94 c4 ba 8d 8d b6 3c 31 86 b3 bd
       -0.124612324 -0.0014997731 0.022284294 -0.08765829
000050 92 15 70 3d 7e 87 3c bd 2d ce 0f bc 80 1c 57 bd
       0.05861432 -0.046027653 -0.0087771835 -0.052517414
000060 5a 82 77 bd 3b 19 e0 bd dd c7 ed 3c 14 2f b4 bd
       -0.060427047 -0.10942312 0.029025966 -0.08798042
000070 5c 98 cf 3d 0b b1 83 bd 1b 06 a2 3d bc 49 98 bd
       0.10136482 -0.06430253 0.07911321 -0.07435939
000080 5d 0f 88 3d d6 0c ea 3d 8a 85 87 bd 1d 24 d4 3d
       0.06643555 0.114282295 -0.066172674 0.103584506
000090 6f c1 03 be d9 5a df 3d e6 17 90 bd b9 5b 98 3d
       -0.12866758 0.10906 -0.07035808 0.0743937
0000a0 50 66 e1 bd 91 3b da bc 02 e8 0a 3e 83 09 b8 bd
       -0.11005843 -0.026639732 0.13565066 -0.08986189
0000b0 5d 02 b7 3d ac 3f 12 ba 7a fc 92 bd 3d 26 ea bd
       0.08935998 -0.0005578946 -0.07177062 -0.114330746
0000c0 d5 84 b3 3d 94 6f c7 3d b3 e0 58 bd 33 55 f5 bc
       0.0876557 0.09738079 -0.052948665 -0.029947853
0000d0 ef 24 4c 3d a8 a4 78 bd 1d 72 e5 bb f4 c1 ce 3d
       0.04983991 -0.060703903 -0.0070021288 0.100955874
0000e0 f9 20 3a 3d c9 8d 4b 3d 64 1c 3c bd ed cc eb bd
       0.0454416 0.049695764 -0.045925513 -0.11513696
0000f0 8e 44 0c 3e 13 fb cb 3d 84 05 ae 3b 37 0f 9a bb
       0.13698027 0.09959998 0.005310716 -0.004701521
000100 fe 5e c2 3d b7 f1 a0 3b 8c 3f b5 bd ea b8 f3 3d
       0.094907746 0.004911627 -0.08850011 0.11900504
000110 8a 30 ec bd 76 78 73 3d b6 c5 fd 3c e5 3f 03 3b
       -0.115326956 0.059441052 0.030978065 0.0020027098
000120 0d 01 98 3c 1f 7a 84 bc 65 69 a0 3d 7e 72 da 3d
       0.018555189 -0.016171513 0.078326024 0.10666369
000130 95 55 bd bd 3f 29 f2 3d 0b 48 66 bb 64 2c 04 bd
       -0.09244839 0.11824273 -0.0035138156 -0.032268897
000140 a2 46 9a bd eb 0f cc 3d 0c 71 a0 bc d8 97 ea bd
       -0.075330034 0.099639736 -0.019585155 -0.11454743
000150 dd d0 d3 bd 4d 9f 6b bd ac 2a b2 3d 4e 2e 93 bd
       -0.10342572 -0.057524968 0.08699545 -0.07186566
000160 f5 7c 05 3e 15 d0 84 3d 11 0e 00 be 5b 71 b9 3d
       0.13035949 0.06485001 -0.12505366 0.09054824
000170 3e 80 b8 3d 8d 3e 0b 3e 6f fd 6d 3d 8d 88 d2 3d
       0.09008835 0.1359808 0.05810302 0.10279951
000180 37 37 24 bc 91 0d cb 3a cf 59 a6 bc 88 dd d2 3d
       -0.01002293 0.0015491714 -0.020306496 0.1029616
000190 47 8c 59 bd ee 1e 60 bc 7d 49 ae 3d 7b 28 1e 3d
       -0.053112295 -0.013679249 0.085101105 0.038612824
0001a0 eb fb 37 3d 8b ff 73 3d 3f b9 b2 3c 77 7b ca bd
       0.044917982 0.059569877 0.021816848 -0.0988683
0001b0 35 79 5d 3d d4 76 b2 3c a8 66 0c be 92 c8 7b 3c
       0.05407067 0.021785177 -0.13711035 0.015367644
0001c0 22 b9 39 3d 29 2d f6 bb 60 cd 39 3d 03 e4 05 be
       0.045342572 -0.0075127077 0.045361876 -0.13075261
0001d0 4e 34 6f 3c 95 a3 01 3e 71 85 04 3e e8 79 f7 bd
       0.014599873 0.12660058 0.12941529 -0.12083799
0001e0 34 3d 05 bb 43 74 7e bd 52 a7 16 3d 87 d6 e9 3d
       -0.002033067 -0.062122595 0.036780663 0.11417871
0001f0 19 33 fc 3d e0 53 97 3d e6 85 40 3d 05 3a d0 3b
       0.123144336 0.07389045 0.047002696 0.0063545727
000200 ad ce be bd 3d 44 ec 3d 3b 89 a6 3d e2 d6 bf 3b
       -0.09316764 0.11536453 0.081316434 0.0058544734
000210 46 b6 8f bd ac 84 b5 3d 78 d4 ef 3d d8 5a fb 3d
       -0.07017188 0.08863196 0.11710447 0.122731864
000220 d4 7c 91 bc 17 0e ad bd f1 2c f2 3d db 87 cb bd
       -0.017759718 -0.08449953 0.11824978 -0.09938022
000230 d5 90 c1 3d 76 ff 99 3d 11 4e be 3c 56 7c b1 bd
       0.09451453 0.075194284 0.023230584 -0.08666293
000240 d4 a2 eb bc f2 03 d4 3d 49 6c df 3d 90 6a 0c bd
       -0.028764166 0.10352315 0.10909326 -0.034281313
000250 25 e4 88 bc 1f bd fa 3c b1 f6 28 3d 60 4c a7 3d
       -0.01671035 0.030607758 0.04125089 0.08168864
000260 9e 6b 07 3e ca 7d cc 3d aa 48 a3 3d 59 f0 a7 bc
       0.13224646 0.0998493 0.07972844 -0.020500349
000270 a8 43 0e bd 4e 74 8c 3d 9c f9 cc 3c 67 30 25 bd
       -0.03473249 0.06858121 0.025021367 -0.040329363
000280 24 8c d4 3d 58 90 8f 3d 0b 1e e5 bd 04 ed 89 bd
       0.10378292 0.07009953 -0.11187371 -0.0673466
000290 39 d5 38 3d ad 0c 6c 3d 81 a2 d1 bd fb 0e 87 3d
       0.04512522 0.057629276 -0.10236073 0.06594654
0002a0 80 af 62 3d c3 6f 7c 3d c1 63 b8 bc 46 6f 92 bc
       0.05534315 0.06163002 -0.022508504 -0.017875325
0002b0 f0 cb b5 bd 47 7c 91 3d 36 3d 0c be 58 0c 00 3e
       -0.088767886 0.07103782 -0.13695225 0.12504709
0002c0 10 4c 36 3d c7 4a ff 3c ab b3 51 3d c0 b8 53 3c
       0.044506133 0.031163586 0.051196735 0.012922466
0002d0 a5 2e 30 3c 7b f1 af bd f0 b9 9d bd d3 88 a2 3d
       0.010753308 -0.085909806 -0.077014804 0.079362534
0002e0 9b 85 0b be 6d 04 97 bd 56 4d 76 3d b9 2d b3 3d
       -0.13625185 -0.07373891 0.060132347 0.08748955
0002f0 6e 91 e7 3d a4 26 83 3d ab cf 98 3d b2 7b 1a bc
       0.113070354 0.064038545 0.074614845 -0.009428905
000300 de 94 6a 3c 33 52 01 3c 90 36 df bd c0 46 b1 3d
       0.014317719 0.007893133 -0.10899079 0.086560726
000310 35 7e dc bd e3 d0 93 bd 89 f4 b8 3d e5 ba 46 38
       -0.107662596 -0.07217576 0.090310164 4.7380938e-05
000320 52 68 67 3d a9 98 2c bc 23 dc 46 bd 95 5a e9 bd
       0.056495972 -0.010534444 -0.048549782 -0.1139423
000330 93 62 4f bd 40 42 61 bb 03 b8 9d 3c bb 21 e1 3d
       -0.050631117 -0.0034371763 0.019252783 0.10992762
000340 b3 79 42 3c da da 59 bd 5d 96 db 3c 14 53 03 3e
       0.011869836 -0.05318723 0.026805097 0.1282466
000350 6c 59 9e bd b3 a6 09 be 22 63 39 3c b2 44 96 bd
       -0.077318996 -0.13442497 0.011315139 -0.07337321
000360 c1 29 32 bd d5 22 48 bd 44 23 fa bd aa ab bb bd
       -0.04349685 -0.048861343 -0.12213758 -0.09163602
000370 94 c0 fc 3d b6 79 a6 bd 73 98 e3 3d 0b fb d6 3d
       0.12341419 -0.08128683 0.11113062 0.104971014
000380 ce a4 bf bb 2e 55 f1 bc 88 71 00 be 50 41 ef 3d
       -0.0058485037 -0.029459562 -0.12543309 0.11682379
000390 75 fd 7f 3c 75 7e 01 be df 09 4f 3d 59 90 a4 3d
       0.015624394 -0.12645896 0.050546523 0.08035345
0003a0 71 df 54 3d db 56 96 bd 44 13 f5 bb b3 38 8f 3d
       0.051970903 -0.07340785 -0.0074791033 0.069932364
0003b0 cd f4 4a 3a 3b 38 0b 3c 5e f3 8c bd 29 c2 09 3c
       0.00077421666 0.008497293 -0.06882356 0.008408108
0003c0 b6 1a 9f bd 0a 0c fd 3d ab e4 1e bd d4 73 17 bc
       -0.077687666 0.12355812 -0.038792294 -0.009243924
0003d0 a5 0d ca bd 84 80 18 bd 41 89 d3 bd 5b 7f 82 3d
       -0.09865884 -0.037231937 -0.103289135 0.063719474
0003e0 8c 35 73 bd c4 20 c8 bd 2e 96 a3 bb eb 1a 90 3d
       -0.05937724 -0.097718745 -0.004992268 0.07036384
0003f0 f4 b9 a7 3d cb 7d 02 be 41 9d e2 bd 25 0c b8 3d
       0.081897646 -0.12743299 -0.1106515 0.089866914

convolution_layers.0.bias f4 [64]
000000 4e 5a b3 bc 93 ad ea bc 00 00 00 00 84 28 4c 3d
       -0.021893647 -0.02864722 0.0 0.049843326
000010 ce e8 35 3d 00 00 00 00 95 c5 a0 bc 2f 38 47 3d
       0.044411473 0.0 -0.019625464 0.048637565
000020 06 15 4e 3d 6a ff 72 3d c3 4c 39 3d 00 00 00 00
       0.05031302 0.059325613 0.04523922 0.0
000030 8b d0 5a 3d 00 00 00 00 b5 4d 4e bc 14 e1 13 3d
       0.05342154 0.0 -0.012591769 0.036103323
000040 09 69 61 3d 67 31 90 bc 91 e9 06 3d 00 00 00 00
       0.05503181 -0.017601682 0.03293759 0.0
000050 5e 7a 48 3d 31 77 4e 3d 00 00 00 00 00 00 00 00
       0.048944823 0.05040664 0.0 0.0
000060 6b 2b 46 3d 42 93 6e 3d 00 00 00 00 6b a9 28 bd
       0.04838125 0.058245905 0.0 -0.041177195
000070 0e 5f c3 3c 0a 76 4c 3d 16 89 27 bd b8 75 63 3d
       0.023849037 0.04991726 -0.04090222 0.055532187
000080 00 00 00 00 9e a5 24 bc 30 f9 33 3d 0d a8 48 3d
       0.0 -0.010049252 0.043938816 0.04898839
000090 d7 ea 2c 3d 0e 89 48 3d 82 56 5a 3d be 24 49 3d
       0.04221615 0.04895883 0.053305157 0.049107306
0000a0 00 00 00 00 8c a0 a0 3c 00 00 00 00 39 0e 40 bd
       0.0 0.019607805 0.0 -0.046888564
0000b0 8c b4 45 bc 00 00 00 00 2b 14 48 3d 64 ee 1f bd
       -0.0120669715 0.0 0.04884736 -0.039045706
0000c0 24 f2 27 bc 94 cf 3a 3d 97 6f 3a 3d 00 00 00 00
       -0.010250602 0.04560812 0.045516577 0.0
0000d0 0f d4 e5 bb c1 57 73 3c 37 7f 5a 3d a8 5e 4c 3d
       -0.0070138047 0.014852465 0.053343978 0.04989496
0000e0 00 00 00 00 ea 8a ca ba 0b 42 21 3d 8b 58 4c 3d
       0.0 -0.0015452777 0.039369624 0.04988913
0000f0 a4 34 db bc 4c 84 49 3d a0 5e fa bc c4 24 c9 bc
       -0.0267585 0.049198434 -0.030562699 -0.024553664

convolution_layers.1.weight f4 [64, 32]
000000 14 c5 2d 3e 87 3e 6f be 64 72 9f bc 6f 80 43 3d
       0.1696971 -0.23363696 -0.019463725 0.047729906
000010 d0 0b ce bd c7 a6 16 be 8b 3a 2f 3e f3 cf be 3c
       -0.10060847 -0.14712058 0.17112176 0.023292517
000020 5a 98 10 be 07 a6 03 3e 37 20 26 be 9c 5e d3 3d
       -0.14120618 0.12856303 -0.16223226 0.1032078
000030 b8 ba d2 bc 2e 10 da bd 0a fd 98 3d 90 6f 1d be
       -0.0257238 -0.10647617 0.07470138 -0.15374589
000040 a5 8d ed 3d e0 e7 d4 bc 27 04 dc 3c 46 2a a5 3d
       0.11599282 -0.025989473 0.026857449 0.08064704
000050 0c b6 ef 3b 2a de 15 3e 79 6a aa 3c 6c 4b bf ba
       0.007315403 0.1463553 0.020802723 -0.0014594621
000060 5b 31 18 be 54 6b 17 3c 70 d5 f8 3d 6c b5 d0 bc
       -0.14862578 0.009241898 0.12150085 -0.025477134
000070 03 ab 2d 3e b1 43 22 be 4c 9b 9a bd ff 7f 47 be
       0.16959767 -0.15846135 -0.07549152 -0.1948242
000080 f2 6b 20 3e 01 ce e9 bd 1d 4b a2 bd d2 ea 56 3e
       0.15666178 -0.11416245 -0.07924483 0.20988014
000090 76 25 5e 3e 25 3a 15 be 9d ca 30 3e d7 4c 97 bd
       0.21693978 -0.14572962 0.17264791 -0.07387703
0000a0 27 ec d1 3d c7 41 cf bd db 75 11 be 3e 16 b5 3d
       0.102501206 -0.10119968 -0.14205115 0.08842133
0000b0 a2 67 7e 3e 83 58 f5 bd f3 52 c7 3c 92 70 18 be
       0.2484422 -0.11979773 0.024331545 -0.14886692
0000c0 5d 10 04 3d 58 eb 25 3e 5b de 9c bd a5 fd 54 3e
       0.032242168 0.16203058 -0.076595984 0.20799883
0000d0 5c b7 2b be ed a6 ef bd c0 12 13 3e 48 19 f9 bd
       -0.16769165 -0.117017604 0.14362621 -0.12163025
0000e0 5f 24 f8 3d d8 41 22 be 90 c6 1d be c3 b3 44 be
       0.12116312 -0.1584543 -0.15407777 -0.19209199
0000f0 1c c0 05 be 9f f4 2c be 7b aa 5b bd 60 a5 20 be
       -0.13061565 -0.1689019 -0.05362938 -0.15688086
000100 ea d8 1d 3e 10 a7 4f bd 08 db 30 bd 28 81 f2 bd
       0.15414777 -0.050696433 -0.043177634 -0.11841041
000110 52 5a 05 be 78 17 17 3e 0c 8f 8f 3d f2 ef 52 be
       -0.13022736 0.14755046 0.07009706 -0.20599344
000120 60 42 02 3c 30 bb 12 be 96 42 36 3e b4 cc 03 be
       0.007950395 -0.14329219 0.17798838 -0.12871057
000130 18 74 ff bd be ec 4b 3e 52 e1 14 3e 58 63 aa bd
       -0.12473315 0.19914529 0.14539078 -0.083197296
000140 60 aa 10 3c 14 d6 85 3d 34 21 e8 3d 94 d8 0b be
       0.008829683 0.06534973 0.11334458 -0.13656837
000150 40 ab f0 3d c0 86 a9 bc 3a 62 45 be 9c be 53 3e
       0.11751413 -0.020694137 -0.19275752 0.2067818
000160 e8 e1 37 bd 6c cc 49 3e 00 b2 60 3b 00 9c 85 b9
       -0.044893175 0.19706887 0.0034285784 -0.00025483966
000170 88 c5 1e 3e 00 5f 7a bc aa a7 28 3e a4 68 30 be
       0.1550504 -0.015281439 0.16470209 -0.17227417
000180 cc ea 87 bd 57 cb a7 bd 2c 73 37 be 67 e2 65 bc
       -0.06636581 -0.08193081 -0.17915028 -0.014031029
000190 aa ca 7f be 6f 92 2a bd 7b dc 6f 3d 27 ca 7d 3e
       -0.24979654 -0.041643556 0.058559876 0.24784146
0001a0 ea e3 16 be ef 75 31 3e 76 2e 66 bd 83 dc 85 3e
       -0.1473538 0.17330144 -0.056196652 0.261448
0001b0 2a 58 5a bd e6 4e cf 3d c8 11 88 be 2c 66 58 be
       -0.053306736 0.101224706 -0.26576066 -0.21132725
0001c0 e3 6b 5e 3e 70 e6 c5 bc ea d0 07 3e 55 22 04 3e
       0.21720843 -0.024157733 0.13263288 0.12903722
0001d0 39 46 0b be 4c 70 3d 3e 15 f5 77 be 61 a6 72 3e
       -0.13601007 0.18499869 -0.24214585 0.23696281
0001e0 62 1b 9a 3b 3c d5 4c 3e 50 ec 02 bd 29 6a 20 be
       0.0047029713 0.20003217 -0.031963646 -0.15665497
0001f0 af 8f 78 be 35 45 82 3d 56 13 29 be 51 dc dd 3d
       -0.24273561 0.063608564 -0.16511282 0.10833038
000200 c3 e4 c3 bd 04 05 40 bd 5b 57 1a 3e 55 49 be 3d
       -0.09565117 -0.046879783 0.15072386 0.09291331
000210 f0 b6 e4 bd 27 0a 97 bd 62 1c e8 3d 32 0f 8a 3d
       -0.11167705 -0.07374983 0.113335386 0.067411795
000220 1c a1 18 3e 1f ae 88 3c 56 61 91 3e 7b 97 88 bc
       0.14905208 0.01668459 0.28394574 -0.016673794
000230 e4 77 89 3e 0f 14 18 3e 9a d4 89 be 6a f0 07 be
       0.26849282 0.14851402 -0.26920015 -0.13275304
000240 f8 a6 ac 3d 14 d5 bf 3d 75 27 f1 bc 82 d4 f4 3d
       0.08430284 0.09366813 -0.02943776 0.11954595
000250 1b 7b a0 3d 91 b3 42 3e e4 48 11 bc 09 28 3d 3e
       0.078359805 0.19013812 -0.008867476 0.18472303
000260 04 47 29 3e 11 ba d2 bd bc 6e 40 be 50 4c 0a be
       0.16530997 -0.102893956 -0.18792242 -0.13505673
000270 3b 50 fe 3d 1e 04 79 3e ff a3 3c 3e 8b d9 31 bc
       0.124176465 0.24317977 0.18421935 -0.010855089
000280 c8 d2 2c be da 0d 75 3e 00 04 a2 3b a8 c3 29 be
       -0.16877282 0.23931065 0.0049443245 -0.16578543
000290 38 8a f5 3d 64 ec aa 3d b8 11 68 bd b8 c4 81 3d
       0.11989254 0.08345869 -0.056657523 0.06336349
0002a0 b4 55 2a be 72 c7 4e be 32 08 05 3e 9a fd 7a 3e
       -0.16634256 -0.2019327 0.12991408 0.24510804
0002b0 72 ba 15 be e0 6b ef 3c 00 41 af 3b 80 69 fd 3c
       -0.14621904 0.029226243 0.005348325 0.030934095
0002c0 40 e9 90 3d 20 22 bb bc 40 ac 5a bd f8 18 7d 3d
       0.07075739 -0.02284342 -0.053386927 0.06179139
0002d0 fc af 13 3e 20 e8 d5 bd 00 32 dd bd e0 9b a5 bd
       0.14422601 -0.10444665 -0.10800552 -0.080863714
0002e0 22 86 39 3e 38 ea 12 3d 0a be 1a 3e 60 4e 11 bd
       0.18117574 0.0358679 0.15111557 -0.035475135
0002f0 e4 5a fc 3d 68 d7 39 bd 88 30 a2 3d 00 9e 41 3c
       0.123220235 -0.045371443 0.07919413 0.011817455
000300 4c e6 34 3e 23 7a 64 be 60 78 05 3e dc 30 14 be
       0.17665976 -0.22312216 0.130342 -0.14471763
000310 60 1c 35 bc 73 4d 45 3e 7e 91 07 be 81 05 cf 3d
       -0.011054128 0.19267826 -0.13239095 0.10108472
000320 63 83 47 bd 4c 39 2e 3e 93 b9 d2 bd 3e a1 7e 3e
       -0.048709285 0.17014045 -0.10289302 0.24866197
000330 56 8b 4f 3e 8d 99 40 3e 09 35 88 be b1 fd 5f 3e
       0.20267996 0.18808575 -0.26602963 0.2187412
000340 c0 f8 53 be e0 38 3a 3e bc 68 0b be 95 79 88 3d
       -0.2070036 0.18185759 -0.13614172 0.06663815
000350 22 4e 56 3e fc 98 2a be 6c 03 c0 3d f3 78 24 be
       0.20928243 -0.16659921 0.09375653 -0.16061763
000360 ee 0f 2b 3d 29 3f 0e be 00 9c 80 3a 2d 19 4f bd
       0.04176324 -0.13891281 0.0009812117 -0.05056112
000370 5a 71 2c 3d 20 66 94 bc 1e 4b af 3d 92 08 81 bd
       0.042100288 -0.018115103 0.08559249 -0.06300463
000380 26 78 2c be 8f 14 e2 bd 53 74 52 3e 91 82 52 3d
       -0.16842708 -0.110390775 0.20552187 0.05139405
000390 58 c5 19 bd 5e 5d 27 bd 38 54 5d 3e 15 e5 84 3e
       -0.037541717 -0.040860526 0.21614158 0.25956026
0003a0 f5 3b 62 bc ee 7e 8d 3e e7 f9 90 3e 45 c7 7c 3e
       -0.01380824 0.27635902 0.2831566 0.2468539
0003b0 07 f8 2f 3e 49 08 96 bd 4d ef b5 bd 5d f2 70 3d
       0.17184459 -0.07325799 -0.088835336 0.058824886
0003c0 b3 4a 18 bd 70 57 2d be da 3c 1f bd 23 0f 63 3e
       -0.037180614 -0.16927886 -0.038876392 0.22173743
0003d0 ed e2 10 be c3 13 c5 bc 65 d1 b9 bd a9 1b da 3d
       -0.14149065 -0.024057275 -0.09073142 0.10649807
0003e0 35 1f 88 3d 0c 60 76 be b2 12 45 3e d0 99 dc 3d
       0.06646577 -0.24060076 0.19245413 0.10771525
0003f0 ee 0a 8a 3c 9b d7 d5 bd 50 c1 ad 3d 87 69 3f 3e
       0.016850915 -0.10441514 0.08484137 0.18692599

convolution_layers.1.bias f4 [32]
000000 03 26 6e 3d df e6 bf bb 7e a1 72 3d 20 31 83 3d
       0.05814172 -0.0058563794 0.059236042 0.06405854
000010 00 00 00 00 61 dc be bb a3 41 43 bc 42 1a 64 3d
       0.0 -0.005824611 -0.0119175045 0.055689104
000020 f2 30 50 bc c2 6d 60 3d d9 94 6b 3d b1 f2 81 3d
       -0.012706982 0.054792173 0.057515 0.06345118
000030 ec a6 5e 3d 6c b2 42 bd b9 b1 ad bc 2d 37 81 bc
       0.054358408 -0.047533438 -0.021202909 -0.01577338
000040 94 3f 68 3d 00 00 00 00 48 f0 63 3d ad fa 73 3d
       0.056701258 0.0 0.055649072 0.059565235
000050 10 56 39 bc a9 00 8d 3d e3 00 f4 bc 14 ef 82 3d
       -0.011312023 0.068848915 -0.02978558 0.06393257
000060 8e 1f db bc 1f b7 f8 bc 00 00 00 00 cc 7d 2f bd
       -0.026748445 -0.030360756 0.0 -0.04284458
000070 f9 f1 3b bc 90 d5 82 3d 79 79 8d 3d 50 f3 60 3d
       -0.011471265 0.0638839 0.06907935 0.05491954

classify.weight f4 [1, 32]
000000 38 c6 d1 3d 19 27 88 bd e9 69 fc 3d b2 13 58 3e
       0.10242885 -0.06648082 0.12324888 0.21101263
000010 c7 5d 07 3e a7 86 d8 bd 60 a7 9b bd bc 88 1e 3e
       0.13219367 -0.10572558 -0.076002836 0.15481848
000020 54 43 a0 bd 82 18 4c 3e 40 70 3a 3e ad ec 4c 3e
       -0.07825342 0.19931224 0.18206882 0.2001216
000030 e9 bb 5c 3e fe da 10 be a5 35 00 be cb 55 af bb
       0.21556057 -0.14146039 -0.12520464 -0.0053508035
000040 c1 5f 2c 3e 38 fe 17 be f0 6f 20 3e 73 5c c1 3d
       0.16833402 -0.1484307 0.15667701 0.094414614
000050 31 31 03 be 3e dc 09 3e 92 44 f4 bc 4d fb 38 3e
       -0.12811734 0.13462922 -0.029817853 0.18064614
000060 35 a9 64 3a 7b e4 66 bd aa 00 17 bd ce 9e 1b be
       0.00087227236 -0.05637024 -0.036865868 -0.15197298
000070 6d 64 28 be bf 3e 44 3e 49 59 6f 3d 66 a1 4b 3e
       -0.1644456 0.1916456 0.05843476 0.19885787
