checkpoints/epoch_17_val_loss_5.0190.pt (torch, 76530 bytes, 5 tensors)

convolution_layers.0.weight f4 [253, 64]
0	0xbc9149e3	-0.017735427
1	0xbbbbe78b	-0.005734389
2	0x3c3bd8f6	0.011465302
3	0xbcdcab08	-0.026937023
4	0x3d2d902e	0.04237383
5	0x3d29c529	0.041447792
6	0xbd04ffee	-0.032470636
7	0xbd948f45	-0.07253889
8	0xbd5c0d06	-0.053723358
9	0x3ddcfc26	0.10790281
10	0xbdcc8437	-0.099861555
11	0x3e06acaa	0.13151804
12	0x3df07aac	0.11742148
13	0xbd82c3e1	-0.06385017
14	0xbd09a44a	-0.033603944
15	0x3e043447	0.12910567
16	0xbdff34bf	-0.124612324
17	0xbac49409	-0.0014997731
18	0x3cb68d8d	0.022284294
19	0xbdb38631	-0.08765829
20	0x3d701592	0.05861432
21	0xbd3c877e	-0.046027653
22	0xbc0fce2d	-0.0087771835
23	0xbd571c80	-0.052517414
24	0xbd77825a	-0.060427047
25	0xbde0193b	-0.10942312
26	0x3cedc7dd	0.029025966
27	0xbdb42f14	-0.08798042
28	0x3dcf985c	0.10136482
29	0xbd83b10b	-0.06430253
30	0x3da2061b	0.07911321
31	0xbd9849bc	-0.07435939
32	0x3d880f5d	0.06643555
33	0x3dea0cd6	0.114282295
34	0xbd87858a	-0.066172674
35	0x3dd4241d	0.103584506
36	0xbe03c16f	-0.12866758
37	0x3ddf5ad9	0.10906
38	0xbd9017e6	-0.07035808
39	0x3d985bb9	0.0743937
40	0xbde16650	-0.11005843
41	0xbcda3b91	-0.026639732
42	0x3e0ae802	0.13565066
43	0xbdb80983	-0.08986189
44	0x3db7025d	0.08935998
45	0xba123fac	-0.0005578946
46	0xbd92fc7a	-0.07177062
47	0xbdea263d	-0.114330746
48	0x3db384d5	0.0876557
49	0x3dc76f94	0.09738079
50	0xbd58e0b3	-0.052948665
51	0xbcf55533	-0.029947853
52	0x3d4c24ef	0.04983991
53	0xbd78a4a8	-0.060703903
54	0xbbe5721d	-0.0070021288
55	0x3dcec1f4	0.100955874
56	0x3d3a20f9	0.0454416
57	0x3d4b8dc9	0.049695764
58	0xbd3c1c64	-0.045925513
59	0xbdebcced	-0.11513696
60	0x3e0c448e	0.13698027
61	0x3dcbfb13	0.09959998
62	0x3bae0584	0.005310716
63	0xbb9a0f37	-0.004701521
64	0x3dc25efe	0.094907746
65	0x3ba0f1b7	0.004911627
66	0xbdb53f8c	-0.08850011
67	0x3df3b8ea	0.11900504
68	0xbdec308a	-0.115326956
69	0x3d737876	0.059441052
70	0x3cfdc5b6	0.030978065
71	0x3b033fe5	0.0020027098
72	0x3c98010d	0.018555189
73	0xbc847a1f	-0.016171513
74	0x3da06965	0.078326024
75	0x3dda727e	0.10666369
76	0xbdbd5595	-0.09244839
77	0x3df2293f	0.11824273
78	0xbb66480b	-0.0035138156
79	0xbd042c64	-0.032268897
80	0xbd9a46a2	-0.075330034
81	0x3dcc0feb	0.099639736
82	0xbca0710c	-0.019585155
83	0xbdea97d8	-0.11454743
84	0xbdd3d0dd	-0.10342572
85	0xbd6b9f4d	-0.057524968
86	0x3db22aac	0.08699545
87	0xbd932e4e	-0.07186566
88	0x3e057cf5	0.13035949
89	0x3d84d015	0.06485001
90	0xbe000e11	-0.12505366
91	0x3db9715b	0.09054824
92	0x3db8803e	0.09008835
93	0x3e0b3e8d	0.1359808
94	0x3d6dfd6f	0.05810302
95	0x3dd2888d	0.10279951
96	0xbc243737	-0.01002293
97	0x3acb0d91	0.0015491714
98	0xbca659cf	-0.020306496
99	0x3dd2dd88	0.1029616
100	0xbd598c47	-0.053112295
101	0xbc601eee	-0.013679249
102	0x3dae497d	0.085101105
103	0x3d1e287b	0.038612824
104	0x3d37fbeb	0.044917982
105	0x3d73ff8b	0.059569877
106	0x3cb2b93f	0.021816848
107	0xbdca7b77	-0.0988683
108	0x3d5d7935	0.05407067
109	0x3cb276d4	0.021785177
110	0xbe0c66a8	-0.13711035
111	0x3c7bc892	0.015367644
112	0x3d39b922	0.045342572
113	0xbbf62d29	-0.0075127077
114	0x3d39cd60	0.045361876
115	0xbe05e403	-0.13075261
116	0x3c6f344e	0.014599873
117	0x3e01a395	0.12660058
118	0x3e048571	0.12941529
119	0xbdf779e8	-0.12083799
120	0xbb053d34	-0.002033067
121	0xbd7e7443	-0.062122595
122	0x3d16a752	0.036780663
123	0x3de9d687	0.11417871
124	0x3dfc3319	0.123144336
125	0x3d9753e0	0.07389045
126	0x3d4085e6	0.047002696
127	0x3bd03a05	0.0063545727
128	0xbdbecead	-0.09316764
129	0x3dec443d	0.11536453
130	0x3da6893b	0.081316434
131	0x3bbfd6e2	0.0058544734
132	0xbd8fb646	-0.07017188
133	0x3db584ac	0.08863196
134	0x3defd478	0.11710447
135	0x3dfb5ad8	0.122731864
136	0xbc917cd4	-0.017759718
137	0xbdad0e17	-0.08449953
138	0x3df22cf1	0.11824978
139	0xbdcb87db	-0.09938022
140	0x3dc190d5	0.09451453
141	0x3d99ff76	0.075194284
142	0x3cbe4e11	0.023230584
143	0xbdb17c56	-0.08666293
144	0xbceba2d4	-0.028764166
145	0x3dd403f2	0.10352315
146	0x3ddf6c49	0.10909326
147	0xbd0c6a90	-0.034281313
148	0xbc88e425	-0.01671035
149	0x3cfabd1f	0.030607758
150	0x3d28f6b1	0.04125089
151	0x3da74c60	0.08168864
152	0x3e076b9e	0.13224646
153	0x3dcc7dca	0.0998493
154	0x3da348aa	0.07972844
155	0xbca7f059	-0.020500349
156	0xbd0e43a8	-0.03473249
157	0x3d8c744e	0.06858121
158	0x3cccf99c	0.025021367
159	0xbd253067	-0.040329363
160	0x3dd48c24	0.10378292
161	0x3d8f9058	0.07009953
162	0xbde51e0b	-0.11187371
163	0xbd89ed04	-0.0673466
164	0x3d38d539	0.04512522
165	0x3d6c0cad	0.057629276
166	0xbdd1a281	-0.10236073
167	0x3d870efb	0.06594654
168	0x3d62af80	0.05534315
169	0x3d7c6fc3	0.06163002
170	0xbcb863c1	-0.022508504
171	0xbc926f46	-0.017875325
172	0xbdb5cbf0	-0.088767886
173	0x3d917c47	0.07103782
174	0xbe0c3d36	-0.13695225
175	0x3e000c58	0.12504709
176	0x3d364c10	0.044506133
177	0x3cff4ac7	0.031163586
178	0x3d51b3ab	0.051196735
179	0x3c53b8c0	0.012922466
180	0x3c302ea5	0.010753308
181	0xbdaff17b	-0.085909806
182	0xbd9db9f0	-0.077014804
183	0x3da288d3	0.079362534
184	0xbe0b859b	-0.13625185
185	0xbd97046d	-0.07373891
186	0x3d764d56	0.060132347
187	0x3db32db9	0.08748955
188	0x3de7916e	0.113070354
189	0x3d8326a4	0.064038545
190	0x3d98cfab	0.074614845
191	0xbc1a7bb2	-0.009428905
192	0x3c6a94de	0.014317719
193	0x3c015233	0.007893133
194	0xbddf3690	-0.10899079
195	0x3db146c0	0.086560726
196	0xbddc7e35	-0.107662596
197	0xbd93d0e3	-0.07217576
198	0x3db8f489	0.090310164
199	0x3846bae5	4.7380938e-05
200	0x3d676852	0.056495972
201	0xbc2c98a9	-0.010534444
202	0xbd46dc23	-0.048549782
203	0xbde95a95	-0.1139423
204	0xbd4f6293	-0.050631117
205	0xbb614240	-0.0034371763
206	0x3c9db803	0.019252783
207	0x3de121bb	0.10992762
208	0x3c4279b3	0.011869836
209	0xbd59dada	-0.05318723
210	0x3cdb965d	0.026805097
211	0x3e035314	0.1282466
212	0xbd9e596c	-0.077318996
213	0xbe09a6b3	-0.13442497
214	0x3c396322	0.011315139
215	0xbd9644b2	-0.07337321
216	0xbd3229c1	-0.04349685
217	0xbd4822d5	-0.048861343
218	0xbdfa2344	-0.12213758
219	0xbdbbabaa	-0.09163602
220	0x3dfcc094	0.12341419
221	0xbda679b6	-0.08128683
222	0x3de39873	0.11113062
223	0x3dd6fb0b	0.104971014
224	0xbbbfa4ce	-0.0058485037
225	0xbcf1552e	-0.029459562
226	0xbe007188	-0.12543309
227	0x3def4150	0.11682379
228	0x3c7ffd75	0.015624394
229	0xbe017e75	-0.12645896
230	0x3d4f09df	0.050546523
231	0x3da49059	0.08035345
232	0x3d54df71	0.051970903
233	0xbd9656db	-0.07340785
234	0xbbf51344	-0.0074791033
235	0x3d8f38b3	0.069932364
236	0x3a4af4cd	0.00077421666
237	0x3c0b383b	0.008497293
238	0xbd8cf35e	-0.06882356
239	0x3c09c229	0.008408108
240	0xbd9f1ab6	-0.077687666
241	0x3dfd0c0a	0.12355812
242	0xbd1ee4ab	-0.038792294
243	0xbc1773d4	-0.009243924
244	0xbdca0da5	-0.09865884
245	0xbd188084	-0.037231937
246	0xbdd38941	-0.103289135
247	0x3d827f5b	0.063719474
248	0xbd73358c	-0.05937724
249	0xbdc820c4	-0.097718745
250	0xbba3962e	-0.004992268
251	0x3d901aeb	0.07036384
252	0x3da7b9f4	0.081897646
253	0xbe027dcb	-0.12743299
254	0xbde29d41	-0.1106515
255	0x3db80c25	0.089866914

convolution_layers.0.bias f4 [64]
0	0xbcb7bbe3	-0.022428459
1	0xba547aff	-0.0008105486
2	0x00000000	0.0
3	0x3d9df1de	0.07712148
4	0x3db7310b	0.08944901
5	0x00000000	0.0
6	0xbba00694	-0.0048835967
7	0x3d8da6b1	0.069165595
8	0x3e1bc2fe	0.15211102
9	0x3de45733	0.111494444
10	0x3dd84edd	0.10561917
11	0x00000000	0.0
12	0x3daaea76	0.08345501
13	0x00000000	0.0
14	0xbc4e4db5	-0.012591769
15	0x3dc97b16	0.0983793
16	0x3db47af8	0.08812517
17	0xbc903167	-0.017601682
18	0x3db5302b	0.08847078
19	0x00000000	0.0
20	0x3dcf59bf	0.101245396
21	0x3da59269	0.08084566
22	0x00000000	0.0
23	0x00000000	0.0
24	0x3e3005d3	0.17189722
25	0x3e19838b	0.14991586
26	0x00000000	0.0
27	0xbd4b14d0	-0.049580395
28	0x3dbd779c	0.09251329
29	0x3e3b6845	0.18301494
30	0xbd7373d8	-0.05943665
31	0x3de661f6	0.11249153
32	0x00000000	0.0
33	0xbc2689ea	-0.010164717
34	0x3db9c0ae	0.09069954
35	0x3da7838b	0.08179387
36	0x3db9bbf8	0.09069055
37	0x3db57177	0.08859532
38	0x3de8bd5f	0.11364245
39	0x3d95bc58	0.07311314
40	0x00000000	0.0
41	0x3d949d9c	0.07256624
42	0x00000000	0.0
43	0xbd210eae	-0.03932064
44	0x3aed3b57	0.001809935
45	0x00000000	0.0
46	0x3e024b4d	0.12724037
47	0xbde5b202	-0.11215593
48	0x3d73906b	0.0594639
49	0x3d8d9621	0.069134004
50	0x3d9114c1	0.070840366
51	0x00000000	0.0
52	0xbbe5d40f	-0.0070138047
53	0x3da8f12a	0.082491234
54	0x3dde8bc3	0.10866501
55	0x3ddba34c	0.10724506
56	0x00000000	0.0
57	0xbb41c4e5	-0.0029566821
58	0x3da81d2c	0.08208689
59	0x3da8f9ae	0.082507476
60	0xbcdb34a4	-0.0267585
61	0x3d8d2422	0.068916574
62	0xbd208505	-0.039189357
63	0x3d359c67	0.04433861

convolution_layers.1.weight f4 [64, 32]
0	0x3ec7e7f8	0.39044166
1	0xbe6f3e87	-0.23363696
2	0x3e693cf2	0.22777155
3	0x3eb443f8	0.35208106
4	0xbdce0bd0	-0.10060847
5	0xbebfe2ea	-0.3747781
6	0xbc268967	-0.010164595
7	0x3e6ba8ba	0.23013583
8	0xbec55ca5	-0.38547245
9	0x3ea9f461	0.3319426
10	0x3d4d39db	0.050104003
11	0x3eacc399	0.3374298
12	0x3e33de62	0.17565301
13	0xbe459bbd	-0.1929769
14	0xbe1e08c5	-0.15433033
15	0xbe1d6aec	-0.15372819
16	0x3ea744b8	0.32669616
17	0xbcd4e7e0	-0.025989473
18	0x3e6b3a5c	0.22971481
19	0x3e9bdbf6	0.30441254
20	0xbe6ab36b	-0.22920005
21	0x3edb5cdf	0.42844293
22	0xbe1260f2	-0.14294794
23	0x3e9a1f6d	0.301021
24	0xbe183351	-0.14863326
25	0xbdd889da	-0.10573168
26	0x3df8d570	0.12150085
27	0xbe1f5f97	-0.15563808
28	0x3dada77d	0.084792115
29	0x3dc7cf06	0.097562835
30	0x3e342b3c	0.17594618
31	0x3c218632	0.009858655
32	0x3e356093	0.17712621
33	0xbde9ce01	-0.11416245
34	0xbd654ec5	-0.055983324
35	0x3e801a41	0.2502003
36	0x3e5e2576	0.21693978
37	0xbe3cd2a2	-0.18439725
38	0x3e1c55f3	0.15267162
39	0xbd6663d3	-0.056247544
40	0x3d506bdd	0.050884116
41	0xbdaae1f0	-0.083438754
42	0xbdfa8ae5	-0.12233523
43	0x3ded7081	0.11593724
44	0x3e87d9d2	0.2653337
45	0xbe0160e5	-0.12634619
46	0xbd816bbf	-0.06319379
47	0xbe187092	-0.14886692
48	0x3d565c19	0.052333925
49	0x3e25eb58	0.16203058
50	0xbd729963	-0.059228312
51	0x3e6a777d	0.22897144
52	0xbe6550a9	-0.2239405
53	0xbdab59ba	-0.08366723
54	0x3e0a8eb7	0.13531004
55	0xbdab4d41	-0.083643444
56	0x3df7d410	0.121009946
57	0xbe3364f2	-0.17518976
58	0xbe1dc690	-0.15407777
59	0xbe53ffe6	-0.20703086
60	0xbe18fcb4	-0.14940149
61	0xbe11b52f	-0.14229272
62	0xbce4b19b	-0.02791672
63	0xbe0e8c00	-0.13920593
64	0x3e1dd8ea	0.15414777
65	0xbd4fa710	-0.050696433
66	0xbd30db08	-0.043177634
67	0xbdf28128	-0.11841041
68	0xbe055a52	-0.13022736
69	0x3e171778	0.14755046
70	0x3d8f8f0c	0.07009706
71	0xbe52eff2	-0.20599344
72	0x3c024260	0.007950395
73	0xbe12bb30	-0.14329219
74	0x3e364296	0.17798838
75	0xbe03ccb4	-0.12871057
76	0xbdff7418	-0.12473315
77	0x3e4becbe	0.19914529
78	0x3e14e152	0.14539078
79	0xbdaa6358	-0.083197296
80	0x3c10aa60	0.008829683
81	0x3d85d614	0.06534973
82	0x3de82134	0.11334458
83	0xbe0bd894	-0.13656837
84	0x3df0ab40	0.11751413
85	0xbca986c0	-0.020694137
86	0xbe45623a	-0.19275752
87	0x3e53be9c	0.2067818
88	0xbd37e1e8	-0.044893175
89	0x3e49cc6c	0.19706887
90	0x3b60b200	0.0034285784
91	0xb9859c00	-0.00025483966
92	0x3e1ec588	0.1550504
93	0xbc7a5f00	-0.015281439
94	0x3e28a7aa	0.16470209
95	0xbe3068a4	-0.17227417
96	0xbd429c9b	-0.047512632
97	0xbda7cb57	-0.08193081
98	0xbe211824	-0.15731865
99	0x3ce684ed	0.028139556
100	0xbe800640	-0.25004768
101	0xbc5e93f5	-0.01358508
102	0x3d4e63d4	0.050388172
103	0x3e87e70b	0.2654346
104	0xbdf94872	-0.12172021
105	0x3e44a9b5	0.19205363
106	0xbd1aacc4	-0.03776242
107	0x3e935632	0.287767
108	0xbd11e188	-0.035615474
109	0x3dd651a2	0.10464789
110	0xbe80ac3e	-0.2513141
111	0xbe58665b	-0.21132796
112	0x3e71923d	0.23590942
113	0xbcc5e670	-0.024157733
114	0x3e197d86	0.1498929
115	0x3e17148f	0.14753936
116	0xbe2b37b6	-0.16720471
117	0x3e5b431c	0.21412319
118	0xbe7ebcf6	-0.2487677
119	0x3e8b7ebc	0.27245128
120	0x3b901f1a	0.004398239
121	0x3e44856c	0.19191521
122	0xbd02ec50	-0.031963646
123	0xbe246b19	-0.1605648
124	0xbe7e80a9	-0.24853767
125	0x3db889ca	0.09010656
126	0xbe15f5f3	-0.14644603
127	0x3e0129a1	0.12613536
128	0xbd91cee4	-0.071195394
129	0xbd400504	-0.046879783
130	0x3e36a949	0.17838015
131	0x3e0f854f	0.14015697
132	0xbde4b6f0	-0.11167705
133	0xbd777a5f	-0.060419437
134	0x3dd2fb23	0.10301807
135	0x3db8d9d4	0.090259224
136	0x3e114645	0.14186962
137	0x3d26dfda	0.040740825
138	0x3e9da1b3	0.3078743
139	0x3c7962d9	0.015221321
140	0x3e952aa7	0.29134104
141	0x3e16b861	0.14718772
142	0xbe8d3e49	-0.27586582
143	0xbe07f09a	-0.13275376
144	0x3dde65a5	0.10859231
145	0x3dbfd514	0.09366813
146	0xbbe3953b	-0.00694528
147	0x3e131c11	0.14366175
148	0x3d28eeb5	0.041243274
149	0x3e667ebd	0.22509284
150	0xbc8c3a3c	-0.017117612
151	0x3e674d8c	0.22588176
152	0x3e28f2db	0.16498892
153	0xbdf00c4e	-0.11721097
154	0xbe406ebc	-0.18792242
155	0xbe14e215	-0.14539368
156	0x3dee77e7	0.11643963
157	0x3e8ce5e8	0.27519155
158	0x3e55d589	0.20882238
159	0x3c48b576	0.012250295
160	0xbe2cd2c8	-0.16877282
161	0x3e750dda	0.23931065
162	0x3ba20400	0.0049443245
163	0xbe29c3a8	-0.16578543
164	0x3df58a38	0.11989254
165	0x3daaec64	0.08345869
166	0xbd6811b8	-0.056657523
167	0x3d81c4b8	0.06336349
168	0xbe2a55b4	-0.16634256
169	0xbe4ec772	-0.2019327
170	0x3e050832	0.12991408
171	0x3e7afd9a	0.24510804
172	0xbe15ba72	-0.14621904
173	0x3cef6be0	0.029226243
174	0x3baf4100	0.005348325
175	0x3cfd6980	0.030934095
176	0x3d90e940	0.07075739
177	0xbcbb2220	-0.02284342
178	0xbd5aac40	-0.053386927
179	0x3d7d18f8	0.06179139
180	0x3e13affc	0.14422601
181	0xbdd5e820	-0.10444665
182	0xbddd3200	-0.10800552
183	0xbda59be0	-0.080863714
184	0x3e398622	0.18117574
185	0x3d12ea38	0.0358679
186	0x3e1abe0a	0.15111557
187	0xbd114e60	-0.035475135
188	0x3dfc5ae4	0.123220235
189	0xbd39d768	-0.045371443
190	0x3da23088	0.07919413
191	0x3c419e00	0.011817455
192	0x3e43d307	0.1912347
193	0xbe647a23	-0.22312216
194	0x3e164a25	0.14676721
195	0xbde79c67	-0.11309128
196	0xbc29d24a	-0.010365078
197	0x3e44ff00	0.192379
198	0xbe1693d9	-0.14704837
199	0x3de97172	0.11398591
200	0xbd972c19	-0.07381458
201	0x3e3b9c9f	0.18321465
202	0xbdb4d36b	-0.08829387
203	0x3e897b5f	0.26851937
204	0x3e5c633b	0.21522228
205	0x3e3f764a	0.18697467
206	0xbe9535f5	-0.29142728
207	0x3e5ffdb1	0.2187412
208	0xbe44d946	-0.19223508
209	0x3e3a38e0	0.18185759
210	0xbdfcc709	-0.123426504
211	0x3da6a915	0.081377186
212	0x3e28f698	0.16500318
213	0xbe130727	-0.14358197
214	0x3db335b7	0.0875048
215	0xbe084c36	-0.13310322
216	0x3d2a5435	0.041584212
217	0xbe18f32a	-0.1493651
218	0x3a809c00	0.0009812117
219	0xbd6d8f7b	-0.05799816
220	0x3ce3fe83	0.027831322
221	0x3aaddf6a	0.0013265435
222	0x3dd1c9a3	0.10243537
223	0xbd4cd53f	-0.050008055
224	0xbe32aed7	-0.17449509
225	0xbde2148f	-0.110390775
226	0x3e4faa66	0.20279846
227	0x3d9703f4	0.07373801
228	0xbd821490	-0.06351578
229	0x3d4cfd40	0.050046206
230	0x3e71107a	0.23541442
231	0x3e82195e	0.2540998
232	0x3d873343	0.06601574
233	0x3e8c16cb	0.2736114
234	0x3e8dce84	0.2769662
235	0x3e80b365	0.25136867
236	0x3e2b610d	0.1673624
237	0xbd49825e	-0.049196593
238	0xbb3791c3	-0.0028010465
239	0x3d70f18b	0.058824103
240	0xbd3322d1	-0.043734375
241	0xbe2d5770	-0.16927886
242	0xbd3a6439	-0.045505736
243	0x3e5b0382	0.21388057
244	0xbdf32e11	-0.11874021
245	0xbc9d465a	-0.019198585
246	0xbda881c8	-0.08227879
247	0x3df55030	0.11978185
248	0x3d877fb9	0.06616158
249	0xbe632fe3	-0.22186236
250	0x3e4512b2	0.19245413
251	0x3e070cc1	0.13188459
252	0x3d370504	0.044682518
253	0xbdcafd22	-0.099115625
254	0x3d966d54	0.073450714
255	0x3e3950e4	0.18097264

convolution_layers.1.bias f4 [32]
0	0x3e06c315	0.13160355
1	0xbbbfe6df	-0.0058563794
2	0x3e10fda8	0.14159262
3	0x3e34d115	0.17657883
4	0xbcafe775	-0.021472672
5	0xbd7bb05c	-0.061447486
6	0xbc27c9fc	-0.010241028
7	0x3dfd861f	0.12379097
8	0xbda02213	-0.07818999
9	0x3e02c0d0	0.12768865
10	0x3e0112fd	0.126049
11	0x3e1d5ea7	0.15368138
12	0x3df73361	0.120703466
13	0xbda1a68f	-0.07893097
14	0xbd46d3f1	-0.048541967
15	0xbc8146d8	-0.015780851
16	0x3e01cb16	0.12675127
17	0x00000000	0.0
18	0x3df877c3	0.12132218
19	0x3e07497d	0.13211627
20	0xbd17365f	-0.036917087
21	0x3e2e10a7	0.1699854
22	0xbcea5c68	-0.028608516
23	0x3e3659b9	0.17807664
24	0xbcdb4c05	-0.026769647
25	0xbd5d6217	-0.054048624
26	0x00000000	0.0
27	0xbdb395d3	-0.08768811
28	0xbccd5649	-0.025065558
29	0x3e203860	0.15646505
30	0x3e18d6ec	0.14925736
31	0x3df8e5d3	0.121532105

classify.weight f4 [1, 32]
0	0x3e1345b8	0.14382064
1	0xbd882719	-0.06648082
2	0x3e4b2a2c	0.19840306
3	0x3eb6f9eb	0.35737547
4	0x3de01b18	0.10942668
5	0xbeec719b	-0.46180424
6	0xbe78cfea	-0.24298063
7	0x3e3db38a	0.1852552
8	0xbed11535	-0.40836492
9	0x3e7e4151	0.24829604
10	0x3e5f96ec	0.21834916
11	0x3e8f5507	0.27994558
12	0x3e80a832	0.25128323
13	0xbe51cc3d	-0.20488067
14	0xbf1029cc	-0.56313777
15	0xbbaf565d	-0.0053508715
16	0x3e5ef330	0.21772456
17	0xbe17fe38	-0.1484307
18	0x3e360554	0.1777547
19	0x3e084b88	0.13310063
20	0xbee3b4c7	-0.4447386
21	0x3e70e092	0.23523167
22	0xbdb09b7d	-0.08623407
23	0x3ea13417	0.31485054
24	0xb881ff28	-6.198726e-05
25	0xbe347377	-0.17622171
26	0xbd1700aa	-0.036865868
27	0xbeb43551	-0.35196927
28	0xbe954dba	-0.29160863
29	0x3e8a9182	0.2706414
30	0x3dc68e2f	0.09695088
31	0x3e79af6a	0.24383321
