checkpoints/epoch_08_val_loss_5.6922.pt (torch, 76530 bytes, 5 tensors)

convolution_layers.0.weight f4 [253, 64]
000000 e3 49 91 bc 8b e7 bb bb f6 d8 3b 3c 08 ab dc bc
       -0.017735427 -0.005734389 0.011465302 -0.026937023
000010 2e 90 2d 3d 29 c5 29 3d ee ff 04 bd 45 8f 94 bd
       0.04237383 0.041447792 -0.032470636 -0.07253889
000020 06 0d 5c bd 26 fc dc 3d 37 84 cc bd aa ac 06 3e
       -0.053723358 0.10790281 -0.099861555 0.13151804
000030 ac 7a f0 3d e1 c3 82 bd 4a a4 09 bd 47 34 04 3e
       0.11742148 -0.06385017 -0.033603944 0.12910567
000040 bf 34 ff bd 09 94 c4 ba 8d 8d b6 3c 31 86 b3 bd
       -0.124612324 -0.0014997731 0.022284294 -0.08765829
000050 92 15 70 3d 7e 87 3c bd 2d ce 0f bc 80 1c 57 bd
       0.05861432 -0.046027653 -0.0087771835 -0.052517414
000060 5a 82 77 bd 3b 19 e0 bd dd c7 ed 3c 14 2f b4 bd
       -0.060427047 -0.10942312 0.029025966 -0.08798042
000070 5c 98 cf 3d 0b b1 83 bd 1b 06 a2 3d bc 49 98 bd
       0.10136482 -0.06430253 0.07911321 -0.07435939
000080 5d 0f 88 3d d6 0c ea 3d 8a 85 87 bd 1d 24 d4 3d
       0.06643555 0.114282295 -0.066172674 0.103584506
000090 6f c1 03 be d9 5a df 3d e6 17 90 bd b9 5b 98 3d
       -0.12866758 0.10906 -0.07035808 0.0743937
0000a0 50 66 e1 bd 91 3b da bc 02 e8 0a 3e 83 09 b8 bd
       -0.11005843 -0.026639732 0.13565066 -0.08986189
0000b0 5d 02 b7 3d ac 3f 12 ba 7a fc 92 bd 3d 26 ea bd
       0.08935998 -0.0005578946 -0.07177062 -0.114330746
0000c0 d5 84 b3 3d 94 6f c7 3d b3 e0 58 bd 33 55 f5 bc
       0.0876557 0.09738079 -0.052948665 -0.029947853
0000d0 ef 24 4c 3d a8 a4 78 bd 1d 72 e5 bb f4 c1 ce 3d
       0.04983991 -0.060703903 -0.0070021288 0.100955874
0000e0 f9 20 3a 3d c9 8d 4b 3d 64 1c 3c bd ed cc eb bd
       0.0454416 0.049695764 -0.045925513 -0.11513696
0000f0 8e 44 0c 3e 13 fb cb 3d 84 05 ae 3b 37 0f 9a bb
       0.13698027 0.09959998 0.005310716 -0.004701521
000100 fe 5e c2 3d b7 f1 a0 3b 8c 3f b5 bd ea b8 f3 3d
       0.094907746 0.004911627 -0.08850011 0.11900504
000110 8a 30 ec bd 76 78 73 3d b6 c5 fd 3c e5 3f 03 3b
       -0.115326956 0.059441052 0.030978065 0.0020027098
000120 0d 01 98 3c 1f 7a 84 bc 65 69 a0 3d 7e 72 da 3d
       0.018555189 -0.016171513 0.078326024 0.10666369
000130 95 55 bd bd 3f 29 f2 3d 0b 48 66 bb 64 2c 04 bd
       -0.09244839 0.11824273 -0.0035138156 -0.032268897
000140 a2 46 9a bd eb 0f cc 3d 0c 71 a0 bc d8 97 ea bd
       -0.075330034 0.099639736 -0.019585155 -0.11454743
000150 dd d0 d3 bd 4d 9f 6b bd ac 2a b2 3d 4e 2e 93 bd
       -0.10342572 -0.057524968 0.08699545 -0.07186566
000160 f5 7c 05 3e 15 d0 84 3d 11 0e 00 be 5b 71 b9 3d
       0.13035949 0.06485001 -0.12505366 0.09054824
000170 3e 80 b8 3d 8d 3e 0b 3e 6f fd 6d 3d 8d 88 d2 3d
       0.09008835 0.1359808 0.05810302 0.10279951
000180 37 37 24 bc 91 0d cb 3a cf 59 a6 bc 88 dd d2 3d
       -0.01002293 0.0015491714 -0.020306496 0.1029616
000190 47 8c 59 bd ee 1e 60 bc 7d 49 ae 3d 7b 28 1e 3d
       -0.053112295 -0.013679249 0.085101105 0.038612824
0001a0 eb fb 37 3d 8b ff 73 3d 3f b9 b2 3c 77 7b ca bd
       0.044917982 0.059569877 0.021816848 -0.0988683
0001b0 35 79 5d 3d d4 76 b2 3c a8 66 0c be 92 c8 7b 3c
       0.05407067 0.021785177 -0.13711035 0.015367644
0001c0 22 b9 39 3d 29 2d f6 bb 60 cd 39 3d 03 e4 05 be
       0.045342572 -0.0075127077 0.045361876 -0.13075261
0001d0 4e 34 6f 3c 95 a3 01 3e 71 85 04 3e e8 79 f7 bd
       0.014599873 0.12660058 0.12941529 -0.12083799
0001e0 34 3d 05 bb 43 74 7e bd 52 a7 16 3d 87 d6 e9 3d
       -0.002033067 -0.062122595 0.036780663 0.11417871
0001f0 19 33 fc 3d e0 53 97 3d e6 85 40 3d 05 3a d0 3b
       0.123144336 0.07389045 0.047002696 0.0063545727
000200 ad ce be bd 3d 44 ec 3d 3b 89 a6 3d e2 d6 bf 3b
       -0.09316764 0.11536453 0.081316434 0.0058544734
000210 46 b6 8f bd ac 84 b5 3d 78 d4 ef 3d d8 5a fb 3d
       -0.07017188 0.08863196 0.11710447 0.122731864
000220 d4 7c 91 bc 17 0e ad bd f1 2c f2 3d db 87 cb bd
       -0.017759718 -0.08449953 0.11824978 -0.09938022
000230 d5 90 c1 3d 76 ff 99 3d 11 4e be 3c 56 7c b1 bd
       0.09451453 0.075194284 0.023230584 -0.08666293
000240 d4 a2 eb bc f2 03 d4 3d 49 6c df 3d 90 6a 0c bd
       -0.028764166 0.10352315 0.10909326 -0.034281313
000250 25 e4 88 bc 1f bd fa 3c b1 f6 28 3d 60 4c a7 3d
       -0.01671035 0.030607758 0.04125089 0.08168864
000260 9e 6b 07 3e ca 7d cc 3d aa 48 a3 3d 59 f0 a7 bc
       0.13224646 0.0998493 0.07972844 -0.020500349
000270 a8 43 0e bd 4e 74 8c 3d 9c f9 cc 3c 67 30 25 bd
       -0.03473249 0.06858121 0.025021367 -0.040329363
000280 24 8c d4 3d 58 90 8f 3d 0b 1e e5 bd 04 ed 89 bd
       0.10378292 0.07009953 -0.11187371 -0.0673466
000290 39 d5 38 3d ad 0c 6c 3d 81 a2 d1 bd fb 0e 87 3d
       0.04512522 0.057629276 -0.10236073 0.06594654
0002a0 80 af 62 3d c3 6f 7c 3d c1 63 b8 bc 46 6f 92 bc
       0.05534315 0.06163002 -0.022508504 -0.017875325
0002b0 f0 cb b5 bd 47 7c 91 3d 36 3d 0c be 58 0c 00 3e
       -0.088767886 0.07103782 -0.13695225 0.12504709
0002c0 10 4c 36 3d c7 4a ff 3c ab b3 51 3d c0 b8 53 3c
       0.044506133 0.031163586 0.051196735 0.012922466
0002d0 a5 2e 30 3c 7b f1 af bd f0 b9 9d bd d3 88 a2 3d
       0.010753308 -0.085909806 -0.077014804 0.079362534
0002e0 9b 85 0b be 6d 04 97 bd 56 4d 76 3d b9 2d b3 3d
       -0.13625185 -0.07373891 0.060132347 0.08748955
0002f0 6e 91 e7 3d a4 26 83 3d ab cf 98 3d b2 7b 1a bc
       0.113070354 0.064038545 0.074614845 -0.009428905
000300 de 94 6a 3c 33 52 01 3c 90 36 df bd c0 46 b1 3d
       0.014317719 0.007893133 -0.10899079 0.086560726
000310 35 7e dc bd e3 d0 93 bd 89 f4 b8 3d e5 ba 46 38
       -0.107662596 -0.07217576 0.090310164 4.7380938e-05
000320 52 68 67 3d a9 98 2c bc 23 dc 46 bd 95 5a e9 bd
       0.056495972 -0.010534444 -0.048549782 -0.1139423
000330 93 62 4f bd 40 42 61 bb 03 b8 9d 3c bb 21 e1 3d
       -0.050631117 -0.0034371763 0.019252783 0.10992762
000340 b3 79 42 3c da da 59 bd 5d 96 db 3c 14 53 03 3e
       0.011869836 -0.05318723 0.026805097 0.1282466
000350 6c 59 9e bd b3 a6 09 be 22 63 39 3c b2 44 96 bd
       -0.077318996 -0.13442497 0.011315139 -0.07337321
000360 c1 29 32 bd d5 22 48 bd 44 23 fa bd aa ab bb bd
       -0.04349685 -0.048861343 -0.12213758 -0.09163602
000370 94 c0 fc 3d b6 79 a6 bd 73 98 e3 3d 0b fb d6 3d
       0.12341419 -0.08128683 0.11113062 0.104971014
000380 ce a4 bf bb 2e 55 f1 bc 88 71 00 be 50 41 ef 3d
       -0.0058485037 -0.029459562 -0.12543309 0.11682379
000390 75 fd 7f 3c 75 7e 01 be df 09 4f 3d 59 90 a4 3d
       0.015624394 -0.12645896 0.050546523 0.08035345
0003a0 71 df 54 3d db 56 96 bd 44 13 f5 bb b3 38 8f 3d
       0.051970903 -0.07340785 -0.0074791033 0.069932364
0003b0 cd f4 4a 3a 3b 38 0b 3c 5e f3 8c bd 29 c2 09 3c
       0.00077421666 0.008497293 -0.06882356 0.008408108
0003c0 b6 1a 9f bd 0a 0c fd 3d ab e4 1e bd d4 73 17 bc
       -0.077687666 0.12355812 -0.038792294 -0.009243924
0003d0 a5 0d ca bd 84 80 18 bd 41 89 d3 bd 5b 7f 82 3d
       -0.09865884 -0.037231937 -0.103289135 0.063719474
0003e0 8c 35 73 bd c4 20 c8 bd 2e 96 a3 bb eb 1a 90 3d
       -0.05937724 -0.097718745 -0.004992268 0.07036384
0003f0 f4 b9 a7 3d cb 7d 02 be 41 9d e2 bd 25 0c b8 3d
       0.081897646 -0.12743299 -0.1106515 0.089866914

convolution_layers.0.bias f4 [64]
000000 56 15 89 bc a8 00 2d bd 00 00 00 00 a2 43 62 3d
       -0.016733807 -0.042236954 0.0 0.05524028
000010 ba ae 5c 3d 00 00 00 00 47 0c c7 bc 30 65 62 3d
       0.05387757 0.0 -0.024297846 0.05527228
000020 f3 8c a3 3d f8 bb 8a 3d aa bd 65 3d 00 00 00 00
       0.07985868 0.067741334 0.05608908 0.0
000030 a1 b2 75 3d 00 00 00 00 b5 4d 4e bc 3e 6d 37 3d
       0.059984807 0.0 -0.012591769 0.044781916
000040 f2 9a 7f 3d 67 31 90 bc 36 42 30 3d 00 00 00 00
       0.062403627 -0.017601682 0.043031894 0.0
000050 a1 07 63 3d 0c 6c 74 3d 00 00 00 00 00 00 00 00
       0.055427197 0.059673354 0.0 0.0
000060 b0 61 b9 3d c8 69 a9 3d 00 00 00 00 c0 c7 3b bd
       0.090518355 0.08272129 0.0 -0.045844793
000070 91 f4 1f 3d 0c 22 b4 3d 80 50 31 bd c8 b4 83 3d
       0.039051596 0.087955564 -0.04328966 0.06430966
000080 00 00 00 00 11 e4 1c bc fb 6b 5e 3d ab 28 63 3d
       0.0 -0.00957586 0.054302197 0.055458706
000090 51 38 58 3d 32 79 68 3d 51 3f 8a 3d 10 82 61 3d
       0.052788083 0.056756206 0.06750358 0.055055678
0000a0 00 00 00 00 f9 68 00 3d 00 00 00 00 fb 65 83 bd
       0.0 0.03135011 0.0 -0.064159356
0000b0 c9 9d 07 bc 00 00 00 00 f2 f5 87 3d a7 30 78 bd
       -0.008277365 0.0 0.06638707 -0.060593273
0000c0 00 14 8a bb ba 3c 47 3d 8e d0 43 3d 00 00 00 00
       -0.00421381 0.048641898 0.047806315 0.0
0000d0 0f d4 e5 bb e9 41 f7 3c 71 af 7a 3d 16 f8 7d 3d
       -0.0070138047 0.030182796 0.06120247 0.06200417
0000e0 00 00 00 00 58 14 4a bc a4 4e 39 3d 60 c6 6f 3d
       0.0 -0.012333952 0.045241013 0.058538795
0000f0 a4 34 db bc f3 b5 61 3d 48 47 29 bd 8f 6c b8 bc
       -0.0267585 0.05510516 -0.041327745 -0.022512702

convolution_layers.1.weight f4 [64, 32]
000000 d9 c8 31 3e 87 3e 6f be c2 ef 57 bc b9 d2 86 3d
       0.17361774 -0.23363696 -0.013179721 0.06583161
000010 d0 0b ce bd a2 83 29 be 8b 3a 2f 3e d0 b8 d9 3c
       -0.10060847 -0.1655412 0.17112176 0.026577383
000020 44 cc 49 be f7 dc 06 3e 9e 57 22 be 71 78 e1 3d
       -0.19706827 0.13170229 -0.15853736 0.110093005
000030 30 05 ba bc f8 bd d7 bd e7 76 92 3d ec 6a 1d be
       -0.022707552 -0.105342805 0.07151585 -0.15372819
000040 7d 9a f4 3d e0 e7 d4 bc 92 0c f7 3c e6 df ad 3d
       0.11943529 -0.025989473 0.030157361 0.08489971
000050 41 67 5c 3b e4 6b 27 3e 79 6a aa 3c 83 28 ad 3c
       0.003363088 0.16349751 0.020802723 0.021137482
000060 51 33 18 be ad e6 16 3c 70 d5 f8 3d 36 75 d9 bc
       -0.14863326 0.009210271 0.12150085 -0.026545148
000070 20 db 2d 3e 66 65 16 be 9d 15 8b bd 93 42 44 be
       0.16978121 -0.14687118 -0.06791232 -0.19166021
000080 fa c1 23 3e 01 ce e9 bd f7 1c 9b bd ec 1d 5f 3e
       0.15991965 -0.11416245 -0.07573884 0.21788758
000090 76 25 5e 3e ca f2 06 be 9d ca 30 3e 1e 00 91 bd
       0.21693978 -0.13178554 0.17264791 -0.070801005
0000a0 88 2b d9 3d 3a fb c8 bd 2e da 0d be 9c 38 bf 3d
       0.10604006 -0.09813543 -0.1385276 0.09336969
0000b0 ce c1 80 3e bc 1a f4 bd 9f 25 af 3c 92 70 18 be
       0.2514786 -0.11919162 0.021380244 -0.14886692
0000c0 c2 20 12 3d 58 eb 25 3e c5 89 96 bd c1 52 58 3e
       0.03567577 0.16203058 -0.07350496 0.21125318
0000d0 a3 c3 2e be dd f4 e3 bd c0 12 13 3e 1a 62 ea bd
       -0.17066817 -0.11130688 0.14362621 -0.11444493
0000e0 8a d3 f7 3d 6d 24 23 be 90 c6 1d be 7e 38 46 be
       0.12100895 -0.15931864 -0.15407777 -0.19357488
0000f0 39 13 06 be 32 28 28 be ee 99 4d bd 28 7f 1d be
       -0.1309327 -0.16421583 -0.050195627 -0.15380538
000100 ea d8 1d 3e 10 a7 4f bd 08 db 30 bd 28 81 f2 bd
       0.15414777 -0.050696433 -0.043177634 -0.11841041
000110 52 5a 05 be 78 17 17 3e 0c 8f 8f 3d f2 ef 52 be
       -0.13022736 0.14755046 0.07009706 -0.20599344
000120 60 42 02 3c 30 bb 12 be 96 42 36 3e b4 cc 03 be
       0.007950395 -0.14329219 0.17798838 -0.12871057
000130 18 74 ff bd be ec 4b 3e 52 e1 14 3e 58 63 aa bd
       -0.12473315 0.19914529 0.14539078 -0.083197296
000140 60 aa 10 3c 14 d6 85 3d 34 21 e8 3d 94 d8 0b be
       0.008829683 0.06534973 0.11334458 -0.13656837
000150 40 ab f0 3d c0 86 a9 bc 3a 62 45 be 9c be 53 3e
       0.11751413 -0.020694137 -0.19275752 0.2067818
000160 e8 e1 37 bd 6c cc 49 3e 00 b2 60 3b 00 9c 85 b9
       -0.044893175 0.19706887 0.0034285784 -0.00025483966
000170 88 c5 1e 3e 00 5f 7a bc aa a7 28 3e a4 68 30 be
       0.1550504 -0.015281439 0.16470209 -0.17227417
000180 f4 4f 7c bd 57 cb a7 bd 1d 5a 32 be 11 4c a6 bb
       -0.061599687 -0.08193081 -0.17417188 -0.005074986
000190 97 c6 7f be 6c f0 c7 bb a7 dc 6f 3d 97 4e 81 3e
       -0.249781 -0.0061016586 0.05856004 0.25255272
0001a0 fb 61 e8 bd d3 55 36 3e 29 56 51 bd f1 fd 88 3e
       -0.11346813 0.17806177 -0.05110756 0.26756242
0001b0 44 d1 46 bd 4c bf d2 3d ad 1b 6f be 5b 66 58 be
       -0.048539415 0.10290393 -0.23350401 -0.21132796
0001c0 4e 8d 63 3e 70 e6 c5 bc 9a a9 0c 3e 48 e2 08 3e
       0.22221872 -0.024157733 0.13736573 0.1336757
0001d0 fa 2b 0e be 60 0c 44 3e ff f4 77 be 85 a9 7a 3e
       -0.13883963 0.19145346 -0.24214552 0.24478729
0001e0 00 00 90 3b f8 6c 4c 3e 50 ec 02 bd 77 d3 21 be
       0.0043945312 0.19963443 -0.031963646 -0.15803324
0001f0 59 59 78 be 41 7a 8e 3d 84 c3 24 be 2c a0 e7 3d
       -0.24252833 0.06956912 -0.16090208 0.11309847
000200 4c f3 b6 bd 04 05 40 bd a5 16 21 3e a8 88 d3 3d
       -0.08933124 -0.046879783 0.15731294 0.103287995
000210 f0 b6 e4 bd 9b e8 2f bd 61 1c e8 3d e7 bd 96 3d
       -0.11167705 -0.04294644 0.11333538 0.0736044
000220 db c2 25 3e 45 c0 bb 3c a0 cb 94 3e 7b 7a 12 bc
       0.16187613 0.02291883 0.29061604 -0.008940334
000230 43 a7 8c 3e 65 a2 18 3e 28 cf 7a be 9a f0 07 be
       0.2747136 0.14905699 -0.24493086 -0.13275376
000240 39 27 ba 3d 14 d5 bf 3d ec 30 be bc 79 c4 00 3e
       0.090895124 0.09366813 -0.023216687 0.12574948
000250 c3 25 9b 3d 33 07 4b 3e c9 47 11 bc 2a c5 46 3e
       0.07575562 0.19826965 -0.008867213 0.1941115
000260 df f1 28 3e c0 c5 d4 bd bc 6e 40 be 7e 6a 0d be
       0.16498516 -0.1038928 -0.18792242 -0.13810155
000270 80 32 00 3e 59 63 80 3e f1 a3 42 3e b8 13 97 bb
       0.12519264 0.25075796 0.19007851 -0.004610505
000280 c8 d2 2c be da 0d 75 3e 00 04 a2 3b a8 c3 29 be
       -0.16877282 0.23931065 0.0049443245 -0.16578543
000290 38 8a f5 3d 64 ec aa 3d b8 11 68 bd b8 c4 81 3d
       0.11989254 0.08345869 -0.056657523 0.06336349
0002a0 b4 55 2a be 72 c7 4e be 32 08 05 3e 9a fd 7a 3e
       -0.16634256 -0.2019327 0.12991408 0.24510804
0002b0 72 ba 15 be e0 6b ef 3c 00 41 af 3b 80 69 fd 3c
       -0.14621904 0.029226243 0.005348325 0.030934095
0002c0 40 e9 90 3d 20 22 bb bc 40 ac 5a bd f8 18 7d 3d
       0.07075739 -0.02284342 -0.053386927 0.06179139
0002d0 fc af 13 3e 20 e8 d5 bd 00 32 dd bd e0 9b a5 bd
       0.14422601 -0.10444665 -0.10800552 -0.080863714
0002e0 22 86 39 3e 38 ea 12 3d 0a be 1a 3e 60 4e 11 bd
       0.18117574 0.0358679 0.15111557 -0.035475135
0002f0 e4 5a fc 3d 68 d7 39 bd 88 30 a2 3d 00 9e 41 3c
       0.123220235 -0.045371443 0.07919413 0.011817455
000300 16 3a 38 3e 23 7a 64 be 78 0b 09 3e be 66 0b be
       0.17990908 -0.22312216 0.13383281 -0.13613412
000310 47 32 2e bc 24 ba 5d 3e 7e 91 07 be 44 6b d5 3d
       -0.010632104 0.21653038 -0.13239095 0.1042085
000320 6c f5 4c bd a8 6c 31 3e 6a 2e cb bd 6a f1 81 3e
       -0.05003874 0.17326605 -0.09920962 0.25379497
000330 8c bc 52 3e fd fa 41 3e 65 0b 7d be b1 fd 5f 3e
       0.20579737 0.189434 -0.24711378 0.2187412
000340 c9 52 50 be e0 38 3a 3e 7a 32 08 be 72 0a 8f 3d
       -0.2034408 0.18185759 -0.13300505 0.06984414
000350 17 86 53 3e c7 c9 24 be bb 03 c0 3d 9a 06 1d be
       0.2065662 -0.16092597 0.093757115 -0.1533455
000360 5e 52 2a 3d bc 05 0f be 00 9c 80 3a 9c c3 53 bd
       0.041582458 -0.13967031 0.0009812117 -0.05170022
000370 f4 06 2b 3d f8 af 58 bc 5f d1 b5 3d ab 38 75 bd
       0.041754678 -0.013225548 0.08877825 -0.059868496
000380 83 07 2d be 8f 14 e2 bd 43 da 51 3e 40 0a 5e 3d
       -0.16897397 -0.110390775 0.20493416 0.054208994
000390 a3 56 13 bd 27 b3 46 3c 5d 54 5d 3e fc c7 84 3e
       -0.035971295 0.012127674 0.21614213 0.25933826
0003a0 bf 0a da 3c ea 71 8d 3e 61 e5 90 3e ef ec 7c 3e
       0.026616452 0.27625972 0.28300002 0.24699758
0003b0 c6 fa 2f 3e ca c8 8c bd 20 41 38 bd 8b f1 70 3d
       0.17185506 -0.06874235 -0.044983983 0.058824103
0003c0 b8 35 19 bd 70 57 2d be 4d 27 20 bd 23 3d 62 3e
       -0.037404746 -0.16927886 -0.03909998 0.22093634
0003d0 08 12 10 be 96 94 c5 bc d7 d0 b9 bd f5 da dc 3d
       -0.14069378 -0.024118703 -0.09073036 0.1078395
0003e0 9c 7d 87 3d 52 e5 75 be b2 12 45 3e 09 a9 e2 3d
       0.06615755 -0.2401326 0.19245413 0.11067397
0003f0 b0 60 9e 3c 55 b2 d5 bd 5a c4 a9 3d 36 4d 3f 3e
       0.019333214 -0.10434405 0.08289404 0.18681797

convolution_layers.1.bias f4 [32]
000000 d4 a5 ac 3d df e6 bf bb af 7d b1 3d 34 fc c5 3d
       0.08430067 -0.0058563794 0.0866655 0.096672446
000010 ce 20 42 bc 65 25 89 bc 09 3e 43 bc ca 0d a4 3d
       -0.011848642 -0.016741464 -0.011916646 0.080104426
000020 46 0a 8e bc 77 8f a1 3d fe d1 a9 3d bb fc bc 3d
       -0.017338883 0.07888692 0.08292006 0.09227892
000030 46 c3 9f 3d e1 80 80 bd dc a2 3c 3b d8 46 81 bc
       0.07800917 -0.06274582 0.0028783595 -0.015780851
000040 d7 aa a7 3d 00 00 00 00 4a 32 a4 3d 06 a1 b0 3d
       0.08186882 0.0 0.080174044 0.08624463
000050 92 ee 65 bc 7d e8 cf 3d ef fe f3 bc fb 4d c9 3d
       -0.01403393 0.101517655 -0.029784648 0.09829327
000060 f9 4f db bc 23 c1 f2 bc 00 00 00 00 79 0b 7b bd
       -0.026771532 -0.02963311 0.0 -0.061290238
000070 d7 45 9d bc 4f 56 be 3d c7 ab ca 3d 72 fe a1 3d
       -0.019198341 0.09293806 0.09896045 0.0790986

classify.weight f4 [1, 32]
000000 80 9b df 3d 19 27 88 bd 9d 6e 0b 3e 51 43 6a 3e
       0.10918331 -0.06648082 0.13616414 0.22877242
000010 b7 42 f5 3d e7 14 14 be 60 a7 9b bd 43 7d 22 3e
       0.119756155 -0.14461099 -0.076002836 0.15868096
000020 77 3b eb bd cd 9e 53 3e b0 c9 3f 3e 61 49 59 3e
       -0.114859514 0.20666046 0.18729281 0.21219398
000030 99 7c 61 3e b9 44 13 be df 3d 2b be 5d 56 af bb
       0.22020186 -0.14381684 -0.1672282 -0.0053508715
000040 f4 aa 33 3e 38 fe 17 be df 61 25 3e e8 12 ce 3d
       0.17545682 -0.1484307 0.16150616 0.100622
000050 00 77 21 be b4 9f 1c 3e 84 44 f4 bc ef f5 4d 3e
       -0.15768051 0.15295297 -0.029817827 0.20113347
000060 3c e1 f2 b7 dc 20 68 bd aa 00 17 bd 6d e2 2a be
       -2.8953531e-05 -0.056671962 -0.036865868 -0.16687937
000070 b1 96 30 be 75 cf 51 3e 60 24 83 3d 8a b3 52 3e
       -0.17244984 0.20489295 0.06403422 0.20576301
