checkpoints/epoch_15_val_loss_5.2300.pt (torch, 76530 bytes, 5 tensors)

convolution_layers.0.weight f4 [253, 64]
0	0xbc9149e3	-0.017735427
1	0xbbbbe78b	-0.005734389
2	0x3c3bd8f6	0.011465302
3	0xbcdcab08	-0.026937023
4	0x3d2d902e	0.04237383
5	0x3d29c529	0.041447792
6	0xbd04ffee	-0.032470636
7	0xbd948f45	-0.07253889
8	0xbd5c0d06	-0.053723358
9	0x3ddcfc26	0.10790281
10	0xbdcc8437	-0.099861555
11	0x3e06acaa	0.13151804
12	0x3df07aac	0.11742148
13	0xbd82c3e1	-0.06385017
14	0xbd09a44a	-0.033603944
15	0x3e043447	0.12910567
16	0xbdff34bf	-0.124612324
17	0xbac49409	-0.0014997731
18	0x3cb68d8d	0.022284294
19	0xbdb38631	-0.08765829
20	0x3d701592	0.05861432
21	0xbd3c877e	-0.046027653
22	0xbc0fce2d	-0.0087771835
23	0xbd571c80	-0.052517414
24	0xbd77825a	-0.060427047
25	0xbde0193b	-0.10942312
26	0x3cedc7dd	0.029025966
27	0xbdb42f14	-0.08798042
28	0x3dcf985c	0.10136482
29	0xbd83b10b	-0.06430253
30	0x3da2061b	0.07911321
31	0xbd9849bc	-0.07435939
32	0x3d880f5d	0.06643555
33	0x3dea0cd6	0.114282295
34	0xbd87858a	-0.066172674
35	0x3dd4241d	0.103584506
36	0xbe03c16f	-0.12866758
37	0x3ddf5ad9	0.10906
38	0xbd9017e6	-0.07035808
39	0x3d985bb9	0.0743937
40	0xbde16650	-0.11005843
41	0xbcda3b91	-0.026639732
42	0x3e0ae802	0.13565066
43	0xbdb80983	-0.08986189
44	0x3db7025d	0.08935998
45	0xba123fac	-0.0005578946
46	0xbd92fc7a	-0.07177062
47	0xbdea263d	-0.114330746
48	0x3db384d5	0.0876557
49	0x3dc76f94	0.09738079
50	0xbd58e0b3	-0.052948665
51	0xbcf55533	-0.029947853
52	0x3d4c24ef	0.04983991
53	0xbd78a4a8	-0.060703903
54	0xbbe5721d	-0.0070021288
55	0x3dcec1f4	0.100955874
56	0x3d3a20f9	0.0454416
57	0x3d4b8dc9	0.049695764
58	0xbd3c1c64	-0.045925513
59	0xbdebcced	-0.11513696
60	0x3e0c448e	0.13698027
61	0x3dcbfb13	0.09959998
62	0x3bae0584	0.005310716
63	0xbb9a0f37	-0.004701521
64	0x3dc25efe	0.094907746
65	0x3ba0f1b7	0.004911627
66	0xbdb53f8c	-0.08850011
67	0x3df3b8ea	0.11900504
68	0xbdec308a	-0.115326956
69	0x3d737876	0.059441052
70	0x3cfdc5b6	0.030978065
71	0x3b033fe5	0.0020027098
72	0x3c98010d	0.018555189
73	0xbc847a1f	-0.016171513
74	0x3da06965	0.078326024
75	0x3dda727e	0.10666369
76	0xbdbd5595	-0.09244839
77	0x3df2293f	0.11824273
78	0xbb66480b	-0.0035138156
79	0xbd042c64	-0.032268897
80	0xbd9a46a2	-0.075330034
81	0x3dcc0feb	0.099639736
82	0xbca0710c	-0.019585155
83	0xbdea97d8	-0.11454743
84	0xbdd3d0dd	-0.10342572
85	0xbd6b9f4d	-0.057524968
86	0x3db22aac	0.08699545
87	0xbd932e4e	-0.07186566
88	0x3e057cf5	0.13035949
89	0x3d84d015	0.06485001
90	0xbe000e11	-0.12505366
91	0x3db9715b	0.09054824
92	0x3db8803e	0.09008835
93	0x3e0b3e8d	0.1359808
94	0x3d6dfd6f	0.05810302
95	0x3dd2888d	0.10279951
96	0xbc243737	-0.01002293
97	0x3acb0d91	0.0015491714
98	0xbca659cf	-0.020306496
99	0x3dd2dd88	0.1029616
100	0xbd598c47	-0.053112295
101	0xbc601eee	-0.013679249
102	0x3dae497d	0.085101105
103	0x3d1e287b	0.038612824
104	0x3d37fbeb	0.044917982
105	0x3d73ff8b	0.059569877
106	0x3cb2b93f	0.021816848
107	0xbdca7b77	-0.0988683
108	0x3d5d7935	0.05407067
109	0x3cb276d4	0.021785177
110	0xbe0c66a8	-0.13711035
111	0x3c7bc892	0.015367644
112	0x3d39b922	0.045342572
113	0xbbf62d29	-0.0075127077
114	0x3d39cd60	0.045361876
115	0xbe05e403	-0.13075261
116	0x3c6f344e	0.014599873
117	0x3e01a395	0.12660058
118	0x3e048571	0.12941529
119	0xbdf779e8	-0.12083799
120	0xbb053d34	-0.002033067
121	0xbd7e7443	-0.062122595
122	0x3d16a752	0.036780663
123	0x3de9d687	0.11417871
124	0x3dfc3319	0.123144336
125	0x3d9753e0	0.07389045
126	0x3d4085e6	0.047002696
127	0x3bd03a05	0.0063545727
128	0xbdbecead	-0.09316764
129	0x3dec443d	0.11536453
130	0x3da6893b	0.081316434
131	0x3bbfd6e2	0.0058544734
132	0xbd8fb646	-0.07017188
133	0x3db584ac	0.08863196
134	0x3defd478	0.11710447
135	0x3dfb5ad8	0.122731864
136	0xbc917cd4	-0.017759718
137	0xbdad0e17	-0.08449953
138	0x3df22cf1	0.11824978
139	0xbdcb87db	-0.09938022
140	0x3dc190d5	0.09451453
141	0x3d99ff76	0.075194284
142	0x3cbe4e11	0.023230584
143	0xbdb17c56	-0.08666293
144	0xbceba2d4	-0.028764166
145	0x3dd403f2	0.10352315
146	0x3ddf6c49	0.10909326
147	0xbd0c6a90	-0.034281313
148	0xbc88e425	-0.01671035
149	0x3cfabd1f	0.030607758
150	0x3d28f6b1	0.04125089
151	0x3da74c60	0.08168864
152	0x3e076b9e	0.13224646
153	0x3dcc7dca	0.0998493
154	0x3da348aa	0.07972844
155	0xbca7f059	-0.020500349
156	0xbd0e43a8	-0.03473249
157	0x3d8c744e	0.06858121
158	0x3cccf99c	0.025021367
159	0xbd253067	-0.040329363
160	0x3dd48c24	0.10378292
161	0x3d8f9058	0.07009953
162	0xbde51e0b	-0.11187371
163	0xbd89ed04	-0.0673466
164	0x3d38d539	0.04512522
165	0x3d6c0cad	0.057629276
166	0xbdd1a281	-0.10236073
167	0x3d870efb	0.06594654
168	0x3d62af80	0.05534315
169	0x3d7c6fc3	0.06163002
170	0xbcb863c1	-0.022508504
171	0xbc926f46	-0.017875325
172	0xbdb5cbf0	-0.088767886
173	0x3d917c47	0.07103782
174	0xbe0c3d36	-0.13695225
175	0x3e000c58	0.12504709
176	0x3d364c10	0.044506133
177	0x3cff4ac7	0.031163586
178	0x3d51b3ab	0.051196735
179	0x3c53b8c0	0.012922466
180	0x3c302ea5	0.010753308
181	0xbdaff17b	-0.085909806
182	0xbd9db9f0	-0.077014804
183	0x3da288d3	0.079362534
184	0xbe0b859b	-0.13625185
185	0xbd97046d	-0.07373891
186	0x3d764d56	0.060132347
187	0x3db32db9	0.08748955
188	0x3de7916e	0.113070354
189	0x3d8326a4	0.064038545
190	0x3d98cfab	0.074614845
191	0xbc1a7bb2	-0.009428905
192	0x3c6a94de	0.014317719
193	0x3c015233	0.007893133
194	0xbddf3690	-0.10899079
195	0x3db146c0	0.086560726
196	0xbddc7e35	-0.107662596
197	0xbd93d0e3	-0.07217576
198	0x3db8f489	0.090310164
199	0x3846bae5	4.7380938e-05
200	0x3d676852	0.056495972
201	0xbc2c98a9	-0.010534444
202	0xbd46dc23	-0.048549782
203	0xbde95a95	-0.1139423
204	0xbd4f6293	-0.050631117
205	0xbb614240	-0.0034371763
206	0x3c9db803	0.019252783
207	0x3de121bb	0.10992762
208	0x3c4279b3	0.011869836
209	0xbd59dada	-0.05318723
210	0x3cdb965d	0.026805097
211	0x3e035314	0.1282466
212	0xbd9e596c	-0.077318996
213	0xbe09a6b3	-0.13442497
214	0x3c396322	0.011315139
215	0xbd9644b2	-0.07337321
216	0xbd3229c1	-0.04349685
217	0xbd4822d5	-0.048861343
218	0xbdfa2344	-0.12213758
219	0xbdbbabaa	-0.09163602
220	0x3dfcc094	0.12341419
221	0xbda679b6	-0.08128683
222	0x3de39873	0.11113062
223	0x3dd6fb0b	0.104971014
224	0xbbbfa4ce	-0.0058485037
225	0xbcf1552e	-0.029459562
226	0xbe007188	-0.12543309
227	0x3def4150	0.11682379
228	0x3c7ffd75	0.015624394
229	0xbe017e75	-0.12645896
230	0x3d4f09df	0.050546523
231	0x3da49059	0.08035345
232	0x3d54df71	0.051970903
233	0xbd9656db	-0.07340785
234	0xbbf51344	-0.0074791033
235	0x3d8f38b3	0.069932364
236	0x3a4af4cd	0.00077421666
237	0x3c0b383b	0.008497293
238	0xbd8cf35e	-0.06882356
239	0x3c09c229	0.008408108
240	0xbd9f1ab6	-0.077687666
241	0x3dfd0c0a	0.12355812
242	0xbd1ee4ab	-0.038792294
243	0xbc1773d4	-0.009243924
244	0xbdca0da5	-0.09865884
245	0xbd188084	-0.037231937
246	0xbdd38941	-0.103289135
247	0x3d827f5b	0.063719474
248	0xbd73358c	-0.05937724
249	0xbdc820c4	-0.097718745
250	0xbba3962e	-0.004992268
251	0x3d901aeb	0.07036384
252	0x3da7b9f4	0.081897646
253	0xbe027dcb	-0.12743299
254	0xbde29d41	-0.1106515
255	0x3db80c25	0.089866914

convolution_layers.0.bias f4 [64]
0	0xbc99b726	-0.01876409
1	0xbbe9d0ee	-0.007135502
2	0x00000000	0.0
3	0x3d96411b	0.07336637
4	0x3daa5782	0.08317472
5	0x00000000	0.0
6	0xbc3fc357	-0.0117042875
7	0x3d852af5	0.06502334
8	0x3e117e84	0.14208418
9	0x3dccfc5a	0.1000907
10	0x3dc70582	0.097178474
11	0x00000000	0.0
12	0x3da464e6	0.08027057
13	0x00000000	0.0
14	0xbc4e4db5	-0.012591769
15	0x3db6d6d0	0.08927691
16	0x3da5a0a3	0.0808728
17	0xbc903167	-0.017601682
18	0x3da60134	0.08105698
19	0x00000000	0.0
20	0x3db9ea3a	0.09077878
21	0x3d93a5c4	0.07209352
22	0x00000000	0.0
23	0x00000000	0.0
24	0x3e257ab2	0.16160086
25	0x3e0f3066	0.13983306
26	0x00000000	0.0
27	0xbd55b35c	-0.052173004
28	0x3da85be0	0.08220649
29	0x3e3041f3	0.17212658
30	0xbd4cd6cb	-0.05000953
31	0x3dd432d0	0.10361254
32	0x00000000	0.0
33	0xbc2063e4	-0.009789441
34	0x3da7a68a	0.08186062
35	0x3d968fb7	0.0735163
36	0x3daba315	0.08380715
37	0x3da5578a	0.080733374
38	0x3dd7c7a7	0.105361275
39	0x3d890a73	0.06691446
40	0x00000000	0.0
41	0x3d8576a5	0.0651677
42	0x00000000	0.0
43	0xbd2d627b	-0.042330246
44	0xbc1b730f	-0.009487881
45	0x00000000	0.0
46	0x3ded6cab	0.115929924
47	0xbdee4549	-0.11634309
48	0x3d49b287	0.049242523
49	0x3d827270	0.063694835
50	0x3d871b67	0.065970235
51	0x00000000	0.0
52	0xbbe5d40f	-0.0070138047
53	0x3d97a77a	0.074049905
54	0x3dccbb0d	0.099966146
55	0x3dcb42fc	0.09924886
56	0x00000000	0.0
57	0xbc1836f6	-0.009290447
58	0x3d9af7c2	0.07566787
59	0x3d979461	0.07401348
60	0xbcdb34a4	-0.0267585
61	0x3d823902	0.063585296
62	0xbd3b2353	-0.045687985
63	0x3d0abdbc	0.03387235

convolution_layers.1.weight f4 [64, 32]
0	0x3e9bc553	0.30423984
1	0xbe6f3e87	-0.23363696
2	0x3e0eeaf1	0.1395681
3	0x3e842b6c	0.25814378
4	0xbdce0bd0	-0.10060847
5	0xbe9ec26c	-0.31007707
6	0x3d680bbe	0.056651823
7	0x3e154760	0.14578009
8	0xbea6e75f	-0.32598397
9	0x3e7eb992	0.24875477
10	0xbd0d312e	-0.03447073
11	0x3e83099a	0.25593263
12	0x3dbc0a8e	0.09181701
13	0xbe0e40ee	-0.13891956
14	0xbda5f429	-0.081032105
15	0xbe1d6aec	-0.15372819
16	0x3e786a45	0.24259289
17	0xbcd4e7e0	-0.025989473
18	0x3e1753e0	0.1477809
19	0x3e5fd3af	0.21858095
20	0xbe09197c	-0.13388628
21	0x3eaea86c	0.3411287
22	0xbd4b9c6a	-0.049709715
23	0x3e55ceb6	0.20879635
24	0xbe183351	-0.14863326
25	0xbd451f82	-0.04812575
26	0x3df8d570	0.12150085
27	0xbdbadad3	-0.09123769
28	0x3e156f75	0.14593299
29	0x3c7fcb3d	0.015612421
30	0x3db5d6fa	0.08878894
31	0xbd968df1	-0.07351292
32	0x3e31be87	0.17357837
33	0xbde9ce01	-0.11416245
34	0xbd7656e7	-0.06014147
35	0x3e79bfb0	0.24389529
36	0x3e5e2576	0.21693978
37	0xbe31bc91	-0.17357089
38	0x3e24a790	0.16079545
39	0xbd727727	-0.059195664
40	0x3d8177b1	0.063216574
41	0xbdb11342	-0.08646251
42	0xbe0098bd	-0.12558265
43	0x3de3de6d	0.11126409
44	0x3e866ae1	0.26253417
45	0xbdfeda89	-0.12444026
46	0xbd449c89	-0.048000846
47	0xbe187092	-0.14886692
48	0x3d487eea	0.04894916
49	0x3e25eb58	0.16203058
50	0xbd7e0c86	-0.062023662
51	0x3e66be0a	0.22533432
52	0xbe585913	-0.21127729
53	0xbdb6fbd5	-0.08934752
54	0x3e0efc50	0.13963437
55	0xbdb7d6a4	-0.08976486
56	0x3df7d410	0.121009946
57	0xbe2d6267	-0.16932069
58	0xbe1dc690	-0.15407777
59	0xbe4fb101	-0.20282365
60	0xbe14311e	-0.14471862
61	0xbe165c8c	-0.14683741
62	0xbd050284	-0.032473102
63	0xbe1194a3	-0.14216857
64	0x3e1dd8ea	0.15414777
65	0xbd4fa710	-0.050696433
66	0xbd30db08	-0.043177634
67	0xbdf28128	-0.11841041
68	0xbe055a52	-0.13022736
69	0x3e171778	0.14755046
70	0x3d8f8f0c	0.07009706
71	0xbe52eff2	-0.20599344
72	0x3c024260	0.007950395
73	0xbe12bb30	-0.14329219
74	0x3e364296	0.17798838
75	0xbe03ccb4	-0.12871057
76	0xbdff7418	-0.12473315
77	0x3e4becbe	0.19914529
78	0x3e14e152	0.14539078
79	0xbdaa6358	-0.083197296
80	0x3c10aa60	0.008829683
81	0x3d85d614	0.06534973
82	0x3de82134	0.11334458
83	0xbe0bd894	-0.13656837
84	0x3df0ab40	0.11751413
85	0xbca986c0	-0.020694137
86	0xbe45623a	-0.19275752
87	0x3e53be9c	0.2067818
88	0xbd37e1e8	-0.044893175
89	0x3e49cc6c	0.19706887
90	0x3b60b200	0.0034285784
91	0xb9859c00	-0.00025483966
92	0x3e1ec588	0.1550504
93	0xbc7a5f00	-0.015281439
94	0x3e28a7aa	0.16470209
95	0xbe3068a4	-0.17227417
96	0xbd4a33c6	-0.04936578
97	0xbda7cb57	-0.08193081
98	0xbe23c2b3	-0.1599224
99	0x3cbe0e55	0.023200193
100	0xbe800640	-0.25004768
101	0xbc42c308	-0.011887319
102	0x3d45c4b3	0.04828329
103	0x3e870a39	0.26374987
104	0xbdf2198c	-0.11821279
105	0x3e427776	0.18990883
106	0xbd21a57c	-0.03946446
107	0x3e917cdb	0.2841557
108	0xbd191c41	-0.03738046
109	0x3dd62915	0.104570545
110	0xbe7e0aa0	-0.2480874
111	0xbe58665b	-0.21132796
112	0x3e6fce41	0.23418523
113	0xbcc5e670	-0.024157733
114	0x3e17f2a2	0.14838651
115	0x3e154fd5	0.14581235
116	0xbe297e44	-0.16552073
117	0x3e575ad0	0.21030736
118	0xbe7c1069	-0.24615635
119	0x3e896034	0.2683121
120	0x3b901f1a	0.004398239
121	0x3e476e69	0.19475712
122	0xbd02ec50	-0.031963646
123	0xbe234d71	-0.1594751
124	0xbe8064c0	-0.25076866
125	0x3db144cf	0.08655702
126	0xbe17a63d	-0.14809509
127	0x3dfeebbc	0.124473065
128	0xbd963306	-0.07333951
129	0xbd400504	-0.046879783
130	0x3e33a153	0.17542009
131	0x3e09fb7f	0.13474844
132	0xbde4b6f0	-0.11167705
133	0xbd6f02fd	-0.05835246
134	0x3dcf28ca	0.10115202
135	0x3db4d59a	0.08829804
136	0x3e1574ad	0.1459529
137	0x3d1cc5ee	0.038274698
138	0x3e9c9da6	0.30589026
139	0x3c376c22	0.011195214
140	0x3e941fbd	0.28930464
141	0x3e16e051	0.14734007
142	0xbe8b6631	-0.27226403
143	0xbe07f09a	-0.13275376
144	0x3dda4aa2	0.10658766
145	0x3dbfd514	0.09366813
146	0xbc0ec1f2	-0.008713232
147	0x3e110f83	0.14166074
148	0x3d2fd043	0.042923223
149	0x3e622cbb	0.22087376
150	0xbc66c116	-0.014084121
151	0x3e62979c	0.22128147
152	0x3e28f2db	0.16498892
153	0xbde9009e	-0.11377071
154	0xbe406ebc	-0.18792242
155	0xbe136436	-0.14393696
156	0x3de9e04b	0.114197336
157	0x3e8adee8	0.2712319
158	0x3e53de41	0.20690252
159	0x3c28eb56	0.010310015
160	0xbe2cd2c8	-0.16877282
161	0x3e750dda	0.23931065
162	0x3ba20400	0.0049443245
163	0xbe29c3a8	-0.16578543
164	0x3df58a38	0.11989254
165	0x3daaec64	0.08345869
166	0xbd6811b8	-0.056657523
167	0x3d81c4b8	0.06336349
168	0xbe2a55b4	-0.16634256
169	0xbe4ec772	-0.2019327
170	0x3e050832	0.12991408
171	0x3e7afd9a	0.24510804
172	0xbe15ba72	-0.14621904
173	0x3cef6be0	0.029226243
174	0x3baf4100	0.005348325
175	0x3cfd6980	0.030934095
176	0x3d90e940	0.07075739
177	0xbcbb2220	-0.02284342
178	0xbd5aac40	-0.053386927
179	0x3d7d18f8	0.06179139
180	0x3e13affc	0.14422601
181	0xbdd5e820	-0.10444665
182	0xbddd3200	-0.10800552
183	0xbda59be0	-0.080863714
184	0x3e398622	0.18117574
185	0x3d12ea38	0.0358679
186	0x3e1abe0a	0.15111557
187	0xbd114e60	-0.035475135
188	0x3dfc5ae4	0.123220235
189	0xbd39d768	-0.045371443
190	0x3da23088	0.07919413
191	0x3c419e00	0.011817455
192	0x3e41e08e	0.18933317
193	0xbe647a23	-0.22312216
194	0x3e1401c3	0.14453797
195	0xbdee6552	-0.11640419
196	0xbc29d24a	-0.010365078
197	0x3e4b7110	0.19867349
198	0xbe10b41f	-0.1413121
199	0x3de6238c	0.11237249
200	0xbd8816bb	-0.066449605
201	0x3e39e618	0.1815418
202	0xbdb87a8b	-0.09007748
203	0x3e883283	0.26601037
204	0x3e5acc34	0.2136696
205	0x3e404c32	0.18779066
206	0xbe900a50	-0.28132868
207	0x3e5ffdb1	0.2187412
208	0xbe46becf	-0.19408725
209	0x3e3a38e0	0.18185759
210	0xbdffe235	-0.124943174
211	0x3da2b5c0	0.07944822
212	0x3e31f5c9	0.17378916
213	0xbe1608ff	-0.14651869
214	0x3db9d4b4	0.09073773
215	0xbe0b8723	-0.1362577
216	0x3d2a5435	0.041584212
217	0xbe14f990	-0.14548326
218	0x3a809c00	0.0009812117
219	0xbd6451a8	-0.055741936
220	0x3cfe8d2e	0.03107318
221	0xba93b3ca	-0.0011268791
222	0x3dcd195a	0.10014601
223	0xbd5381ad	-0.05163734
224	0xbe306ad3	-0.1722825
225	0xbde2148f	-0.110390775
226	0x3e50ccbb	0.20390598
227	0x3d92b38f	0.07163154
228	0xbd821490	-0.06351578
229	0x3d313ffe	0.04327392
230	0x3e611f67	0.21984635
231	0x3e832c49	0.25619724
232	0x3d79ef07	0.06101897
233	0x3e8c9b60	0.27462292
234	0x3e8f0911	0.27936605
235	0x3e8043df	0.25051782
236	0x3e2d3979	0.16916455
237	0xbd5c777b	-0.053824883
238	0xbc1696f0	-0.00919126
239	0x3d70f18b	0.058824103
240	0xbd284c47	-0.04108837
241	0xbe2d5770	-0.16927886
242	0xbd2f28d5	-0.04276355
243	0x3e5de033	0.21667556
244	0xbe036cb3	-0.12834434
245	0xbca1cc48	-0.01975073
246	0xbdb371ee	-0.08761965
247	0x3df36277	0.11884015
248	0x3d877fb9	0.06616158
249	0xbe681aa0	-0.22666407
250	0x3e4512b2	0.19245413
251	0x3e01c508	0.12672818
252	0x3d0579a3	0.032586705
253	0xbdcca3fb	-0.09992214
254	0x3d9e3388	0.077246726
255	0x3e3bdec3	0.18346696

convolution_layers.1.bias f4 [32]
0	0x3dfdf629	0.12400467
1	0xbbbfe6df	-0.0058563794
2	0x3e0704b2	0.13185385
3	0x3e264784	0.16238219
4	0xbcafe775	-0.021472672
5	0xbd7cb262	-0.061693557
6	0xbcc4141f	-0.023935376
7	0x3dee5f1f	0.11639237
8	0xbd95f1d8	-0.07321519
9	0x3df1d9dd	0.11809132
10	0x3df44831	0.11927832
11	0x3e111420	0.14167833
12	0x3de914e1	0.113809355
13	0xbd9c4a91	-0.0763141
14	0xbd4c9e45	-0.049955625
15	0xbc8146d8	-0.015780851
16	0x3df52baa	0.11971219
17	0x00000000	0.0
18	0x3deca383	0.11554625
19	0x3e0093a8	0.12556326
20	0xbd1efae8	-0.0388135
21	0x3e20e273	0.15711384
22	0xbd032b44	-0.032023683
23	0x3e282bfd	0.1642303
24	0xbcdb4c05	-0.026769647
25	0xbd5cb7e4	-0.05388631
26	0x00000000	0.0
27	0xbdaee90a	-0.085405424
28	0xbd0a311d	-0.033738244
29	0x3e139b3d	0.14414687
30	0x3e114b2b	0.1418883
31	0x3dec9fd7	0.115539245

classify.weight f4 [1, 32]
0	0x3e0becf4	0.13664609
1	0xbd882719	-0.06648082
2	0x3e3eb68e	0.18624327
3	0x3eab535d	0.3346204
4	0x3de01b18	0.10942668
5	0xbeccb02d	-0.3997816
6	0xbe20fdad	-0.1572177
7	0x3e377ca3	0.17918639
8	0xbeb3a64d	-0.35087815
9	0x3e751d0d	0.23936863
10	0x3e58710f	0.21136878
11	0x3e882ae8	0.26595235
12	0x3e7a413f	0.24438952
13	0xbe3ca7f1	-0.1842344
14	0xbefd5ec9	-0.49486378
15	0xbbaf565d	-0.0053508715
16	0x3e569cf4	0.2095831
17	0xbe17fe38	-0.1484307
18	0x3e33ae56	0.17546973
19	0x3e01681f	0.12637375
20	0xbebc964a	-0.3683341
21	0x3e6096fa	0.21932593
22	0xbd5a313e	-0.053269617
23	0x3e96f15a	0.29481012
24	0xb881ff28	-6.198726e-05
25	0xbe09ea3f	-0.13468264
26	0xbd1700aa	-0.036865868
27	0xbe9ad7f6	-0.3024289
28	0xbe674964	-0.2258659
29	0x3e83a499	0.25711516
30	0x3db92baa	0.090415314
31	0x3e71ee36	0.23626027
