checkpoints/epoch_14_val_loss_5.2795.pt (torch, 76530 bytes, 5 tensors)

convolution_layers.0.weight f4 [253, 64]
00000000: e349 91bc 8be7 bbbb f6d8 3b3c 08ab dcbc
00000010: 2e90 2d3d 29c5 293d eeff 04bd 458f 94bd
00000020: 060d 5cbd 26fc dc3d 3784 ccbd aaac 063e
00000030: ac7a f03d e1c3 82bd 4aa4 09bd 4734 043e
00000040: bf34 ffbd 0994 c4ba 8d8d b63c 3186 b3bd
00000050: 9215 703d 7e87 3cbd 2dce 0fbc 801c 57bd
00000060: 5a82 77bd 3b19 e0bd ddc7 ed3c 142f b4bd
00000070: 5c98 cf3d 0bb1 83bd 1b06 a23d bc49 98bd
00000080: 5d0f 883d d60c ea3d 8a85 87bd 1d24 d43d
00000090: 6fc1 03be d95a df3d e617 90bd b95b 983d
000000a0: 5066 e1bd 913b dabc 02e8 0a3e 8309 b8bd
000000b0: 5d02 b73d ac3f 12ba 7afc 92bd 3d26 eabd
000000c0: d584 b33d 946f c73d b3e0 58bd 3355 f5bc
000000d0: ef24 4c3d a8a4 78bd 1d72 e5bb f4c1 ce3d
000000e0: f920 3a3d c98d 4b3d 641c 3cbd edcc ebbd
000000f0: 8e44 0c3e 13fb cb3d 8405 ae3b 370f 9abb
00000100: fe5e c23d b7f1 a03b 8c3f b5bd eab8 f33d
00000110: 8a30 ecbd 7678 733d b6c5 fd3c e53f 033b
00000120: 0d01 983c 1f7a 84bc 6569 a03d 7e72 da3d
00000130: 9555 bdbd 3f29 f23d 0b48 66bb 642c 04bd
00000140: a246 9abd eb0f cc3d 0c71 a0bc d897 eabd
00000150: ddd0 d3bd 4d9f 6bbd ac2a b23d 4e2e 93bd
00000160: f57c 053e 15d0 843d 110e 00be 5b71 b93d
00000170: 3e80 b83d 8d3e 0b3e 6ffd 6d3d 8d88 d23d
00000180: 3737 24bc 910d cb3a cf59 a6bc 88dd d23d
00000190: 478c 59bd ee1e 60bc 7d49 ae3d 7b28 1e3d
000001a0: ebfb 373d 8bff 733d 3fb9 b23c 777b cabd
000001b0: 3579 5d3d d476 b23c a866 0cbe 92c8 7b3c
000001c0: 22b9 393d 292d f6bb 60cd 393d 03e4 05be
000001d0: 4e34 6f3c 95a3 013e 7185 043e e879 f7bd
000001e0: 343d 05bb 4374 7ebd 52a7 163d 87d6 e93d
000001f0: 1933 fc3d e053 973d e685 403d 053a d03b
00000200: adce bebd 3d44 ec3d 3b89 a63d e2d6 bf3b
00000210: 46b6 8fbd ac84 b53d 78d4 ef3d d85a fb3d
00000220: d47c 91bc 170e adbd f12c f23d db87 cbbd
00000230: d590 c13d 76ff 993d 114e be3c 567c b1bd
00000240: d4a2 ebbc f203 d43d 496c df3d 906a 0cbd
00000250: 25e4 88bc 1fbd fa3c b1f6 283d 604c a73d
00000260: 9e6b 073e ca7d cc3d aa48 a33d 59f0 a7bc
00000270: a843 0ebd 4e74 8c3d 9cf9 cc3c 6730 25bd
00000280: 248c d43d 5890 8f3d 0b1e e5bd 04ed 89bd
00000290: 39d5 383d ad0c 6c3d 81a2 d1bd fb0e 873d
000002a0: 80af 623d c36f 7c3d c163 b8bc 466f 92bc
000002b0: f0cb b5bd 477c 913d 363d 0cbe 580c 003e
000002c0: 104c 363d c74a ff3c abb3 513d c0b8 533c
000002d0: a52e 303c 7bf1 afbd f0b9 9dbd d388 a23d
000002e0: 9b85 0bbe 6d04 97bd 564d 763d b92d b33d
000002f0: 6e91 e73d a426 833d abcf 983d b27b 1abc
00000300: de94 6a3c 3352 013c 9036 dfbd c046 b13d
00000310: 357e dcbd e3d0 93bd 89f4 b83d e5ba 4638
00000320: 5268 673d a998 2cbc 23dc 46bd 955a e9bd
00000330: 9362 4fbd 4042 61bb 03b8 9d3c bb21 e13d
00000340: b379 423c dada 59bd 5d96 db3c 1453 033e
00000350: 6c59 9ebd b3a6 09be 2263 393c b244 96bd
00000360: c129 32bd d522 48bd 4423 fabd aaab bbbd
00000370: 94c0 fc3d b679 a6bd 7398 e33d 0bfb d63d
00000380: cea4 bfbb 2e55 f1bc 8871 00be 5041 ef3d
00000390: 75fd 7f3c 757e 01be df09 4f3d 5990 a43d
000003a0: 71df 543d db56 96bd 4413 f5bb b338 8f3d
000003b0: cdf4 4a3a 3b38 0b3c 5ef3 8cbd 29c2 093c
000003c0: b61a 9fbd 0a0c fd3d abe4 1ebd d473 17bc
000003d0: a50d cabd 8480 18bd 4189 d3bd 5b7f 823d
000003e0: 8c35 73bd c420 c8bd 2e96 a3bb eb1a 903d
000003f0: f4b9 a73d cb7d 02be 419d e2bd 250c b83d
-0.017735427 -0.005734389 0.011465302 -0.026937023 0.04237383 0.041447792 -0.032470636 -0.07253889
-0.053723358 0.10790281 -0.099861555 0.13151804 0.11742148 -0.06385017 -0.033603944 0.12910567
-0.124612324 -0.0014997731 0.022284294 -0.08765829 0.05861432 -0.046027653 -0.0087771835 -0.052517414
-0.060427047 -0.10942312 0.029025966 -0.08798042 0.10136482 -0.06430253 0.07911321 -0.07435939
0.06643555 0.114282295 -0.066172674 0.103584506 -0.12866758 0.10906 -0.07035808 0.0743937
-0.11005843 -0.026639732 0.13565066 -0.08986189 0.08935998 -0.0005578946 -0.07177062 -0.114330746
0.0876557 0.09738079 -0.052948665 -0.029947853 0.04983991 -0.060703903 -0.0070021288 0.100955874
0.0454416 0.049695764 -0.045925513 -0.11513696 0.13698027 0.09959998 0.005310716 -0.004701521
0.094907746 0.004911627 -0.08850011 0.11900504 -0.115326956 0.059441052 0.030978065 0.0020027098
0.018555189 -0.016171513 0.078326024 0.10666369 -0.09244839 0.11824273 -0.0035138156 -0.032268897
-0.075330034 0.099639736 -0.019585155 -0.11454743 -0.10342572 -0.057524968 0.08699545 -0.07186566
0.13035949 0.06485001 -0.12505366 0.09054824 0.09008835 0.1359808 0.05810302 0.10279951
-0.01002293 0.0015491714 -0.020306496 0.1029616 -0.053112295 -0.013679249 0.085101105 0.038612824
0.044917982 0.059569877 0.021816848 -0.0988683 0.05407067 0.021785177 -0.13711035 0.015367644
0.045342572 -0.0075127077 0.045361876 -0.13075261 0.014599873 0.12660058 0.12941529 -0.12083799
-0.002033067 -0.062122595 0.036780663 0.11417871 0.123144336 0.07389045 0.047002696 0.0063545727
-0.09316764 0.11536453 0.081316434 0.0058544734 -0.07017188 0.08863196 0.11710447 0.122731864
-0.017759718 -0.08449953 0.11824978 -0.09938022 0.09451453 0.075194284 0.023230584 -0.08666293
-0.028764166 0.10352315 0.10909326 -0.034281313 -0.01671035 0.030607758 0.04125089 0.08168864
0.13224646 0.0998493 0.07972844 -0.020500349 -0.03473249 0.06858121 0.025021367 -0.040329363
0.10378292 0.07009953 -0.11187371 -0.0673466 0.04512522 0.057629276 -0.10236073 0.06594654
0.05534315 0.06163002 -0.022508504 -0.017875325 -0.088767886 0.07103782 -0.13695225 0.12504709
0.044506133 0.031163586 0.051196735 0.012922466 0.010753308 -0.085909806 -0.077014804 0.079362534
-0.13625185 -0.07373891 0.060132347 0.08748955 0.113070354 0.064038545 0.074614845 -0.009428905
0.014317719 0.007893133 -0.10899079 0.086560726 -0.107662596 -0.07217576 0.090310164 4.7380938e-05
0.056495972 -0.010534444 -0.048549782 -0.1139423 -0.050631117 -0.0034371763 0.019252783 0.10992762
0.011869836 -0.05318723 0.026805097 0.1282466 -0.077318996 -0.13442497 0.011315139 -0.07337321
-0.04349685 -0.048861343 -0.12213758 -0.09163602 0.12341419 -0.08128683 0.11113062 0.104971014
-0.0058485037 -0.029459562 -0.12543309 0.11682379 0.015624394 -0.12645896 0.050546523 0.08035345
0.051970903 -0.07340785 -0.0074791033 0.069932364 0.00077421666 0.008497293 -0.06882356 0.008408108
-0.077687666 0.12355812 -0.038792294 -0.009243924 -0.09865884 -0.037231937 -0.103289135 0.063719474
-0.05937724 -0.097718745 -0.004992268 0.07036384 0.081897646 -0.12743299 -0.1106515 0.089866914

convolution_layers.0.bias f4 [64]
00000000: eb2f aebc b347 b5bc 0000 0000 1df6 823d
00000010: a24e 963d 0000 0000 3b29 c9bc 3d0e 703d
00000020: bb2d 023e cb07 b93d 2a41 ab3d 0000 0000
00000030: 04dd 913d 0000 0000 b54d 4ebc c063 9a3d
00000040: 1bc3 9b3d 6731 90bc 8bd9 8b3d 0000 0000
00000050: ae2d 9f3d cb87 913d 0000 0000 0000 0000
00000060: e69d 143e b4a0 003e 0000 0000 6d70 44bd
00000070: ddfb 8f3d cff2 1e3e 67ba 3fbd 8ecc b83d
00000080: 0000 0000 9d64 1ebc f16f 963d 5c03 893d
00000090: 6209 963d 775d 933d e114 bf3d c280 7b3d
000000a0: 0000 0000 0d29 5b3d 0000 0000 b30b 6fbd
000000b0: 56e2 d438 0000 0000 943a cd3d 24a1 d5bd
000000c0: 694a 033d 2d9e 603d f4b3 613d 0000 0000
000000d0: 0fd4 e5bb 692a 783d fb78 b13d c251 b13d
000000e0: 0000 0000 9883 1fbb aa5d 7c3d ed9e 8e3d
000000f0: a434 dbbc b62e 753d a5a8 34bd 0b97 6f3c
-0.021263083 -0.022128915 0.0 0.06394599 0.07339217 0.0 -0.024555793 0.05860733
0.12712757 0.090346895 0.083620384 0.0 0.071222335 0.0 -0.012591769 0.07538557
0.07605573 -0.017601682 0.068286024 0.0 0.077723846 0.071059786 0.0 0.0
0.14513358 0.12561303 0.0 -0.04795878 0.07030461 0.15522312 -0.046808627 0.09023391
0.0 -0.009667543 0.0734557 0.06690094 0.073260084 0.071955614 0.09330154 0.06140209
0.0 0.053505946 0.0 -0.058360767 0.00010151106 0.0 0.100209385 -0.10431126
0.032053385 0.05483835 0.055103257 0.0 -0.0070138047 0.06058732 0.08665653 0.08658172
0.0 -0.002433991 0.061612763 0.069639064 -0.0267585 0.059859 -0.044106144 0.014623414

convolution_layers.1.weight f4 [64, 32]
00000000: a720 7c3e 873e 6fbe 4553 a03d 5a4a 473e
00000010: d00b cebd 96e0 82be 361a f53d 1eb9 b83d
00000020: c6e9 90be 6605 473e 78a2 b9bd f0b2 4c3e
00000030: 9803 1a3d c37e e4bd 1071 edbb ec6a 1dbe
00000040: bc9f 3e3e e0e7 d4bc 92f6 be3d 7aed 233e
00000050: b84c 84bd 5f01 903e 3f0e a13b 5bcb 153e
00000060: 5133 18be 27e0 2abc 70d5 f83d 41bd 44bd
00000070: f96b 543e 935d 2cbd 9b60 e33c 6de7 03be
00000080: 165a 2e3e 01ce e9bd e814 83bd a7c9 733e
00000090: 7625 5e3e 7a3a 27be 8b34 2e3e 5ab1 7dbd
000000a0: 8cf6 943d 3cc5 b6bd 9cb4 03be 0c1a db3d
000000b0: e816 853e 0ff2 fabd 2192 03bd 9270 18be
000000c0: fd88 3b3d 58eb 253e 2077 84bd 023e 633e
000000d0: ae2b 49be 39de c1bd 7560 123e 86a2 c3bd
000000e0: 10d4 f73d a9e4 29be 90c6 1dbe 3770 4cbe
000000f0: 0412 0dbe ee9d 1abe db0c 17bd d366 14be
00000100: ead8 1d3e 10a7 4fbd 08db 30bd 2881 f2bd
00000110: 525a 05be 7817 173e 0c8f 8f3d f2ef 52be
00000120: 6042 023c 30bb 12be 9642 363e b4cc 03be
00000130: 1874 ffbd beec 4b3e 52e1 143e 5863 aabd
00000140: 60aa 103c 14d6 853d 3421 e83d 94d8 0bbe
00000150: 40ab f03d c086 a9bc 3a62 45be 9cbe 533e
00000160: e8e1 37bd 6ccc 493e 00b2 603b 009c 85b9
00000170: 88c5 1e3e 005f 7abc aaa7 283e a468 30be
00000180: 5d50 59bd 57cb a7bd 6935 28be 37c4 8a3c
00000190: 4006 80be 6a7d d2bb 96e6 773d 8a59 853e
000001a0: dfd7 e7bd 5cd2 3e3e f990 2fbd 6a05 8f3e
000001b0: dd80 26bd 3a3e da3d 490b 75be 5b66 58be
000001c0: fd2f 6c3e 70e6 c5bc cfb0 143e 548e 113e
000001d0: edf2 1dbe 43db 513e ede5 75be 8b6c 863e
000001e0: 1a1f 903b 7467 4b3e 50ec 02bd b73a 20be
000001f0: b235 77be a96f a73d 44c3 1bbe 9f14 f83d
00000200: d7d8 9ebd 0405 40bd fc99 2e3e 8df4 023e
00000210: f0b6 e4bd dac2 55bd aeb2 ea3d 7b0b ad3d
00000220: 4755 1b3e 700d 0c3d ed9c 9a3e 2600 bf3b
00000230: 6c32 923e 7a64 193e 2d7a 86be 9af0 07be
00000240: 3ff8 d13d 14d5 bf3d 29e9 4abc 22c3 0c3e
00000250: 1645 613d 6a17 5c3e 320e e5bb 0b10 5c3e
00000260: dbf2 283e fe80 dfbd bc6e 40be 62bd 0fbe
00000270: 0ed1 fe3d 3f21 883e 1232 4f3e f59a d33b
00000280: c8d2 2cbe da0d 753e 0004 a23b a8c3 29be
00000290: 388a f53d 64ec aa3d b811 68bd b8c4 813d
000002a0: b455 2abe 72c7 4ebe 3208 053e 9afd 7a3e
000002b0: 72ba 15be e06b ef3c 0041 af3b 8069 fd3c
000002c0: 40e9 903d 2022 bbbc 40ac 5abd f818 7d3d
000002d0: fcaf 133e 20e8 d5bd 0032 ddbd e09b a5bd
000002e0: 2286 393e 38ea 123d 0abe 1a3e 604e 11bd
000002f0: e45a fc3d 68d7 39bd 8830 a23d 009e 413c
00000300: 0c8b 3f3e 237a 64be 744f 113e a4ff f5bd
00000310: 4ad2 29bc 2c15 523e 294c 09be 1235 e23d
00000320: d58f 78bd 82e5 373e 1ad7 bcbd 74bb 863e
00000330: 14ec 583e d9a1 413e ec7a 8abe b1fd 5f3e
00000340: 6d03 49be e038 3a3e 1dd8 01be f8ed 9d3d
00000350: 1f44 3d3e b583 19be 5d4e bf3d be3e 0fbe
00000360: 3554 2a3d 6e8c 12be 009c 803a fdd6 5bbd
00000370: 4ffb 143d 7f98 80bb b236 c73d 9f6d 5bbd
00000380: 8512 32be 8f14 e2bd d844 4e3e 417d 883d
00000390: 9014 82bd 90ef 343d d88c 663e 6e75 823e
000003a0: f3a9 7b3d 9897 8b3e 015b 8e3e 4ff8 7c3e
000003b0: f2b8 2b3e 01b8 5cbd 465b c3bb 8bf1 703d
000003c0: 7ee0 2dbd 7057 2dbe dbcc 33bd 7c79 5c3e
000003d0: 28b5 fdbd 6484 c0bc 2bd4 acbd 26ab ea3d
000003e0: b97f 873d 7d9c 67be b212 453e 36e0 013e
000003f0: f679 173d 09ce d3bd e57b 9b3d 1588 3a3e
0.24621831 -0.23363696 0.078283824 0.19461957 -0.10060847 -0.2556197 0.1196789 0.09019683
-0.28303355 0.19435653 -0.090641916 0.19990134 0.037601084 -0.111569904 -0.007246144 -0.15372819
0.18615621 -0.025989473 0.09324373 0.16008559 -0.064599454 0.28126046 0.0049150283 0.14628355
-0.14863326 -0.010429419 0.12150085 -0.04803205 0.20744313 -0.042081427 0.027756026 -0.1288125
0.17026553 -0.11416245 -0.06400472 0.23807393 0.21693978 -0.16330901 0.17012231 -0.061936714
0.072735876 -0.08924338 -0.12861866 0.106983274 0.2599404 -0.122532 -0.03212178 -0.14886692
0.04578494 0.16203058 -0.06468034 0.22191623 -0.19645569 -0.09466214 0.14294608 -0.09552483
0.121009946 -0.16591133 -0.15407777 -0.19964682 -0.13776404 -0.15099308 -0.036877494 -0.1449235
0.15414777 -0.050696433 -0.043177634 -0.11841041 -0.13022736 0.14755046 0.07009706 -0.20599344
0.007950395 -0.14329219 0.17798838 -0.12871057 -0.12473315 0.19914529 0.14539078 -0.083197296
0.008829683 0.06534973 0.11334458 -0.13656837 0.11751413 -0.020694137 -0.19275752 0.2067818
-0.044893175 0.19706887 0.0034285784 -0.00025483966 0.1550504 -0.015281439 0.16470209 -0.17227417
-0.053055156 -0.08193081 -0.16426624 0.016939266 -0.25004768 -0.006423642 0.06052264 0.26044875
-0.11320471 0.18634933 -0.042862866 0.27933818 -0.040650237 0.106564 -0.23930086 -0.21132796
0.23065181 -0.024157733 0.14520572 0.1421445 -0.154247 0.20493798 -0.24013491 0.26254687
0.004398239 0.19863683 -0.031963646 -0.15647398 -0.24141577 0.08175594 -0.15211207 0.12113308
-0.07756203 -0.046879783 0.17050928 0.12788601 -0.11167705 -0.052187778 0.11459862 0.08449455
0.1516925 0.034192502 0.3019785 0.005828875 0.28554094 0.14979735 -0.26265088 -0.13275376
0.10252427 0.09366813 -0.012384691 0.13746312 0.054997526 0.21493307 -0.0069902176 0.21490495
0.16498892 -0.10913275 -0.18792242 -0.14037088 0.12442218 0.26587865 0.20233944 0.0064576813
-0.16877282 0.23931065 0.0049443245 -0.16578543 0.11989254 0.08345869 -0.056657523 0.06336349
-0.16634256 -0.2019327 0.12991408 0.24510804 -0.14621904 0.029226243 0.005348325 0.030934095
0.07075739 -0.02284342 -0.053386927 0.06179139 0.14422601 -0.10444665 -0.10800552 -0.080863714
0.18117574 0.0358679 0.15111557 -0.035475135 0.123220235 -0.045371443 0.07919413 0.011817455
0.18705386 -0.22312216 0.14190465 -0.1201165 -0.010365078 0.20515889 -0.13407959 0.110452786
-0.060684044 0.17958644 -0.09220715 0.2631489 0.21183807 0.18909396 -0.27046907 0.2187412
-0.19630213 0.18185759 -0.12680097 0.077114046 0.18483017 -0.14991648 0.093411185 -0.13988778
0.041584212 -0.14311382 0.0009812117 -0.053671826 0.03637248 -0.003924429 0.09727229 -0.05357134
-0.17389877 -0.110390775 0.2014345 0.06664515 -0.06351578 0.044173777 0.22514665 0.25480217
0.061441373 0.27264094 0.27803805 0.24704097 0.1676977 -0.053886417 -0.0059618084 0.058824103
-0.04245042 -0.16927886 -0.043896537 0.21530718 -0.123880684 -0.023500629 -0.08438905 0.11458425
0.06616158 -0.2261829 0.19245413 0.12683186 0.036981545 -0.103420325 0.075919904 0.18215974

convolution_layers.1.bias f4 [32]
00000000: b143 e93d dfe6 bfbb 73f7 f53d 0fc7 163e
00000010: 75e7 afbc 9297 50bd aa00 04bc 1d6a db3d
00000020: 088b 79bd 3364 dc3d d487 e13d 2d1f 043e
00000030: 85a6 d63d 03f5 91bd 7695 15bd d846 81bc
00000040: 8b54 e13d 0000 0000 2baf da3d e8ec ec3d
00000050: c428 ccbc 5785 123e 5d23 babc 50bf 183e
00000060: 054c dbbc 208d 37bd 0000 0000 9c0a 9fbd
00000070: 520b a5bc 9e54 063e 2700 063e 5abf d93d
0.11389864 -0.0058563794 0.12010088 0.14724372 -0.021472672 -0.0509258 -0.008056799 0.10713599
-0.060923606 0.10761299 0.11012235 0.12902518 0.1048098 -0.071268104 -0.03651949 -0.015780851
0.110024534 0.0 0.10677942 0.11568624 -0.024921782 0.14308678 -0.02272194 0.1491673
-0.026769647 -0.04481232 0.0 -0.077656955 -0.020147 0.13118216 0.13085996 0.106322005

classify.weight f4 [1, 32]
00000000: e0e4 043e 1927 88bd f3c3 333e a336 a13e
00000010: 181b e03d 0fee bcbe 93ce f9bd 1b38 313e
00000020: 8905 a5be 85f8 6c3e a23b 513e 1d2c 823e
00000030: fe97 733e d549 34be 9bc7 ebbe 5d56 afbb
00000040: 3412 4e3e 38fe 17be a30f 2f3e 6f08 f53d
00000050: 400d aabe 1998 523e e529 30bd 5704 8e3e
00000060: 28ff 81b8 d77a f2bd aa00 17bd a256 8fbe
00000070: b69b 55be 80a0 7b3e 0c92 aa3d c523 6a3e
0.12977934 -0.06648082 0.17555217 0.31486997 0.10942668 -0.36900374 -0.12197604 0.17306559
-0.32230785 0.23141678 0.20432904 0.2542428 0.23788449 -0.1760629 -0.46050724 -0.0053508715
0.20124131 -0.1484307 0.17095809 0.11964499 -0.33213234 0.20565833 -0.043008704 0.27737686
-6.198726e-05 -0.11839836 -0.036865868 -0.27995783 -0.2086018 0.24572945 0.083286375 0.22865207
