checkpoints/epoch_07_val_loss_5.7211.pt (torch, 76530 bytes, 5 tensors)

convolution_layers.0.weight f4 [253, 64]
00000000: e349 91bc 8be7 bbbb f6d8 3b3c 08ab dcbc
00000010: 2e90 2d3d 29c5 293d eeff 04bd 458f 94bd
00000020: 060d 5cbd 26fc dc3d 3784 ccbd aaac 063e
00000030: ac7a f03d e1c3 82bd 4aa4 09bd 4734 043e
00000040: bf34 ffbd 0994 c4ba 8d8d b63c 3186 b3bd
00000050: 9215 703d 7e87 3cbd 2dce 0fbc 801c 57bd
00000060: 5a82 77bd 3b19 e0bd ddc7 ed3c 142f b4bd
00000070: 5c98 cf3d 0bb1 83bd 1b06 a23d bc49 98bd
00000080: 5d0f 883d d60c ea3d 8a85 87bd 1d24 d43d
00000090: 6fc1 03be d95a df3d e617 90bd b95b 983d
000000a0: 5066 e1bd 913b dabc 02e8 0a3e 8309 b8bd
000000b0: 5d02 b73d ac3f 12ba 7afc 92bd 3d26 eabd
000000c0: d584 b33d 946f c73d b3e0 58bd 3355 f5bc
000000d0: ef24 4c3d a8a4 78bd 1d72 e5bb f4c1 ce3d
000000e0: f920 3a3d c98d 4b3d 641c 3cbd edcc ebbd
000000f0: 8e44 0c3e 13fb cb3d 8405 ae3b 370f 9abb
00000100: fe5e c23d b7f1 a03b 8c3f b5bd eab8 f33d
00000110: 8a30 ecbd 7678 733d b6c5 fd3c e53f 033b
00000120: 0d01 983c 1f7a 84bc 6569 a03d 7e72 da3d
00000130: 9555 bdbd 3f29 f23d 0b48 66bb 642c 04bd
00000140: a246 9abd eb0f cc3d 0c71 a0bc d897 eabd
00000150: ddd0 d3bd 4d9f 6bbd ac2a b23d 4e2e 93bd
00000160: f57c 053e 15d0 843d 110e 00be 5b71 b93d
00000170: 3e80 b83d 8d3e 0b3e 6ffd 6d3d 8d88 d23d
00000180: 3737 24bc 910d cb3a cf59 a6bc 88dd d23d
00000190: 478c 59bd ee1e 60bc 7d49 ae3d 7b28 1e3d
000001a0: ebfb 373d 8bff 733d 3fb9 b23c 777b cabd
000001b0: 3579 5d3d d476 b23c a866 0cbe 92c8 7b3c
000001c0: 22b9 393d 292d f6bb 60cd 393d 03e4 05be
000001d0: 4e34 6f3c 95a3 013e 7185 043e e879 f7bd
000001e0: 343d 05bb 4374 7ebd 52a7 163d 87d6 e93d
000001f0: 1933 fc3d e053 973d e685 403d 053a d03b
00000200: adce bebd 3d44 ec3d 3b89 a63d e2d6 bf3b
00000210: 46b6 8fbd ac84 b53d 78d4 ef3d d85a fb3d
00000220: d47c 91bc 170e adbd f12c f23d db87 cbbd
00000230: d590 c13d 76ff 993d 114e be3c 567c b1bd
00000240: d4a2 ebbc f203 d43d 496c df3d 906a 0cbd
00000250: 25e4 88bc 1fbd fa3c b1f6 283d 604c a73d
00000260: 9e6b 073e ca7d cc3d aa48 a33d 59f0 a7bc
00000270: a843 0ebd 4e74 8c3d 9cf9 cc3c 6730 25bd
00000280: 248c d43d 5890 8f3d 0b1e e5bd 04ed 89bd
00000290: 39d5 383d ad0c 6c3d 81a2 d1bd fb0e 873d
000002a0: 80af 623d c36f 7c3d c163 b8bc 466f 92bc
000002b0: f0cb b5bd 477c 913d 363d 0cbe 580c 003e
000002c0: 104c 363d c74a ff3c abb3 513d c0b8 533c
000002d0: a52e 303c 7bf1 afbd f0b9 9dbd d388 a23d
000002e0: 9b85 0bbe 6d04 97bd 564d 763d b92d b33d
000002f0: 6e91 e73d a426 833d abcf 983d b27b 1abc
00000300: de94 6a3c 3352 013c 9036 dfbd c046 b13d
00000310: 357e dcbd e3d0 93bd 89f4 b83d e5ba 4638
00000320: 5268 673d a998 2cbc 23dc 46bd 955a e9bd
00000330: 9362 4fbd 4042 61bb 03b8 9d3c bb21 e13d
00000340: b379 423c dada 59bd 5d96 db3c 1453 033e
00000350: 6c59 9ebd b3a6 09be 2263 393c b244 96bd
00000360: c129 32bd d522 48bd 4423 fabd aaab bbbd
00000370: 94c0 fc3d b679 a6bd 7398 e33d 0bfb d63d
00000380: cea4 bfbb 2e55 f1bc 8871 00be 5041 ef3d
00000390: 75fd 7f3c 757e 01be df09 4f3d 5990 a43d
000003a0: 71df 543d db56 96bd 4413 f5bb b338 8f3d
000003b0: cdf4 4a3a 3b38 0b3c 5ef3 8cbd 29c2 093c
000003c0: b61a 9fbd 0a0c fd3d abe4 1ebd d473 17bc
000003d0: a50d cabd 8480 18bd 4189 d3bd 5b7f 823d
000003e0: 8c35 73bd c420 c8bd 2e96 a3bb eb1a 903d
000003f0: f4b9 a73d cb7d 02be 419d e2bd 250c b83d
-0.017735427 -0.005734389 0.011465302 -0.026937023 0.04237383 0.041447792 -0.032470636 -0.07253889
-0.053723358 0.10790281 -0.099861555 0.13151804 0.11742148 -0.06385017 -0.033603944 0.12910567
-0.124612324 -0.0014997731 0.022284294 -0.08765829 0.05861432 -0.046027653 -0.0087771835 -0.052517414
-0.060427047 -0.10942312 0.029025966 -0.08798042 0.10136482 -0.06430253 0.07911321 -0.07435939
0.06643555 0.114282295 -0.066172674 0.103584506 -0.12866758 0.10906 -0.07035808 0.0743937
-0.11005843 -0.026639732 0.13565066 -0.08986189 0.08935998 -0.0005578946 -0.07177062 -0.114330746
0.0876557 0.09738079 -0.052948665 -0.029947853 0.04983991 -0.060703903 -0.0070021288 0.100955874
0.0454416 0.049695764 -0.045925513 -0.11513696 0.13698027 0.09959998 0.005310716 -0.004701521
0.094907746 0.004911627 -0.08850011 0.11900504 -0.115326956 0.059441052 0.030978065 0.0020027098
0.018555189 -0.016171513 0.078326024 0.10666369 -0.09244839 0.11824273 -0.0035138156 -0.032268897
-0.075330034 0.099639736 -0.019585155 -0.11454743 -0.10342572 -0.057524968 0.08699545 -0.07186566
0.13035949 0.06485001 -0.12505366 0.09054824 0.09008835 0.1359808 0.05810302 0.10279951
-0.01002293 0.0015491714 -0.020306496 0.1029616 -0.053112295 -0.013679249 0.085101105 0.038612824
0.044917982 0.059569877 0.021816848 -0.0988683 0.05407067 0.021785177 -0.13711035 0.015367644
0.045342572 -0.0075127077 0.045361876 -0.13075261 0.014599873 0.12660058 0.12941529 -0.12083799
-0.002033067 -0.062122595 0.036780663 0.11417871 0.123144336 0.07389045 0.047002696 0.0063545727
-0.09316764 0.11536453 0.081316434 0.0058544734 -0.07017188 0.08863196 0.11710447 0.122731864
-0.017759718 -0.08449953 0.11824978 -0.09938022 0.09451453 0.075194284 0.023230584 -0.08666293
-0.028764166 0.10352315 0.10909326 -0.034281313 -0.01671035 0.030607758 0.04125089 0.08168864
0.13224646 0.0998493 0.07972844 -0.020500349 -0.03473249 0.06858121 0.025021367 -0.040329363
0.10378292 0.07009953 -0.11187371 -0.0673466 0.04512522 0.057629276 -0.10236073 0.06594654
0.05534315 0.06163002 -0.022508504 -0.017875325 -0.088767886 0.07103782 -0.13695225 0.12504709
0.044506133 0.031163586 0.051196735 0.012922466 0.010753308 -0.085909806 -0.077014804 0.079362534
-0.13625185 -0.07373891 0.060132347 0.08748955 0.113070354 0.064038545 0.074614845 -0.009428905
0.014317719 0.007893133 -0.10899079 0.086560726 -0.107662596 -0.07217576 0.090310164 4.7380938e-05
0.056495972 -0.010534444 -0.048549782 -0.1139423 -0.050631117 -0.0034371763 0.019252783 0.10992762
0.011869836 -0.05318723 0.026805097 0.1282466 -0.077318996 -0.13442497 0.011315139 -0.07337321
-0.04349685 -0.048861343 -0.12213758 -0.09163602 0.12341419 -0.08128683 0.11113062 0.104971014
-0.0058485037 -0.029459562 -0.12543309 0.11682379 0.015624394 -0.12645896 0.050546523 0.08035345
0.051970903 -0.07340785 -0.0074791033 0.069932364 0.00077421666 0.008497293 -0.06882356 0.008408108
-0.077687666 0.12355812 -0.038792294 -0.009243924 -0.09865884 -0.037231937 -0.103289135 0.063719474
-0.05937724 -0.097718745 -0.004992268 0.07036384 0.081897646 -0.12743299 -0.1106515 0.089866914

convolution_layers.0.bias f4 [64]
00000000: 32fe bdbc 8870 13bd 0000 0000 20d4 6a3d
00000010: 0553 5f3d 0000 0000 d437 c6bc c0a0 663d
00000020: 09da 973d b400 8a3d 3e1e 643d 0000 0000
00000030: 2194 783d 0000 0000 b54d 4ebc 8141 3d3d
00000040: 1386 7e3d 6731 90bc d3a9 2f3d 0000 0000
00000050: 46c3 603d 99c2 703d 0000 0000 0000 0000
00000060: 2a54 ae3d db25 a23d 0000 0000 cd88 3cbd
00000070: 82d2 183d 2d7e a43d 984d 30bd 4e16 833d
00000080: 0000 0000 5a9b 1ebc 44c6 5f3d 4377 663d
00000090: 2c00 573d 8f13 673d 1064 883d cafd 633d
000000a0: 0000 0000 2f86 fd3c 0000 0000 502e 69bd
000000b0: 3618 24bc 0000 0000 e82e 813d c47d 6ebd
000000c0: 04e6 45ba 5993 4d3d f31b 4e3d 0000 0000
000000d0: 0fd4 e5bb 741b f13c afd2 7c3d b96f 793d
000000e0: 0000 0000 7066 a5bc 70f2 3a3d 41c8 6e3d
000000f0: a434 dbbc 953b 643d 39c8 1bbd b6c1 90bc
-0.023192499 -0.03599599 0.0 0.057331204 0.054522533 0.0 -0.024196543 0.056305647
0.07414634 0.06738415 0.055692904 0.0 0.06068814 0.0 -0.012591769 0.046205048
0.062139582 -0.017601682 0.042886566 0.0 0.054873727 0.058779333 0.0 0.0
0.08512147 0.079173766 0.0 -0.0460289 0.03731013 0.080318786 -0.04304275 0.06400739
0.0 -0.009680593 0.05463244 0.05626608 0.0524904 0.056415137 0.066597104 0.055661954
0.0 0.030947773 0.0 -0.056928933 -0.010015538 0.0 0.06307775 -0.05822541
-0.00075492286 0.05018935 0.050319623 0.0 -0.0070138047 0.029432036 0.06172436 0.060897563
0.0 -0.020190448 0.045641363 0.058296446 -0.0267585 0.055720884 -0.038032744 -0.017670494

convolution_layers.1.weight f4 [64, 32]
00000000: 7ee2 2f3e 873e 6fbe b86b 84bc 838c 6e3d
00000010: d00b cebd f427 1cbe 8b3a 2f3e 2d30 cd3c
00000020: db32 1dbe db5b 053e f01a 24be 2aec da3d
00000030: c481 c5bc 1320 d8bd 3265 963d ec6a 1dbe
00000040: d14b f13d e0e7 d4bc 616e ea3c 6ac0 a93d
00000050: 6982 8d3b 75ec 1f3e 796a aa3c 7fff 463c
00000060: 5133 18be 885b 153c 70d5 f83d b0a6 d4bc
00000070: 6dc6 2a3e 63b3 1bbe 856a 92bd 5bc6 45be
00000080: 94d4 233e 01ce e9bd abf4 9abd 96d6 5e3e
00000090: 7625 5e3e 178a 0bbe 9dca 303e ece9 90bd
000000a0: ce93 bf3d ceea c8bd c5ce 0dbe 6354 bf3d
000000b0: d4c4 803e fec9 f5bd 64fb 963c 9270 18be
000000c0: 8852 123d 58eb 253e d673 96bd 8b6a 583e
000000d0: 4aac 2dbe 9cc4 e3bd c012 133e 7a76 eabd
000000e0: 65d3 f73d c8c4 23be 90c6 1dbe d375 47be
000000f0: 84e6 05be bf1b 28be 5dc2 4cbd c076 1dbe
00000100: ead8 1d3e 10a7 4fbd 08db 30bd 2881 f2bd
00000110: 525a 05be 7817 173e 0c8f 8f3d f2ef 52be
00000120: 6042 023c 30bb 12be 9642 363e b4cc 03be
00000130: 1874 ffbd beec 4b3e 52e1 143e 5863 aabd
00000140: 60aa 103c 14d6 853d 3421 e83d 94d8 0bbe
00000150: 40ab f03d c086 a9bc 3a62 45be 9cbe 533e
00000160: e8e1 37bd 6ccc 493e 00b2 603b 009c 85b9
00000170: 88c5 1e3e 005f 7abc aaa7 283e a468 30be
00000180: e43d 79bd 57cb a7bd e58b 31be 3b58 a1bb
00000190: aaca 7fbe cb47 87bc 81dc 6f3d 6ba5 813e
000001a0: 8362 0fbe 56fd 363e f180 4ebd dd60 893e
000001b0: 4e4f 44bd ed26 ce3d b894 78be 5b66 58be
000001c0: cd44 643e 70e6 c5bc da57 0d3e 64b1 093e
000001d0: 8b6b 0dbe e3e8 443e 15f5 77be 343a 7b3e
000001e0: eafa 8f3b f037 4a3e 50ec 02bd 5906 25be
000001f0: 109c 78be c2fd 8f3d b0bd 23be 70f0 e83d
00000200: ce7d b6bd 0405 40bd 1c54 213e efce d23d
00000210: f0b6 e4bd 6e01 50bd 621c e83d 5619 973d
00000220: 9ed1 0f3e 3506 bd3c dae2 943e ba76 0fbc
00000230: 86b9 8c3e 2bbd 163e 88fb 80be 9af0 07be
00000240: f987 ba3d 14d5 bf3d 33c4 bcbc 2507 013e
00000250: c6e3 9c3d 0141 4b3e b249 11bc d5bf 463e
00000260: b8f1 283e 0afd d8bd bc6e 40be 8626 10be
00000270: 569e ff3d 487a 803e 830d 433e 18f1 91bb
00000280: c8d2 2cbe da0d 753e 0004 a23b a8c3 29be
00000290: 388a f53d 64ec aa3d b811 68bd b8c4 813d
000002a0: b455 2abe 72c7 4ebe 3208 053e 9afd 7a3e
000002b0: 72ba 15be e06b ef3c 0041 af3b 8069 fd3c
000002c0: 40e9 903d 2022 bbbc 40ac 5abd f818 7d3d
000002d0: fcaf 133e 20e8 d5bd 0032 ddbd e09b a5bd
000002e0: 2286 393e 38ea 123d 0abe 1a3e 604e 11bd
000002f0: e45a fc3d 68d7 39bd 8830 a23d 009e 413c
00000300: 2444 393e 237a 64be b72a 0a3e 12a3 0abe
00000310: 601c 35bc 4819 543e 7e91 07be 7d37 d73d
00000320: 55a3 89bd 414a 323e cd25 c9bd fd94 823e
00000330: b690 533e a748 403e ac38 82be b1fd 5f3e
00000340: a14f 4fbe e038 3a3e 384b 07be fc3e 913d
00000350: f246 543e 7d59 23be 6c03 c03d a9ce 1bbe
00000360: 0052 2a3d 2627 10be 009c 803a d408 5dbd
00000370: 131f 2b3d de50 45bc 24c2 b83d babd 71bd
00000380: f67d 2abe 8f14 e2bd 5685 543e 3413 663d
00000390: 58c5 19bd 7e23 84bb 3854 5d3e e9ef 853e
000003a0: 69f5 4ebb 5e94 8e3e 711e 923e c4a2 7f3e
000003b0: be2e 323e 6c80 93bd 5515 75bd 8bf1 703d
000003c0: 1663 0fbd 7057 2dbe f9db 16bd 6fdb 643e
000003d0: 9a89 10be 42e6 adbc 80d1 b9bd b2fb e13d
000003e0: 4c7d 873d 946b 78be b212 453e 148c d93d
000003f0: 2917 963c 6e52 d0bd 9fe2 af3d c693 413e
0.17176244 -0.23363696 -0.016164646 0.05823947 -0.10060847 -0.15249616 0.17112176 0.025047386
-0.15351431 0.13023321 -0.16025901 0.10689576 -0.024109729 -0.10552993 0.0734352 -0.15372819
0.11782039 -0.025989473 0.028617086 0.08288653 0.0043185246 0.15617545 0.020802723 0.012145876
-0.14863326 0.009116061 0.12150085 -0.025958389 0.16677256 -0.1520515 -0.07149223 -0.19313948
0.15999061 -0.11416245 -0.07566198 0.21761546 0.21693978 -0.13626896 0.17264791 -0.07075867
0.093543634 -0.098104104 -0.13848408 0.09342267 0.25150168 -0.120014176 0.01843042 -0.14886692
0.03572324 0.16203058 -0.07346313 0.21134393 -0.16960254 -0.11121485 0.14362621 -0.11448379
0.12100867 -0.15993035 -0.15407777 -0.1947854 -0.13076216 -0.16416834 -0.049990047 -0.15377331
0.15414777 -0.050696433 -0.043177634 -0.11841041 -0.13022736 0.14755046 0.07009706 -0.20599344
0.007950395 -0.14329219 0.17798838 -0.12871057 -0.12473315 0.19914529 0.14539078 -0.083197296
0.008829683 0.06534973 0.11334458 -0.13656837 0.11751413 -0.020694137 -0.19275752 0.2067818
-0.044893175 0.19706887 0.0034285784 -0.00025483966 0.1550504 -0.015281439 0.16470209 -0.17227417
-0.06085004 -0.08193081 -0.17338522 -0.004923848 -0.24979654 -0.016513726 0.0585599 0.25321516
-0.14002423 0.17870077 -0.050415937 0.26831713 -0.047927193 0.10066018 -0.24275482 -0.21132796
0.2229187 -0.024157733 0.13803044 0.13446575 -0.13810556 0.19229464 -0.24214585 0.24533921
0.004393925 0.19747901 -0.031963646 -0.16115703 -0.24278283 0.07030822 -0.15990329 0.11373985
-0.08910714 -0.046879783 0.15754741 0.10293376 -0.11167705 -0.050782613 0.113335386 0.07377879
0.14044806 0.023074249 0.29079324 -0.008756334 0.27485293 0.147206 -0.25191903 -0.13275376
0.09107966 0.09366813 -0.023042774 0.12600382 0.07660632 0.19849016 -0.008867668 0.19409116
0.16498458 -0.10595138 -0.18792242 -0.14077196 0.12481372 0.25093293 0.19048123 -0.0044537894
-0.16877282 0.23931065 0.0049443245 -0.16578543 0.11989254 0.08345869 -0.056657523 0.06336349
-0.16634256 -0.2019327 0.12991408 0.24510804 -0.14621904 0.029226243 0.005348325 0.030934095
0.07075739 -0.02284342 -0.053386927 0.06179139 0.14422601 -0.10444665 -0.10800552 -0.080863714
0.18117574 0.0358679 0.15111557 -0.035475135 0.123220235 -0.045371443 0.07919413 0.011817455
0.180924 -0.22312216 0.13492857 -0.13538769 -0.011054128 0.20712769 -0.13239095 0.105086304
-0.06720606 0.17411138 -0.09821663 0.25504294 0.20660672 0.18777715 -0.25433862 0.2187412
-0.2024522 0.18185759 -0.13212287 0.070920914 0.20730188 -0.15952106 0.09375653 -0.15215553
0.041582108 -0.14077434 0.0009812117 -0.053963497 0.04177768 -0.012043206 0.090214044 -0.059018828
-0.16649613 -0.110390775 0.20753989 0.056170657 -0.037541717 -0.0040325513 0.21614158 0.261596
-0.0031579381 0.2784757 0.2853885 0.24964434 0.17400643 -0.07202229 -0.059834797 0.058824103
-0.035006605 -0.16927886 -0.036830876 0.22349332 -0.14114991 -0.02122796 -0.09073162 0.11034335
0.06615695 -0.24259788 0.19245413 0.10622421 0.01832159 -0.10171972 0.085881464 0.18904027

convolution_layers.1.bias f4 [32]
00000000: a55f a43d dfe6 bfbb 74ce a83d 6446 bb3d
00000010: 0000 0000 54ae bebc 2841 43bc 1f55 9c3d
00000020: d4c0 a5bc ade3 993d 8cd6 a13d 0dee b33d
00000030: 623f 983d bf05 79bd a9ab acb9 d846 81bc
00000040: e1b5 9f3d 0000 0000 726d 9c3d ba39 a83d
00000050: d469 93bc 10c7 c53d 6801 f4bc 4f4c be3d
00000060: 3e50 dbbc 1a62 03bd 0000 0000 ea7d 7bbd
00000070: 14fb adbc 3b49 b53d 737c c13d 914e 9a3d
0.08026055 -0.0058563794 0.08242503 0.09144285 0.0 -0.023276486 -0.01191739 0.07633423
-0.02023355 0.07514129 0.0790225 0.08785639 0.07433964 -0.060796496 -0.00032934293 -0.015780851
0.077983625 0.0 0.076380625 0.082141355 -0.017994799 0.09657109 -0.029785827 0.092918985
-0.02677166 -0.03207598 0.0 -0.061399378 -0.021237887 0.08851858 0.09447565 0.075345166

classify.weight f4 [1, 32]
00000000: e501 df3d 1927 88bd 2b5d 093e 08f4 623e
00000010: c75d 073e b91a 00be 60a7 9bbd de71 233e
00000020: 2b0c b4bd 105b 533e 2488 403e b849 573e
00000030: e9f2 613e 8bf8 10be 38b1 17be 5d56 afbb
00000040: 3a75 333e 38fe 17be dc41 263e 536a ce3d
00000050: 8d81 18be 59a5 183e 7c44 f4bc e84f 473e
00000060: 5e4c 3837 eeb3 66bd aa00 17bd 0d1a 22be
00000070: 8f86 2dbe 7d80 4f3e 08f3 833d 0db1 523e
0.10889033 -0.06648082 0.13414447 0.22163403 0.13219367 -0.12510194 -0.076002836 0.15961406
-0.08791383 0.20640206 0.18801934 0.21024215 0.22065319 -0.14157312 -0.14813697 -0.0053508715
0.17525187 -0.1484307 0.16236061 0.100788735 -0.1489317 0.14906825 -0.029817812 0.19464076
1.0985035e-05 -0.056323938 -0.036865868 -0.1583025 -0.16945861 0.20263858 0.06442839 0.20575352
