checkpoints/epoch_05_val_loss_5.8378.pt (torch, 76530 bytes, 5 tensors)

convolution_layers.0.weight f4 [253, 64]
-0.017735427 -0.005734389 0.011465302 -0.026937023 0.04237383 0.041447792 -0.032470636 -0.07253889
-0.053723358 0.10790281 -0.099861555 0.13151804 0.11742148 -0.06385017 -0.033603944 0.12910567
-0.124612324 -0.0014997731 0.022284294 -0.08765829 0.05861432 -0.046027653 -0.0087771835 -0.052517414
-0.060427047 -0.10942312 0.029025966 -0.08798042 0.10136482 -0.06430253 0.07911321 -0.07435939
0.06643555 0.114282295 -0.066172674 0.103584506 -0.12866758 0.10906 -0.07035808 0.0743937
-0.11005843 -0.026639732 0.13565066 -0.08986189 0.08935998 -0.0005578946 -0.07177062 -0.114330746
0.0876557 0.09738079 -0.052948665 -0.029947853 0.04983991 -0.060703903 -0.0070021288 0.100955874
0.0454416 0.049695764 -0.045925513 -0.11513696 0.13698027 0.09959998 0.005310716 -0.004701521
0.094907746 0.004911627 -0.08850011 0.11900504 -0.115326956 0.059441052 0.030978065 0.0020027098
0.018555189 -0.016171513 0.078326024 0.10666369 -0.09244839 0.11824273 -0.0035138156 -0.032268897
-0.075330034 0.099639736 -0.019585155 -0.11454743 -0.10342572 -0.057524968 0.08699545 -0.07186566
0.13035949 0.06485001 -0.12505366 0.09054824 0.09008835 0.1359808 0.05810302 0.10279951
-0.01002293 0.0015491714 -0.020306496 0.1029616 -0.053112295 -0.013679249 0.085101105 0.038612824
0.044917982 0.059569877 0.021816848 -0.0988683 0.05407067 0.021785177 -0.13711035 0.015367644
0.045342572 -0.0075127077 0.045361876 -0.13075261 0.014599873 0.12660058 0.12941529 -0.12083799
-0.002033067 -0.062122595 0.036780663 0.11417871 0.123144336 0.07389045 0.047002696 0.0063545727
-0.09316764 0.11536453 0.081316434 0.0058544734 -0.07017188 0.08863196 0.11710447 0.122731864
-0.017759718 -0.08449953 0.11824978 -0.09938022 0.09451453 0.075194284 0.023230584 -0.08666293
-0.028764166 0.10352315 0.10909326 -0.034281313 -0.01671035 0.030607758 0.04125089 0.08168864
0.13224646 0.0998493 0.07972844 -0.020500349 -0.03473249 0.06858121 0.025021367 -0.040329363
0.10378292 0.07009953 -0.11187371 -0.0673466 0.04512522 0.057629276 -0.10236073 0.06594654
0.05534315 0.06163002 -0.022508504 -0.017875325 -0.088767886 0.07103782 -0.13695225 0.12504709
0.044506133 0.031163586 0.051196735 0.012922466 0.010753308 -0.085909806 -0.077014804 0.079362534
-0.13625185 -0.07373891 0.060132347 0.08748955 0.113070354 0.064038545 0.074614845 -0.009428905
0.014317719 0.007893133 -0.10899079 0.086560726 -0.107662596 -0.07217576 0.090310164 4.7380938e-05
0.056495972 -0.010534444 -0.048549782 -0.1139423 -0.050631117 -0.0034371763 0.019252783 0.10992762
0.011869836 -0.05318723 0.026805097 0.1282466 -0.077318996 -0.13442497 0.011315139 -0.07337321
-0.04349685 -0.048861343 -0.12213758 -0.09163602 0.12341419 -0.08128683 0.11113062 0.104971014
-0.0058485037 -0.029459562 -0.12543309 0.11682379 0.015624394 -0.12645896 0.050546523 0.08035345
0.051970903 -0.07340785 -0.0074791033 0.069932364 0.00077421666 0.008497293 -0.06882356 0.008408108
-0.077687666 0.12355812 -0.038792294 -0.009243924 -0.09865884 -0.037231937 -0.103289135 0.063719474
-0.05937724 -0.097718745 -0.004992268 0.07036384 0.081897646 -0.12743299 -0.1106515 0.089866914
00000000: e349 91bc 8be7 bbbb f6d8 3b3c 08ab dcbc
00000010: 2e90 2d3d 29c5 293d eeff 04bd 458f 94bd
00000020: 060d 5cbd 26fc dc3d 3784 ccbd aaac 063e
00000030: ac7a f03d e1c3 82bd 4aa4 09bd 4734 043e
00000040: bf34 ffbd 0994 c4ba 8d8d b63c 3186 b3bd
00000050: 9215 703d 7e87 3cbd 2dce 0fbc 801c 57bd
00000060: 5a82 77bd 3b19 e0bd ddc7 ed3c 142f b4bd
00000070: 5c98 cf3d 0bb1 83bd 1b06 a23d bc49 98bd
00000080: 5d0f 883d d60c ea3d 8a85 87bd 1d24 d43d
00000090: 6fc1 03be d95a df3d e617 90bd b95b 983d
000000a0: 5066 e1bd 913b dabc 02e8 0a3e 8309 b8bd
000000b0: 5d02 b73d ac3f 12ba 7afc 92bd 3d26 eabd
000000c0: d584 b33d 946f c73d b3e0 58bd 3355 f5bc
000000d0: ef24 4c3d a8a4 78bd 1d72 e5bb f4c1 ce3d
000000e0: f920 3a3d c98d 4b3d 641c 3cbd edcc ebbd
000000f0: 8e44 0c3e 13fb cb3d 8405 ae3b 370f 9abb
00000100: fe5e c23d b7f1 a03b 8c3f b5bd eab8 f33d
00000110: 8a30 ecbd 7678 733d b6c5 fd3c e53f 033b
00000120: 0d01 983c 1f7a 84bc 6569 a03d 7e72 da3d
00000130: 9555 bdbd 3f29 f23d 0b48 66bb 642c 04bd
00000140: a246 9abd eb0f cc3d 0c71 a0bc d897 eabd
00000150: ddd0 d3bd 4d9f 6bbd ac2a b23d 4e2e 93bd
00000160: f57c 053e 15d0 843d 110e 00be 5b71 b93d
00000170: 3e80 b83d 8d3e 0b3e 6ffd 6d3d 8d88 d23d
00000180: 3737 24bc 910d cb3a cf59 a6bc 88dd d23d
00000190: 478c 59bd ee1e 60bc 7d49 ae3d 7b28 1e3d
000001a0: ebfb 373d 8bff 733d 3fb9 b23c 777b cabd
000001b0: 3579 5d3d d476 b23c a866 0cbe 92c8 7b3c
000001c0: 22b9 393d 292d f6bb 60cd 393d 03e4 05be
000001d0: 4e34 6f3c 95a3 013e 7185 043e e879 f7bd
000001e0: 343d 05bb 4374 7ebd 52a7 163d 87d6 e93d
000001f0: 1933 fc3d e053 973d e685 403d 053a d03b
00000200: adce bebd 3d44 ec3d 3b89 a63d e2d6 bf3b
00000210: 46b6 8fbd ac84 b53d 78d4 ef3d d85a fb3d
00000220: d47c 91bc 170e adbd f12c f23d db87 cbbd
00000230: d590 c13d 76ff 993d 114e be3c 567c b1bd
00000240: d4a2 ebbc f203 d43d 496c df3d 906a 0cbd
00000250: 25e4 88bc 1fbd fa3c b1f6 283d 604c a73d
00000260: 9e6b 073e ca7d cc3d aa48 a33d 59f0 a7bc
00000270: a843 0ebd 4e74 8c3d 9cf9 cc3c 6730 25bd
00000280: 248c d43d 5890 8f3d 0b1e e5bd 04ed 89bd
00000290: 39d5 383d ad0c 6c3d 81a2 d1bd fb0e 873d
000002a0: 80af 623d c36f 7c3d c163 b8bc 466f 92bc
000002b0: f0cb b5bd 477c 913d 363d 0cbe 580c 003e
000002c0: 104c 363d c74a ff3c abb3 513d c0b8 533c
000002d0: a52e 303c 7bf1 afbd f0b9 9dbd d388 a23d
000002e0: 9b85 0bbe 6d04 97bd 564d 763d b92d b33d
000002f0: 6e91 e73d a426 833d abcf 983d b27b 1abc
00000300: de94 6a3c 3352 013c 9036 dfbd c046 b13d
00000310: 357e dcbd e3d0 93bd 89f4 b83d e5ba 4638
00000320: 5268 673d a998 2cbc 23dc 46bd 955a e9bd
00000330: 9362 4fbd 4042 61bb 03b8 9d3c bb21 e13d
00000340: b379 423c dada 59bd 5d96 db3c 1453 033e
00000350: 6c59 9ebd b3a6 09be 2263 393c b244 96bd
00000360: c129 32bd d522 48bd 4423 fabd aaab bbbd
00000370: 94c0 fc3d b679 a6bd 7398 e33d 0bfb d63d
00000380: cea4 bfbb 2e55 f1bc 8871 00be 5041 ef3d
00000390: 75fd 7f3c 757e 01be df09 4f3d 5990 a43d
000003a0: 71df 543d db56 96bd 4413 f5bb b338 8f3d
000003b0: cdf4 4a3a 3b38 0b3c 5ef3 8cbd 29c2 093c
000003c0: b61a 9fbd 0a0c fd3d abe4 1ebd d473 17bc
000003d0: a50d cabd 8480 18bd 4189 d3bd 5b7f 823d
000003e0: 8c35 73bd c420 c8bd 2e96 a3bb eb1a 903d
000003f0: f4b9 a73d cb7d 02be 419d e2bd 250c b83d

convolution_layers.0.bias f4 [64]
-0.019486422 -0.03234512 0.0 0.05179334 0.047663234 0.0 -0.019774044 0.050929137
0.056536302 0.06187579 0.048015986 0.0 0.055626217 0.0 -0.012591769 0.039552115
0.057484724 -0.017601682 0.035555594 0.0 0.051465515 0.053757448 0.0 0.0
0.060322754 0.0642369 0.0 -0.042887207 0.027602896 0.05924463 -0.041487623 0.05767063
0.0 -0.009832404 0.04842511 0.051212497 0.045496497 0.051896237 0.057199523 0.05132325
0.0 0.023548475 0.0 -0.050015435 -0.011698215 0.0 0.052466273 -0.042469494
-0.0036067436 0.046822105 0.04657036 0.0 -0.0070138047 0.018780597 0.055900555 0.052116573
0.0 -0.0051739207 0.039871085 0.052852556 -0.0267585 0.05133879 -0.0324862 -0.02071053
00000000: fda1 9fbc 517c 04bd 0000 0000 4125 543d
00000010: 863a 433d 0000 0000 2dfd a1bc 129b 503d
00000020: 9c92 673d 7871 7d3d 69ac 443d 0000 0000
00000030: 51d8 633d 0000 0000 b54d 4ebc 6601 223d
00000040: 1a75 6b3d 6731 90bc bea2 113d 0000 0000
00000050: 81cd 523d c530 5c3d 0000 0000 0000 0000
00000060: fe14 773d a38e 833d 0000 0000 7faa 2fbd
00000070: 781f e23c 7faa 723d edee 29bd 0a38 6c3d
00000080: 0000 0000 1718 21bc 6859 463d 32c4 513d
00000090: 895a 3a3d 2691 543d 0c4a 6a3d 5438 523d
000000a0: 0000 0000 bbe8 c03c 0000 0000 fcdc 4cbd
000000b0: dfa9 3fbc 0000 0000 e0e6 563d 7ef4 2dbd
000000c0: 1e5f 6cbb 89c8 3f3d 90c0 3e3d 0000 0000
000000d0: 0fd4 e5bb c4d9 993c fbf7 643d 3078 553d
000000e0: 0000 0000 fe89 a9bb dd4f 233d ec7b 583d
000000f0: a434 dbbc a048 523d 4010 05bd 21a9 a9bc

convolution_layers.1.weight f4 [64, 32]
0.17034695 -0.23363696 -0.018430594 0.05141614 -0.10060847 -0.14712058 0.17112176 0.023854172
-0.14120618 0.12909855 -0.16160126 0.10439037 -0.025202764 -0.106238544 0.07476024 -0.15372902
0.116575055 -0.025989473 0.02741952 0.081345506 0.0064139077 0.14966516 0.020802723 0.0035775045
-0.14863168 0.009243953 0.12150085 -0.025717994 0.16960764 -0.1563608 -0.07428229 -0.19428407
0.15738687 -0.11416245 -0.07848025 0.2117298 0.21693978 -0.14572962 0.17264791 -0.07319409
0.10250073 -0.10053105 -0.14126253 0.08958814 0.24910744 -0.11980595 0.024451213 -0.14886692
0.033004854 0.16203058 -0.07591294 0.20873104 -0.16780432 -0.11562619 0.14362621 -0.11980906
0.1210937 -0.15834896 -0.15407777 -0.19231911 -0.1299769 -0.16782172 -0.052791405 -0.15620846
0.15414777 -0.050696433 -0.043177634 -0.11841041 -0.13022736 0.14755046 0.07009706 -0.20599344
0.007950395 -0.14329219 0.17798838 -0.12871057 -0.12473315 0.19914529 0.14539078 -0.083197296
0.008829683 0.06534973 0.11334458 -0.13656837 0.11751413 -0.020694137 -0.19275752 0.2067818
-0.044893175 0.19706887 0.0034285784 -0.00025483966 0.1550504 -0.015281439 0.16470209 -0.17227417
-0.064893596 -0.08193081 -0.17762738 -0.011626355 -0.24979654 -0.041602872 0.058559876 0.24925582
-0.14735742 0.17469747 -0.05465477 0.26335737 -0.05191602 0.10101691 -0.26523244 -0.21132794
0.2187228 -0.024157733 0.134049 0.13050823 -0.13585168 0.1870638 -0.24214585 0.23934339
0.0045709885 0.20032935 -0.031963646 -0.15728883 -0.24115399 0.06544295 -0.16358426 0.109732464
-0.093915455 -0.046879783 0.15251736 0.095567 -0.11167705 -0.07367118 0.113335386 0.069080114
0.14905109 0.018332196 0.28576633 -0.014496028 0.2701327 0.14811502 -0.26905155 -0.13275374
0.08609501 0.09366813 -0.027766977 0.121281065 0.078728065 0.1924664 -0.008867486 0.1873582
0.16517337 -0.10259501 -0.18792242 -0.13595031 0.12593901 0.24528399 0.18601555 -0.0092007145
-0.16877282 0.23931065 0.0049443245 -0.16578543 0.11989254 0.08345869 -0.056657523 0.06336349
-0.16634256 -0.2019327 0.12991408 0.24510804 -0.14621904 0.029226243 0.005348325 0.030934095
0.07075739 -0.02284342 -0.053386927 0.06179139 0.14422601 -0.10444665 -0.10800552 -0.080863714
0.18117574 0.0358679 0.15111557 -0.035475135 0.123220235 -0.045371443 0.07919413 0.011817455
0.17781192 -0.22312216 0.13156907 -0.1421025 -0.011054128 0.19269933 -0.13239095 0.10215062
-0.048709285 0.17117848 -0.101621956 0.25051752 0.20370671 0.1880084 -0.26601535 0.2187412
-0.20577613 0.18185759 -0.13507521 0.067817345 0.20897551 -0.16446744 0.09375653 -0.15802978
0.04168666 -0.13879523 0.0009812117 -0.05103936 0.04269676 -0.016392965 0.08701595 -0.06196028
-0.16800469 -0.110390775 0.20594808 0.05238093 -0.037541717 -0.040793955 0.21614158 0.26000044
-0.013811276 0.27680248 0.283653 0.24753202 0.17230123 -0.072981805 -0.08810142 0.058824033
-0.036704823 -0.16927886 -0.038437206 0.2221275 -0.14069688 -0.023357745 -0.09073142 0.10743721
0.066328034 -0.24031122 0.19245413 0.1079378 0.018523758 -0.103779785 0.08511746 0.18737094
00000000: 6e6f 2e3e 873e 6fbe c2fb 96bc bb99 523d
00000010: d00b cebd c7a6 16be 8b3a 2f3e d369 c33c
00000020: 5a98 10be 6932 043e cd7a 25be 9eca d53d
00000030: 0776 cebc 9893 d9bd e61b 993d 246b 1dbe
00000040: e7be ee3d e0e7 d4bc e79e e03c 7998 a63d
00000050: c22b d23b d341 193e 796a aa3c 9174 6a3b
00000060: e732 18be f373 173c 70d5 f83d 8bae d2bc
00000070: a0ad 2d3e 0c1d 20be 5021 98bd 67f2 46be
00000080: 062a 213e 01ce e9bd 41ba a0bd b2cf 583e
00000090: 7625 5e3e 253a 15be 9dca 303e c8e6 95bd
000000a0: e7eb d13d 39e3 cdbd 20a7 10be fd79 b73d
000000b0: 0516 7f3e d25c f5bd e94d c83c 9270 18be
000000c0: 1930 073d 58eb 253e 3e78 9bbd 97bd 553e
000000d0: e5d4 2bbe 6dcd ecbd c012 133e 745e f5bd
000000e0: f9ff f73d 3b26 22be 90c6 1dbe 4def 44be
000000f0: aa18 05be 75d9 2bbe cd3b 58bd 1cf5 1fbe
00000100: ead8 1d3e 10a7 4fbd 08db 30bd 2881 f2bd
00000110: 525a 05be 7817 173e 0c8f 8f3d f2ef 52be
00000120: 6042 023c 30bb 12be 9642 363e b4cc 03be
00000130: 1874 ffbd beec 4b3e 52e1 143e 5863 aabd
00000140: 60aa 103c 14d6 853d 3421 e83d 94d8 0bbe
00000150: 40ab f03d c086 a9bc 3a62 45be 9cbe 533e
00000160: e8e1 37bd 6ccc 493e 00b2 603b 009c 85b9
00000170: 88c5 1e3e 005f 7abc aaa7 283e a468 30be
00000180: efe6 84bd 57cb a7bd f4e3 35be 787c 3ebc
00000190: aaca 7fbe c667 2abd 7bdc 6f3d eb3c 7f3e
000001a0: dde4 16be e5e3 323e aedd 5fbd c7d6 863e
000001b0: e5a5 54bd f4e1 ce3d 8ccc 87be 5a66 58be
000001c0: dff8 5f3e 70e6 c5bc 2444 093e f3a3 053e
000001d0: b41c 0bbe a78d 3f3e 15f5 77be 6f16 753e
000001e0: 3bc8 953b 2323 4d3e 50ec 02bd 5310 21be
000001f0: 12f1 76be f406 863d a282 27be 6abb e03d
00000200: bf56 c0bd 0405 40bd 832d 1c3e a2b8 c33d
00000210: f0b6 e4bd eae0 96bd 621c e83d e079 8d3d
00000220: d9a0 183e 672d 963c f74f 923e c080 6dbc
00000230: d54e 8a3e 77ab 173e 20c1 89be 99f0 07be
00000240: 9552 b03d 14d5 bf3d 9277 e3bc 3562 f83d
00000250: 2e3c a13d e915 453e ef48 11bc d4da 3f3e
00000260: 3523 293e 551d d2bd bc6e 40be 8f36 0bbe
00000270: 28f6 003e ba2b 7b3e dc7a 3e3e 98be 16bc
00000280: c8d2 2cbe da0d 753e 0004 a23b a8c3 29be
00000290: 388a f53d 64ec aa3d b811 68bd b8c4 813d
000002a0: b455 2abe 72c7 4ebe 3208 053e 9afd 7a3e
000002b0: 72ba 15be e06b ef3c 0041 af3b 8069 fd3c
000002c0: 40e9 903d 2022 bbbc 40ac 5abd f818 7d3d
000002d0: fcaf 133e 20e8 d5bd 0032 ddbd e09b a5bd
000002e0: 2286 393e 38ea 123d 0abe 1a3e 604e 11bd
000002f0: e45a fc3d 68d7 39bd 8830 a23d 009e 413c
00000300: 5414 363e 237a 64be 0bba 063e 5183 11be
00000310: 601c 35bc f952 453e 7e91 07be 5834 d13d
00000320: 6383 47bd 6949 2f3e 2c1f d0bd d543 803e
00000330: 7e98 503e 4685 403e 2a33 88be b1fd 5f3e
00000340: fab6 52be e038 3a3e 2851 0abe d2e3 8a3d
00000350: adfd 553e 276a 28be 6c03 c03d 8fd2 21be
00000360: a2bf 2a3d 5620 0ebe 009c 803a a60e 51bd
00000370: cce2 2e3d 8a4a 86bc 6b35 b23d 10ca 7dbd
00000380: 6c09 2cbe 8f14 e2bd 0ee4 523e 638d 563d
00000390: 58c5 19bd 9017 27bd 3854 5d3e c71e 853e
000003a0: b148 62bc 0eb9 8d3e f73a 913e 0979 7d3e
000003b0: bc6f 303e 7c77 95bd 846e b4bd 78f1 703d
000003c0: cc57 16bd 7057 2dbe 5570 1dbd 6475 633e
000003d0: d812 10be be58 bfbc 65d1 b9bd 0a08 dc3d
000003e0: fed6 873d 2514 76be b212 453e 7e0e dd3d
000003f0: 23bf 973c 7f8a d4bd 1052 ae3d 2bde 3f3e

convolution_layers.1.bias f4 [32]
0.06473412 -0.0058563794 0.06613194 0.07234023 0.0 -0.0058242935 -0.0119175045 0.061793953
-0.012708361 0.060753394 0.063904606 0.070814334 0.060209285 -0.051258888 -0.02104857 -0.015780024
0.06299759 0.0 0.061767783 0.06635893 -0.013459456 0.07737284 -0.029785583 0.072931886
-0.026729926 -0.030143138 0.0 -0.048963107 -0.009244942 0.07131525 0.077074215 0.06091183
00000000: 5393 843d dfe6 bfbb 2f70 873d 1d27 943d
00000010: 0000 0000 b7d9 bebb a341 43bc a81b 7d3d
00000020: bb36 50bc 8dd8 783d 6be0 823d 1b07 913d
00000030: 039e 763d d7f4 51bd 0d6e acbc 1c45 81bc
00000040: e104 813d 0000 0000 3700 7d3d 31e7 873d
00000050: 0d85 5cbc a775 9e3d e500 f4bc 505d 953d
00000060: b8f8 dabc beee f6bc 0000 0000 8a8d 48bd
00000070: 1978 17bc bb0d 923d 16d9 9d3d af7e 793d

classify.weight f4 [1, 32]
0.104111455 -0.06648082 0.12630409 0.21315831 0.13219367 -0.1057288 -0.076002836 0.15598512
-0.078252785 0.20113221 0.18365817 0.20296332 0.21676221 -0.14164282 -0.12560707 -0.0053507695
0.17011967 -0.1484307 0.1581914 0.096072175 -0.13557762 0.13889597 -0.029817853 0.18407725
0.00045970597 -0.056422718 -0.036865868 -0.15548363 -0.16605823 0.19482186 0.060013928 0.20064698
00000000: 6338 d53d 1927 88bd dc55 013e 2c46 5a3e
00000010: c75d 073e 5788 d8bd 60a7 9bbd 90ba 1f3e
00000020: ff42 a0bd 9af5 4d3e e310 3c3e 9ed5 4f3e
00000030: eaf6 5d3e d10a 11be 249f 00be 8255 afbb
00000040: da33 2e3e 38fe 17be edfc 213e 7dc1 c43d
00000050: dcd4 0abe bf3a 0e3e 9244 f4bc bf7e 3c3e
00000060: b104 f139 821b 67bd aa00 17bd 1a37 1fbe
00000070: 2b0b 2abe 627f 473e 2ad1 753d 6776 4d3e
