checkpoints/epoch_16_val_loss_5.2394.pt (torch, 76530 bytes, 5 tensors)

convolution_layers.0.weight f4 [253, 64]
0	0xbc9149e3	-0.017735427
1	0xbbbbe78b	-0.005734389
2	0x3c3bd8f6	0.011465302
3	0xbcdcab08	-0.026937023
4	0x3d2d902e	0.04237383
5	0x3d29c529	0.041447792
6	0xbd04ffee	-0.032470636
7	0xbd948f45	-0.07253889
8	0xbd5c0d06	-0.053723358
9	0x3ddcfc26	0.10790281
10	0xbdcc8437	-0.099861555
11	0x3e06acaa	0.13151804
12	0x3df07aac	0.11742148
13	0xbd82c3e1	-0.06385017
14	0xbd09a44a	-0.033603944
15	0x3e043447	0.12910567
16	0xbdff34bf	-0.124612324
17	0xbac49409	-0.0014997731
18	0x3cb68d8d	0.022284294
19	0xbdb38631	-0.08765829
20	0x3d701592	0.05861432
21	0xbd3c877e	-0.046027653
22	0xbc0fce2d	-0.0087771835
23	0xbd571c80	-0.052517414
24	0xbd77825a	-0.060427047
25	0xbde0193b	-0.10942312
26	0x3cedc7dd	0.029025966
27	0xbdb42f14	-0.08798042
28	0x3dcf985c	0.10136482
29	0xbd83b10b	-0.06430253
30	0x3da2061b	0.07911321
31	0xbd9849bc	-0.07435939
32	0x3d880f5d	0.06643555
33	0x3dea0cd6	0.114282295
34	0xbd87858a	-0.066172674
35	0x3dd4241d	0.103584506
36	0xbe03c16f	-0.12866758
37	0x3ddf5ad9	0.10906
38	0xbd9017e6	-0.07035808
39	0x3d985bb9	0.0743937
40	0xbde16650	-0.11005843
41	0xbcda3b91	-0.026639732
42	0x3e0ae802	0.13565066
43	0xbdb80983	-0.08986189
44	0x3db7025d	0.08935998
45	0xba123fac	-0.0005578946
46	0xbd92fc7a	-0.07177062
47	0xbdea263d	-0.114330746
48	0x3db384d5	0.0876557
49	0x3dc76f94	0.09738079
50	0xbd58e0b3	-0.052948665
51	0xbcf55533	-0.029947853
52	0x3d4c24ef	0.04983991
53	0xbd78a4a8	-0.060703903
54	0xbbe5721d	-0.0070021288
55	0x3dcec1f4	0.100955874
56	0x3d3a20f9	0.0454416
57	0x3d4b8dc9	0.049695764
58	0xbd3c1c64	-0.045925513
59	0xbdebcced	-0.11513696
60	0x3e0c448e	0.13698027
61	0x3dcbfb13	0.09959998
62	0x3bae0584	0.005310716
63	0xbb9a0f37	-0.004701521
64	0x3dc25efe	0.094907746
65	0x3ba0f1b7	0.004911627
66	0xbdb53f8c	-0.08850011
67	0x3df3b8ea	0.11900504
68	0xbdec308a	-0.115326956
69	0x3d737876	0.059441052
70	0x3cfdc5b6	0.030978065
71	0x3b033fe5	0.0020027098
72	0x3c98010d	0.018555189
73	0xbc847a1f	-0.016171513
74	0x3da06965	0.078326024
75	0x3dda727e	0.10666369
76	0xbdbd5595	-0.09244839
77	0x3df2293f	0.11824273
78	0xbb66480b	-0.0035138156
79	0xbd042c64	-0.032268897
80	0xbd9a46a2	-0.075330034
81	0x3dcc0feb	0.099639736
82	0xbca0710c	-0.019585155
83	0xbdea97d8	-0.11454743
84	0xbdd3d0dd	-0.10342572
85	0xbd6b9f4d	-0.057524968
86	0x3db22aac	0.08699545
87	0xbd932e4e	-0.07186566
88	0x3e057cf5	0.13035949
89	0x3d84d015	0.06485001
90	0xbe000e11	-0.12505366
91	0x3db9715b	0.09054824
92	0x3db8803e	0.09008835
93	0x3e0b3e8d	0.1359808
94	0x3d6dfd6f	0.05810302
95	0x3dd2888d	0.10279951
96	0xbc243737	-0.01002293
97	0x3acb0d91	0.0015491714
98	0xbca659cf	-0.020306496
99	0x3dd2dd88	0.1029616
100	0xbd598c47	-0.053112295
101	0xbc601eee	-0.013679249
102	0x3dae497d	0.085101105
103	0x3d1e287b	0.038612824
104	0x3d37fbeb	0.044917982
105	0x3d73ff8b	0.059569877
106	0x3cb2b93f	0.021816848
107	0xbdca7b77	-0.0988683
108	0x3d5d7935	0.05407067
109	0x3cb276d4	0.021785177
110	0xbe0c66a8	-0.13711035
111	0x3c7bc892	0.015367644
112	0x3d39b922	0.045342572
113	0xbbf62d29	-0.0075127077
114	0x3d39cd60	0.045361876
115	0xbe05e403	-0.13075261
116	0x3c6f344e	0.014599873
117	0x3e01a395	0.12660058
118	0x3e048571	0.12941529
119	0xbdf779e8	-0.12083799
120	0xbb053d34	-0.002033067
121	0xbd7e7443	-0.062122595
122	0x3d16a752	0.036780663
123	0x3de9d687	0.11417871
124	0x3dfc3319	0.123144336
125	0x3d9753e0	0.07389045
126	0x3d4085e6	0.047002696
127	0x3bd03a05	0.0063545727
128	0xbdbecead	-0.09316764
129	0x3dec443d	0.11536453
130	0x3da6893b	0.081316434
131	0x3bbfd6e2	0.0058544734
132	0xbd8fb646	-0.07017188
133	0x3db584ac	0.08863196
134	0x3defd478	0.11710447
135	0x3dfb5ad8	0.122731864
136	0xbc917cd4	-0.017759718
137	0xbdad0e17	-0.08449953
138	0x3df22cf1	0.11824978
139	0xbdcb87db	-0.09938022
140	0x3dc190d5	0.09451453
141	0x3d99ff76	0.075194284
142	0x3cbe4e11	0.023230584
143	0xbdb17c56	-0.08666293
144	0xbceba2d4	-0.028764166
145	0x3dd403f2	0.10352315
146	0x3ddf6c49	0.10909326
147	0xbd0c6a90	-0.034281313
148	0xbc88e425	-0.01671035
149	0x3cfabd1f	0.030607758
150	0x3d28f6b1	0.04125089
151	0x3da74c60	0.08168864
152	0x3e076b9e	0.13224646
153	0x3dcc7dca	0.0998493
154	0x3da348aa	0.07972844
155	0xbca7f059	-0.020500349
156	0xbd0e43a8	-0.03473249
157	0x3d8c744e	0.06858121
158	0x3cccf99c	0.025021367
159	0xbd253067	-0.040329363
160	0x3dd48c24	0.10378292
161	0x3d8f9058	0.07009953
162	0xbde51e0b	-0.11187371
163	0xbd89ed04	-0.0673466
164	0x3d38d539	0.04512522
165	0x3d6c0cad	0.057629276
166	0xbdd1a281	-0.10236073
167	0x3d870efb	0.06594654
168	0x3d62af80	0.05534315
169	0x3d7c6fc3	0.06163002
170	0xbcb863c1	-0.022508504
171	0xbc926f46	-0.017875325
172	0xbdb5cbf0	-0.088767886
173	0x3d917c47	0.07103782
174	0xbe0c3d36	-0.13695225
175	0x3e000c58	0.12504709
176	0x3d364c10	0.044506133
177	0x3cff4ac7	0.031163586
178	0x3d51b3ab	0.051196735
179	0x3c53b8c0	0.012922466
180	0x3c302ea5	0.010753308
181	0xbdaff17b	-0.085909806
182	0xbd9db9f0	-0.077014804
183	0x3da288d3	0.079362534
184	0xbe0b859b	-0.13625185
185	0xbd97046d	-0.07373891
186	0x3d764d56	0.060132347
187	0x3db32db9	0.08748955
188	0x3de7916e	0.113070354
189	0x3d8326a4	0.064038545
190	0x3d98cfab	0.074614845
191	0xbc1a7bb2	-0.009428905
192	0x3c6a94de	0.014317719
193	0x3c015233	0.007893133
194	0xbddf3690	-0.10899079
195	0x3db146c0	0.086560726
196	0xbddc7e35	-0.107662596
197	0xbd93d0e3	-0.07217576
198	0x3db8f489	0.090310164
199	0x3846bae5	4.7380938e-05
200	0x3d676852	0.056495972
201	0xbc2c98a9	-0.010534444
202	0xbd46dc23	-0.048549782
203	0xbde95a95	-0.1139423
204	0xbd4f6293	-0.050631117
205	0xbb614240	-0.0034371763
206	0x3c9db803	0.019252783
207	0x3de121bb	0.10992762
208	0x3c4279b3	0.011869836
209	0xbd59dada	-0.05318723
210	0x3cdb965d	0.026805097
211	0x3e035314	0.1282466
212	0xbd9e596c	-0.077318996
213	0xbe09a6b3	-0.13442497
214	0x3c396322	0.011315139
215	0xbd9644b2	-0.07337321
216	0xbd3229c1	-0.04349685
217	0xbd4822d5	-0.048861343
218	0xbdfa2344	-0.12213758
219	0xbdbbabaa	-0.09163602
220	0x3dfcc094	0.12341419
221	0xbda679b6	-0.08128683
222	0x3de39873	0.11113062
223	0x3dd6fb0b	0.104971014
224	0xbbbfa4ce	-0.0058485037
225	0xbcf1552e	-0.029459562
226	0xbe007188	-0.12543309
227	0x3def4150	0.11682379
228	0x3c7ffd75	0.015624394
229	0xbe017e75	-0.12645896
230	0x3d4f09df	0.050546523
231	0x3da49059	0.08035345
232	0x3d54df71	0.051970903
233	0xbd9656db	-0.07340785
234	0xbbf51344	-0.0074791033
235	0x3d8f38b3	0.069932364
236	0x3a4af4cd	0.00077421666
237	0x3c0b383b	0.008497293
238	0xbd8cf35e	-0.06882356
239	0x3c09c229	0.008408108
240	0xbd9f1ab6	-0.077687666
241	0x3dfd0c0a	0.12355812
242	0xbd1ee4ab	-0.038792294
243	0xbc1773d4	-0.009243924
244	0xbdca0da5	-0.09865884
245	0xbd188084	-0.037231937
246	0xbdd38941	-0.103289135
247	0x3d827f5b	0.063719474
248	0xbd73358c	-0.05937724
249	0xbdc820c4	-0.097718745
250	0xbba3962e	-0.004992268
251	0x3d901aeb	0.07036384
252	0x3da7b9f4	0.081897646
253	0xbe027dcb	-0.12743299
254	0xbde29d41	-0.1106515
255	0x3db80c25	0.089866914

convolution_layers.0.bias f4 [64]
0	0xbcab326d	-0.020898068
1	0xbbf7984b	-0.0075559965
2	0x00000000	0.0
3	0x3d92c8da	0.07167216
4	0x3da9b65f	0.08286738
5	0x00000000	0.0
6	0xbc44bb08	-0.012007482
7	0x3d830eb9	0.063992925
8	0x3e123238	0.1427697
9	0x3dcf39ea	0.10118468
10	0x3dc71f8a	0.097228125
11	0x00000000	0.0
12	0x3d9f0d87	0.07766252
13	0x00000000	0.0
14	0xbc4e4db5	-0.012591769
15	0x3db7e713	0.08979621
16	0x3da4a9cc	0.08040199
17	0xbc903167	-0.017601682
18	0x3da589b4	0.080829054
19	0x00000000	0.0
20	0x3dbadbcb	0.091239534
21	0x3d9808e2	0.07423569
22	0x00000000	0.0
23	0x00000000	0.0
24	0x3e2613d5	0.16218503
25	0x3e100f09	0.14068235
26	0x00000000	0.0
27	0xbd496c53	-0.04917557
28	0x3daab069	0.08334429
29	0x3e315958	0.17319238
30	0xbd62bc1d	-0.05535518
31	0x3dd3b946	0.103380725
32	0x00000000	0.0
33	0xbc22e900	-0.009943247
34	0x3da84ca1	0.08217741
35	0x3d982c21	0.07430292
36	0x3dab0655	0.08350817
37	0x3da4cbe2	0.080467
38	0x3dd8a5de	0.10578512
39	0x3d88bf33	0.06677093
40	0x00000000	0.0
41	0x3d84082d	0.06446872
42	0x00000000	0.0
43	0xbd3b791b	-0.045769792
44	0x38a2dd17	7.765943e-05
45	0x00000000	0.0
46	0x3dec9633	0.11552086
47	0xbde5e828	-0.11225921
48	0x3d4b0d04	0.04957296
49	0x3d7f32da	0.062304355
50	0x3d83fd83	0.06444838
51	0x00000000	0.0
52	0xbbe5d40f	-0.0070138047
53	0x3d983a16	0.07432954
54	0x3dccbbf3	0.09996786
55	0x3dca9675	0.09891979
56	0x00000000	0.0
57	0xbb74bd62	-0.0037344326
58	0x3d9827c4	0.0742946
59	0x3d9abcdb	0.075555526
60	0xbcdb34a4	-0.0267585
61	0x3d817fa2	0.06323172
62	0xbd3020a2	-0.04299987
63	0x3d0b8437	0.034061637

convolution_layers.1.weight f4 [64, 32]
0	0x3eae1633	0.34001312
1	0xbe6f3e87	-0.23363696
2	0x3e3490b1	0.1763332
3	0x3e985d50	0.29758692
4	0xbdce0bd0	-0.10060847
5	0xbeaa272b	-0.33233008
6	0x3d25b5a6	0.040456437
7	0x3e38e9aa	0.18057886
8	0xbeb0b054	-0.34509528
9	0x3e90d82e	0.28289932
10	0x3a0bd73d	0.0005334502
11	0x3e94e4a2	0.29080683
12	0x3e015f26	0.12633952
13	0xbe1fe54f	-0.15614818
14	0xbddcddb5	-0.10784475
15	0xbe1d6aec	-0.15372819
16	0x3e8e1c49	0.27755955
17	0xbcd4e7e0	-0.025989473
18	0x3e3a2397	0.18177639
19	0x3e822606	0.25419635
20	0xbe2d5a05	-0.16928871
21	0x3ec13d1a	0.3774193
22	0xbdad03d3	-0.08447995
23	0x3e7d5cc5	0.2474242
24	0xbe183351	-0.14863326
25	0xbd8836b9	-0.066510625
26	0x3df8d570	0.12150085
27	0xbde90954	-0.11378732
28	0x3e0cba3e	0.13742921
29	0x3d519f94	0.051177576
30	0x3e001638	0.12508476
31	0xbd1f9bfa	-0.03896711
32	0x3e31b03d	0.17352386
33	0xbde9ce01	-0.11416245
34	0xbd767c99	-0.06017742
35	0x3e7a05c5	0.24416263
36	0x3e5e2576	0.21693978
37	0xbe357b2c	-0.17722768
38	0x3e23f205	0.16010292
39	0xbd727c0b	-0.059200328
40	0x3d75e746	0.060035013
41	0xbdb1041b	-0.08643361
42	0xbe0098e2	-0.1255832
43	0x3de41a16	0.11137788
44	0x3e866e4a	0.2625602
45	0xbdfe1c8a	-0.12407787
46	0xbd5c5ed0	-0.053801358
47	0xbe187092	-0.14886692
48	0x3d486dcd	0.04893284
49	0x3e25eb58	0.16203058
50	0xbd7e2534	-0.0620472
51	0x3e66a845	0.22525127
52	0xbe5b27f3	-0.21401958
53	0xbdb6dfef	-0.08929431
54	0x3e0d8f4b	0.13824193
55	0xbdb78944	-0.08961728
56	0x3df7d410	0.121009946
57	0xbe2f7a7b	-0.17136566
58	0xbe1dc690	-0.15407777
59	0xbe507356	-0.20356497
60	0xbe141188	-0.14459813
61	0xbe1640d3	-0.14673166
62	0xbd06162d	-0.032735992
63	0xbe11928a	-0.14216056
64	0x3e1dd8ea	0.15414777
65	0xbd4fa710	-0.050696433
66	0xbd30db08	-0.043177634
67	0xbdf28128	-0.11841041
68	0xbe055a52	-0.13022736
69	0x3e171778	0.14755046
70	0x3d8f8f0c	0.07009706
71	0xbe52eff2	-0.20599344
72	0x3c024260	0.007950395
73	0xbe12bb30	-0.14329219
74	0x3e364296	0.17798838
75	0xbe03ccb4	-0.12871057
76	0xbdff7418	-0.12473315
77	0x3e4becbe	0.19914529
78	0x3e14e152	0.14539078
79	0xbdaa6358	-0.083197296
80	0x3c10aa60	0.008829683
81	0x3d85d614	0.06534973
82	0x3de82134	0.11334458
83	0xbe0bd894	-0.13656837
84	0x3df0ab40	0.11751413
85	0xbca986c0	-0.020694137
86	0xbe45623a	-0.19275752
87	0x3e53be9c	0.2067818
88	0xbd37e1e8	-0.044893175
89	0x3e49cc6c	0.19706887
90	0x3b60b200	0.0034285784
91	0xb9859c00	-0.00025483966
92	0x3e1ec588	0.1550504
93	0xbc7a5f00	-0.015281439
94	0x3e28a7aa	0.16470209
95	0xbe3068a4	-0.17227417
96	0xbd4f7227	-0.050645974
97	0xbda7cb57	-0.08193081
98	0xbe24eaa4	-0.16105133
99	0x3cbc8190	0.023010999
100	0xbe800640	-0.25004768
101	0xbc3ada5b	-0.011404599
102	0x3d5dc445	0.054142255
103	0x3e867a50	0.26265192
104	0xbdf10c31	-0.117699035
105	0x3e418b60	0.18900824
106	0xbd264c35	-0.04060002
107	0x3e913983	0.2836419
108	0xbd1d1ed4	-0.038359478
109	0x3dda2696	0.10651891
110	0xbe7e4bbd	-0.2483358
111	0xbe58665b	-0.21132796
112	0x3e6e8fba	0.23297015
113	0xbcc5e670	-0.024157733
114	0x3e16ce6c	0.14727181
115	0x3e13e74f	0.14443706
116	0xbe26f6aa	-0.16305032
117	0x3e569af8	0.20957553
118	0xbe7c3e51	-0.24633147
119	0x3e891355	0.26772562
120	0x3b901f1a	0.004398239
121	0x3e46f7a2	0.19430402
122	0xbd02ec50	-0.031963646
123	0xbe2235f7	-0.15840898
124	0xbe7bb702	-0.2458153
125	0x3db0347d	0.08603761
126	0xbe1974db	-0.14985983
127	0x3dfca64a	0.123364046
128	0xbd98e8c6	-0.07466273
129	0xbd400504	-0.046879783
130	0x3e327300	0.17426682
131	0x3e09d411	0.13459803
132	0xbde4b6f0	-0.11167705
133	0xbd6de02a	-0.058075108
134	0x3ddaf6d6	0.106916115
135	0x3db27e46	0.08715491
136	0x3e15b67f	0.14620398
137	0x3d18f24f	0.03734046
138	0x3e9c03a4	0.30471528
139	0x3c2f45dc	0.010697808
140	0x3e939956	0.28827924
141	0x3e18eb95	0.14933617
142	0xbe8ba2ae	-0.27272552
143	0xbe07f09a	-0.13275376
144	0x3dd7b6aa	0.10532887
145	0x3dbfd514	0.09366813
146	0xbc21be10	-0.009871975
147	0x3e0f9aaa	0.14023843
148	0x3d3a03f8	0.04541394
149	0x3e616edb	0.22014944
150	0xbc6ba309	-0.014382132
151	0x3e6208f3	0.22073726
152	0x3e28f2db	0.16498892
153	0xbdea7cff	-0.11449622
154	0xbe406ebc	-0.18792242
155	0xbe126700	-0.14297104
156	0x3df439e2	0.11925103
157	0x3e8a9bd0	0.27072
158	0x3e52033c	0.20509046
159	0x3c16143d	0.009160099
160	0xbe2cd2c8	-0.16877282
161	0x3e750dda	0.23931065
162	0x3ba20400	0.0049443245
163	0xbe29c3a8	-0.16578543
164	0x3df58a38	0.11989254
165	0x3daaec64	0.08345869
166	0xbd6811b8	-0.056657523
167	0x3d81c4b8	0.06336349
168	0xbe2a55b4	-0.16634256
169	0xbe4ec772	-0.2019327
170	0x3e050832	0.12991408
171	0x3e7afd9a	0.24510804
172	0xbe15ba72	-0.14621904
173	0x3cef6be0	0.029226243
174	0x3baf4100	0.005348325
175	0x3cfd6980	0.030934095
176	0x3d90e940	0.07075739
177	0xbcbb2220	-0.02284342
178	0xbd5aac40	-0.053386927
179	0x3d7d18f8	0.06179139
180	0x3e13affc	0.14422601
181	0xbdd5e820	-0.10444665
182	0xbddd3200	-0.10800552
183	0xbda59be0	-0.080863714
184	0x3e398622	0.18117574
185	0x3d12ea38	0.0358679
186	0x3e1abe0a	0.15111557
187	0xbd114e60	-0.035475135
188	0x3dfc5ae4	0.123220235
189	0xbd39d768	-0.045371443
190	0x3da23088	0.07919413
191	0x3c419e00	0.011817455
192	0x3e413ad9	0.18870105
193	0xbe647a23	-0.22312216
194	0x3e134997	0.14383541
195	0xbdefc494	-0.11707416
196	0xbc29d24a	-0.010365078
197	0x3e49b972	0.19699648
198	0xbe110e5d	-0.14165635
199	0x3de5226a	0.111882046
200	0xbd8a3a1c	-0.06749365
201	0x3e396bb3	0.1810749
202	0xbdb9945d	-0.09061501
203	0x3e87e251	0.26539853
204	0x3e5a59f4	0.21323377
205	0x3e411391	0.1885512
206	0xbe91dd81	-0.28489307
207	0x3e5ffdb1	0.2187412
208	0xbe4755cc	-0.19466323
209	0x3e3a38e0	0.18185759
210	0xbe007165	-0.12543257
211	0x3da154d7	0.0787751
212	0x3e306707	0.17226802
213	0xbe16dbf8	-0.14732349
214	0x3db7c339	0.08972783
215	0xbe0c50da	-0.13702717
216	0x3d2a5435	0.041584212
217	0xbe163300	-0.14667892
218	0x3a809c00	0.0009812117
219	0xbd643755	-0.05571683
220	0x3d0004ed	0.031254698
221	0xbae2ec42	-0.0017312842
222	0x3dcb1846	0.09916739
223	0xbd55796a	-0.052117743
224	0xbe33d0a8	-0.17560065
225	0xbde2148f	-0.110390775
226	0x3e4db62d	0.20089026
227	0x3d8f5bde	0.06999944
228	0xbd821490	-0.06351578
229	0x3d448c0d	0.047985125
230	0x3e6d9982	0.2320309
231	0x3e81a1e8	0.25318837
232	0x3d869c26	0.06572752
233	0x3e8b527d	0.2721137
234	0x3e8d6529	0.27616242
235	0x3e7e8cea	0.24858442
236	0x3e2a5fe5	0.16638143
237	0xbd4b5b52	-0.049647637
238	0xbb98f162	-0.004667447
239	0x3d70f18b	0.058824103
240	0xbd362c0b	-0.044475596
241	0xbe2d5770	-0.16927886
242	0xbd3c594d	-0.0459836
243	0x3e5a261f	0.21303605
244	0xbdf6b451	-0.120461114
245	0xbcb54778	-0.022128806
246	0xbdac7f11	-0.084226735
247	0x3deee4a7	0.11664706
248	0x3d877fb9	0.06616158
249	0xbe64c6e1	-0.22341491
250	0x3e4512b2	0.19245413
251	0x3e05ffe9	0.13085903
252	0x3d2c64e7	0.042088415
253	0xbdd09286	-0.10184197
254	0x3d9519b8	0.07280296
255	0x3e389e9d	0.18029256

convolution_layers.1.bias f4 [32]
0	0x3dff873a	0.12476964
1	0xbbbfe6df	-0.0058563794
2	0x3e0894ab	0.13337962
3	0x3e29f99e	0.16599128
4	0xbcafe775	-0.021472672
5	0xbd741a58	-0.059595436
6	0xbc1900fa	-0.009338612
7	0x3df044cf	0.11731874
8	0xbd97168f	-0.073773496
9	0x3df5ec83	0.12008002
10	0x3df591b1	0.11990679
11	0x3e13fddf	0.14452313
12	0x3deac26f	0.114628665
13	0xbd9c11ac	-0.07620558
14	0xbd3f9054	-0.0467685
15	0xbc8146d8	-0.015780851
16	0x3df680fb	0.1203632
17	0x00000000	0.0
18	0x3ded3619	0.11582584
19	0x3e00c73f	0.12576006
20	0xbd0a11c2	-0.03370834
21	0x3e23d6ca	0.15999904
22	0xbce6faba	-0.028195728
23	0x3e2baba5	0.16764696
24	0xbcdb4c05	-0.026769647
25	0xbd5862df	-0.052828666
26	0x00000000	0.0
27	0xbdae65cf	-0.08515512
28	0xbccfd79a	-0.025371362
29	0x3e16b86b	0.14718787
30	0x3e117868	0.14206088
31	0x3ded52f8	0.11588091

classify.weight f4 [1, 32]
0	0x3e0cd6fc	0.13753885
1	0xbd882719	-0.06648082
2	0x3e414bcc	0.1887657
3	0x3eae837e	0.34084696
4	0x3de01b18	0.10942668
5	0xbedc8645	-0.4307119
6	0xbe4b04d7	-0.19826065
7	0x3e37fbcc	0.17967147
8	0xbec28b2f	-0.37996814
9	0x3e76cf70	0.24102569
10	0x3e59149f	0.21199273
11	0x3e89cd7f	0.26914594
12	0x3e7b2c73	0.24528675
13	0xbe46aeab	-0.19402568
14	0xbf07895f	-0.52943987
15	0xbbaf565d	-0.0053508715
16	0x3e579377	0.21052347
17	0xbe17fe38	-0.1484307
18	0x3e324d7b	0.17412369
19	0x3e020682	0.12697795
20	0xbed08b79	-0.4073141
21	0x3e647bc2	0.22312835
22	0xbd8bd5af	-0.06827866
23	0x3e99bba9	0.30025986
24	0xb881ff28	-6.198726e-05
25	0xbe1d8dc3	-0.15386109
26	0xbd1700aa	-0.036865868
27	0xbea743f5	-0.32669035
28	0xbe815cf3	-0.25266227
29	0x3e853a44	0.26021016
30	0x3db9c173	0.09070101
31	0x3e72d914	0.23715621
