checkpoints/epoch_19_val_loss_4.8463.pt (torch, 76530 bytes, 5 tensors)

convolution_layers.0.weight f4 [253, 64]
-0.017735427 -0.005734389 0.011465302 -0.026937023 0.04237383 0.041447792 -0.032470636 -0.07253889
-0.053723358 0.10790281 -0.099861555 0.13151804 0.11742148 -0.06385017 -0.033603944 0.12910567
-0.124612324 -0.0014997731 0.022284294 -0.08765829 0.05861432 -0.046027653 -0.0087771835 -0.052517414
-0.060427047 -0.10942312 0.029025966 -0.08798042 0.10136482 -0.06430253 0.07911321 -0.07435939
0.06643555 0.114282295 -0.066172674 0.103584506 -0.12866758 0.10906 -0.07035808 0.0743937
-0.11005843 -0.026639732 0.13565066 -0.08986189 0.08935998 -0.0005578946 -0.07177062 -0.114330746
0.0876557 0.09738079 -0.052948665 -0.029947853 0.04983991 -0.060703903 -0.0070021288 0.100955874
0.0454416 0.049695764 -0.045925513 -0.11513696 0.13698027 0.09959998 0.005310716 -0.004701521
0.094907746 0.004911627 -0.08850011 0.11900504 -0.115326956 0.059441052 0.030978065 0.0020027098
0.018555189 -0.016171513 0.078326024 0.10666369 -0.09244839 0.11824273 -0.0035138156 -0.032268897
-0.075330034 0.099639736 -0.019585155 -0.11454743 -0.10342572 -0.057524968 0.08699545 -0.07186566
0.13035949 0.06485001 -0.12505366 0.09054824 0.09008835 0.1359808 0.05810302 0.10279951
-0.01002293 0.0015491714 -0.020306496 0.1029616 -0.053112295 -0.013679249 0.085101105 0.038612824
0.044917982 0.059569877 0.021816848 -0.0988683 0.05407067 0.021785177 -0.13711035 0.015367644
0.045342572 -0.0075127077 0.045361876 -0.13075261 0.014599873 0.12660058 0.12941529 -0.12083799
-0.002033067 -0.062122595 0.036780663 0.11417871 0.123144336 0.07389045 0.047002696 0.0063545727
-0.09316764 0.11536453 0.081316434 0.0058544734 -0.07017188 0.08863196 0.11710447 0.122731864
-0.017759718 -0.08449953 0.11824978 -0.09938022 0.09451453 0.075194284 0.023230584 -0.08666293
-0.028764166 0.10352315 0.10909326 -0.034281313 -0.01671035 0.030607758 0.04125089 0.08168864
0.13224646 0.0998493 0.07972844 -0.020500349 -0.03473249 0.06858121 0.025021367 -0.040329363
0.10378292 0.07009953 -0.11187371 -0.0673466 0.04512522 0.057629276 -0.10236073 0.06594654
0.05534315 0.06163002 -0.022508504 -0.017875325 -0.088767886 0.07103782 -0.13695225 0.12504709
0.044506133 0.031163586 0.051196735 0.012922466 0.010753308 -0.085909806 -0.077014804 0.079362534
-0.13625185 -0.07373891 0.060132347 0.08748955 0.113070354 0.064038545 0.074614845 -0.009428905
0.014317719 0.007893133 -0.10899079 0.086560726 -0.107662596 -0.07217576 0.090310164 4.7380938e-05
0.056495972 -0.010534444 -0.048549782 -0.1139423 -0.050631117 -0.0034371763 0.019252783 0.10992762
0.011869836 -0.05318723 0.026805097 0.1282466 -0.077318996 -0.13442497 0.011315139 -0.07337321
-0.04349685 -0.048861343 -0.12213758 -0.09163602 0.12341419 -0.08128683 0.11113062 0.104971014
-0.0058485037 -0.029459562 -0.12543309 0.11682379 0.015624394 -0.12645896 0.050546523 0.08035345
0.051970903 -0.07340785 -0.0074791033 0.069932364 0.00077421666 0.008497293 -0.06882356 0.008408108
-0.077687666 0.12355812 -0.038792294 -0.009243924 -0.09865884 -0.037231937 -0.103289135 0.063719474
-0.05937724 -0.097718745 -0.004992268 0.07036384 0.081897646 -0.12743299 -0.1106515 0.089866914
00000000: e349 91bc 8be7 bbbb f6d8 3b3c 08ab dcbc
00000010: 2e90 2d3d 29c5 293d eeff 04bd 458f 94bd
00000020: 060d 5cbd 26fc dc3d 3784 ccbd aaac 063e
00000030: ac7a f03d e1c3 82bd 4aa4 09bd 4734 043e
00000040: bf34 ffbd 0994 c4ba 8d8d b63c 3186 b3bd
00000050: 9215 703d 7e87 3cbd 2dce 0fbc 801c 57bd
00000060: 5a82 77bd 3b19 e0bd ddc7 ed3c 142f b4bd
00000070: 5c98 cf3d 0bb1 83bd 1b06 a23d bc49 98bd
00000080: 5d0f 883d d60c ea3d 8a85 87bd 1d24 d43d
00000090: 6fc1 03be d95a df3d e617 90bd b95b 983d
000000a0: 5066 e1bd 913b dabc 02e8 0a3e 8309 b8bd
000000b0: 5d02 b73d ac3f 12ba 7afc 92bd 3d26 eabd
000000c0: d584 b33d 946f c73d b3e0 58bd 3355 f5bc
000000d0: ef24 4c3d a8a4 78bd 1d72 e5bb f4c1 ce3d
000000e0: f920 3a3d c98d 4b3d 641c 3cbd edcc ebbd
000000f0: 8e44 0c3e 13fb cb3d 8405 ae3b 370f 9abb
00000100: fe5e c23d b7f1 a03b 8c3f b5bd eab8 f33d
00000110: 8a30 ecbd 7678 733d b6c5 fd3c e53f 033b
00000120: 0d01 983c 1f7a 84bc 6569 a03d 7e72 da3d
00000130: 9555 bdbd 3f29 f23d 0b48 66bb 642c 04bd
00000140: a246 9abd eb0f cc3d 0c71 a0bc d897 eabd
00000150: ddd0 d3bd 4d9f 6bbd ac2a b23d 4e2e 93bd
00000160: f57c 053e 15d0 843d 110e 00be 5b71 b93d
00000170: 3e80 b83d 8d3e 0b3e 6ffd 6d3d 8d88 d23d
00000180: 3737 24bc 910d cb3a cf59 a6bc 88dd d23d
00000190: 478c 59bd ee1e 60bc 7d49 ae3d 7b28 1e3d
000001a0: ebfb 373d 8bff 733d 3fb9 b23c 777b cabd
000001b0: 3579 5d3d d476 b23c a866 0cbe 92c8 7b3c
000001c0: 22b9 393d 292d f6bb 60cd 393d 03e4 05be
000001d0: 4e34 6f3c 95a3 013e 7185 043e e879 f7bd
000001e0: 343d 05bb 4374 7ebd 52a7 163d 87d6 e93d
000001f0: 1933 fc3d e053 973d e685 403d 053a d03b
00000200: adce bebd 3d44 ec3d 3b89 a63d e2d6 bf3b
00000210: 46b6 8fbd ac84 b53d 78d4 ef3d d85a fb3d
00000220: d47c 91bc 170e adbd f12c f23d db87 cbbd
00000230: d590 c13d 76ff 993d 114e be3c 567c b1bd
00000240: d4a2 ebbc f203 d43d 496c df3d 906a 0cbd
00000250: 25e4 88bc 1fbd fa3c b1f6 283d 604c a73d
00000260: 9e6b 073e ca7d cc3d aa48 a33d 59f0 a7bc
00000270: a843 0ebd 4e74 8c3d 9cf9 cc3c 6730 25bd
00000280: 248c d43d 5890 8f3d 0b1e e5bd 04ed 89bd
00000290: 39d5 383d ad0c 6c3d 81a2 d1bd fb0e 873d
000002a0: 80af 623d c36f 7c3d c163 b8bc 466f 92bc
000002b0: f0cb b5bd 477c 913d 363d 0cbe 580c 003e
000002c0: 104c 363d c74a ff3c abb3 513d c0b8 533c
000002d0: a52e 303c 7bf1 afbd f0b9 9dbd d388 a23d
000002e0: 9b85 0bbe 6d04 97bd 564d 763d b92d b33d
000002f0: 6e91 e73d a426 833d abcf 983d b27b 1abc
00000300: de94 6a3c 3352 013c 9036 dfbd c046 b13d
00000310: 357e dcbd e3d0 93bd 89f4 b83d e5ba 4638
00000320: 5268 673d a998 2cbc 23dc 46bd 955a e9bd
00000330: 9362 4fbd 4042 61bb 03b8 9d3c bb21 e13d
00000340: b379 423c dada 59bd 5d96 db3c 1453 033e
00000350: 6c59 9ebd b3a6 09be 2263 393c b244 96bd
00000360: c129 32bd d522 48bd 4423 fabd aaab bbbd
00000370: 94c0 fc3d b679 a6bd 7398 e33d 0bfb d63d
00000380: cea4 bfbb 2e55 f1bc 8871 00be 5041 ef3d
00000390: 75fd 7f3c 757e 01be df09 4f3d 5990 a43d
000003a0: 71df 543d db56 96bd 4413 f5bb b338 8f3d
000003b0: cdf4 4a3a 3b38 0b3c 5ef3 8cbd 29c2 093c
000003c0: b61a 9fbd 0a0c fd3d abe4 1ebd d473 17bc
000003d0: a50d cabd 8480 18bd 4189 d3bd 5b7f 823d
000003e0: 8c35 73bd c420 c8bd 2e96 a3bb eb1a 903d
000003f0: f4b9 a73d cb7d 02be 419d e2bd 250c b83d

convolution_layers.0.bias f4 [64]
-0.01105429 0.02562028 0.0 0.088936195 0.10248954 0.0 0.0023527835 0.07913864
0.16985299 0.12664971 0.122886084 0.0 0.09523262 0.0 -0.012591769 0.11616192
0.095989324 -0.017601682 0.10399616 0.0 0.121002935 0.083644494 0.0 0.0
0.19055901 0.167345 0.0 -0.051519234 0.10843941 0.20235632 -0.07093664 0.13021642
0.0 -0.010902426 0.10575195 0.09299646 0.105045944 0.103347205 0.12981966 0.08216625
0.0 0.08826488 0.0 -0.022326445 -0.006724515 0.0 0.15249485 -0.115363754
0.080499254 0.082771875 0.086620525 0.0 -0.0070138047 0.09955377 0.1261779 0.123631485
0.0 -0.006335636 0.09944524 0.09044208 -0.0267585 0.07538099 -0.034339517 0.065987155
00000000: 0e1d 35bc 9fe1 d13c 0000 0000 2e24 b63d
00000010: 09e6 d13d 0000 0000 2831 1a3b 7013 a23d
00000020: f1ed 2d3e 76b0 013e b3ab fb3d 0000 0000
00000030: 5209 c33d 0000 0000 b54d 4ebc 4de6 ed3d
00000040: 0d96 c43d 6731 90bc f0fb d43d 0000 0000
00000050: 63d0 f73d ce4d ab3d 0000 0000 0000 0000
00000060: e721 433e 7d5c 2b3e 0000 0000 d505 53bd
00000070: 7b15 de3d 7f36 4f3e 3b47 91bd 7457 053e
00000080: 0000 0000 17a0 32bc 7a94 d83d ee74 be3d
00000090: 5422 d73d b3a7 d33d 72ef 043e c746 a83d
000000a0: 0000 0000 38c4 b43d 0000 0000 f3e5 b6bc
000000b0: 5259 dcbb 0000 0000 9c27 1c3e d543 ecbd
000000c0: cbdc a43d 4d84 a93d 1a66 b13d 0000 0000
000000d0: 0fd4 e5bb d9e2 cb3d c834 013e 8132 fd3d
000000e0: 0000 0000 2b9b cfbb f2a9 cb3d b239 b93d
000000f0: a434 dbbc 5961 9a3d 98a7 0cbd 4624 873d

convolution_layers.1.weight f4 [64, 32]
0.49196047 -0.23363696 0.33253384 0.46042663 -0.10060847 -0.48218706 -0.12726356 0.33120963
-0.48192114 0.4359757 0.15007178 0.43506387 0.2751609 -0.28447813 -0.26333463 -0.15372819
0.427359 -0.025989473 0.32735232 0.40527865 -0.3489508 0.5375758 -0.27251774 0.4086255
-0.14863326 -0.20880106 0.12150085 -0.2533144 -0.035323672 0.20028543 0.27817336 0.1077501
0.18323244 -0.11416245 -0.048860606 0.26003084 0.21693978 -0.19627564 0.13330947 -0.051272433
0.03791098 -0.07837798 -0.11689004 0.123586595 0.26998448 -0.13032143 -0.08283483 -0.14886692
0.05804243 0.16203058 -0.054557696 0.23528245 -0.24779785 -0.07434427 0.1253991 -0.07386162
0.121009946 -0.1825692 -0.15407777 -0.21353129 -0.16198443 -0.13487464 -0.019768767 -0.13424747
0.15414777 -0.050696433 -0.043177634 -0.11841041 -0.13022736 0.14755046 0.07009706 -0.20599344
0.007950395 -0.14329219 0.17798838 -0.12871057 -0.12473315 0.19914529 0.14539078 -0.083197296
0.008829683 0.06534973 0.11334458 -0.13656837 0.11751413 -0.020694137 -0.19275752 0.2067818
-0.044893175 0.19706887 0.0034285784 -0.00025483966 0.1550504 -0.015281439 0.16470209 -0.17227417
-0.04239783 -0.08193081 -0.15117075 0.03599336 -0.25004768 -0.018467166 0.038380552 0.2699914
-0.1275162 0.19706814 -0.033128154 0.29442596 -0.031162424 0.1014004 -0.26044172 -0.21132796
0.24068992 -0.024157733 0.15410051 0.15264922 -0.18055794 0.22132291 -0.2595494 0.27982888
0.004398239 0.18703318 -0.031963646 -0.16479786 -0.25808248 0.09655962 -0.14084265 0.1306444
-0.06566983 -0.046879783 0.18505979 0.14860475 -0.11167705 -0.06534067 0.09115236 0.09522206
0.13588585 0.046267286 0.3129047 0.022463726 0.2962032 0.14365837 -0.28511316 -0.13275376
0.11375772 0.09366813 -0.0023728136 0.14915565 0.027989399 0.23283735 -0.028534897 0.23383766
0.16498892 -0.12235395 -0.18792242 -0.14987862 0.10694483 0.28222737 0.21475522 0.017144319
-0.16877282 0.23931065 0.0049443245 -0.16578543 0.11989254 0.08345869 -0.056657523 0.06336349
-0.16634256 -0.2019327 0.12991408 0.24510804 -0.14621904 0.029226243 0.005348325 0.030934095
0.07075739 -0.02284342 -0.053386927 0.06179139 0.14422601 -0.10444665 -0.10800552 -0.080863714
0.18117574 0.0358679 0.15111557 -0.035475135 0.123220235 -0.045371443 0.07919413 0.011817455
0.19516058 -0.22312216 0.15134121 -0.1070323 -0.010365078 0.18534495 -0.16099751 0.1172183
-0.08196433 0.18651731 -0.084742084 0.27334356 0.21826246 0.18453519 -0.30532968 0.2187412
-0.18851353 0.18185759 -0.120399594 0.085414 0.14699292 -0.1378079 0.08026308 -0.12709825
0.041584212 -0.15380293 0.0009812117 -0.061854105 0.019330274 0.0060347123 0.10752621 -0.04677992
-0.17303243 -0.110390775 0.20580502 0.07896807 -0.06351578 0.05257523 0.23634976 0.25540006
0.06760954 0.27600628 0.27808556 0.25569624 0.16874045 -0.04807793 -0.0032268239 0.058824103
-0.04287323 -0.16927886 -0.04515704 0.21506037 -0.1214231 -0.014924085 -0.08355455 0.12426605
0.06616158 -0.21927369 0.19245413 0.13354006 0.045293216 -0.09507935 0.0739962 0.18177395
00000000: 3ee2 fb3e 873e 6fbe e041 aa3e 0abd eb3e
00000010: d00b cebd 39e1 f6be 6151 02be 4f94 a93e
00000020: 5ebe f6be 3538 df3e 6bac 193e b1c0 de3e
00000030: e4e1 8c3e 1ea7 91be ccd3 86be ec6a 1dbe
00000040: cdce da3e e0e7 d4bc b99a a73e af80 cf3e
00000050: aea9 b2be 919e 093f 7287 8bbe 5d37 d13e
00000060: 5133 18be f2cf 55be 70d5 f83d 6db2 81be
00000070: 8eaf 10bd a017 4d3e bd6c 8e3e 16ac dc3d
00000080: 49a1 3b3e 01ce e9bd 0f22 48bd c322 853e
00000090: 7625 5e3e 7bfc 48be 4782 083e 0b03 52bd
000000a0: 8b48 1b3d a284 a0bd 0c64 efbd f81a fd3d
000000b0: 683b 8a3e fb72 05be 4fa5 a9bd 9270 18be
000000c0: e6bd 6d3d 58eb 253e e477 5fbd e2ed 703e
000000d0: b8be 7dbe cf41 98bd 9f68 003e c344 97bd
000000e0: 10d4 f73d 6cf3 3abe 90c6 1dbe f2a7 5abe
000000f0: 3fdf 25be 941c 0abe 1cf2 a1bc 2b78 09be
00000100: ead8 1d3e 10a7 4fbd 08db 30bd 2881 f2bd
00000110: 525a 05be 7817 173e 0c8f 8f3d f2ef 52be
00000120: 6042 023c 30bb 12be 9642 363e b4cc 03be
00000130: 1874 ffbd beec 4b3e 52e1 143e 5863 aabd
00000140: 60aa 103c 14d6 853d 3421 e83d 94d8 0bbe
00000150: 40ab f03d c086 a9bc 3a62 45be 9cbe 533e
00000160: e8e1 37bd 6ccc 493e 00b2 603b 009c 85b9
00000170: 88c5 1e3e 005f 7abc aaa7 283e a468 30be
00000180: 59a9 2dbd 57cb a7bd 81cc 1abe c66d 133d
00000190: 4006 80be 7448 97bc ed34 1d3d 503c 8a3e
000001a0: 9b93 02be 3bcc 493e 63b1 07bd 00bf 963e
000001b0: 5748 ffbc 03ab cf3d 9e58 85be 5b66 58be
000001c0: 6b77 763e 70e6 c5bc 86cc 1d3e 1450 1c3e
000001d0: 2ee4 38be 79a2 623e a9e3 84be bb45 8f3e
000001e0: 1a1f 903b a085 3f3e 50ec 02bd c5c0 28be
000001f0: 6323 84be 0dc1 c53d 0e39 10be a5c7 053e
00000200: e77d 86bd 0405 40bd 5080 3d3e d82b 183e
00000210: f0b6 e4bd 54d1 85bd 17ae ba3d c903 c33d
00000220: a925 0b3e c482 3d3d 0b35 a03e d905 b83c
00000230: f2a7 973e 2e1b 133e 5afa 91be 9af0 07be
00000240: cff9 e83d 14d5 bf3d 3581 1bbb 42bc 183e
00000250: 064a e53c ea6c 6e3e 04c2 e9bc 2473 6f3e
00000260: dbf2 283e b594 fabd bc6e 40be c879 19be
00000270: e405 db3d 1b80 903e cbe8 5b3e 3e72 8c3c
00000280: c8d2 2cbe da0d 753e 0004 a23b a8c3 29be
00000290: 388a f53d 64ec aa3d b811 68bd b8c4 813d
000002a0: b455 2abe 72c7 4ebe 3208 053e 9afd 7a3e
000002b0: 72ba 15be e06b ef3c 0041 af3b 8069 fd3c
000002c0: 40e9 903d 2022 bbbc 40ac 5abd f818 7d3d
000002d0: fcaf 133e 20e8 d5bd 0032 ddbd e09b a5bd
000002e0: 2286 393e 38ea 123d 0abe 1a3e 604e 11bd
000002f0: e45a fc3d 68d7 39bd 8830 a23d 009e 413c
00000300: 2dd8 473e 237a 64be 31f9 1a3e c033 dbbd
00000310: 4ad2 29bc 11cb 3d3e 88dc 24be 2610 f03d
00000320: eadc a7bd 65fe 3e3e 428d adbd b0f3 8b3e
00000330: 3280 5f3e cbf6 3c3e 2c54 9cbe b1fd 5f3e
00000340: b109 41be e038 3a3e 1094 f6bd 89ed ae3d
00000350: 5085 163e 841d 0dbe f860 a43d 0b26 02be
00000360: 3554 2a3d 847e 1dbe 009c 803a bb5a 7dbd
00000370: 865a 9e3c d6be c53b b436 dc3d 4d9c 3fbd
00000380: 6a2f 31be 8f14 e2bd 8dbe 523e 03ba a13d
00000390: 9014 82bd 2059 573d ac05 723e ccc3 823e
000003a0: df76 8a3d b250 8d3e 3b61 8e3e 9eea 823e
000003b0: 4cca 2c3e 5ded 44bd 1f79 53bb 8bf1 703d
000003c0: d79b 2fbd 7057 2dbe 97f6 38bd c938 5c3e
000003d0: adac f8bd 2684 74bc a61e abbd 337f fe3d
000003e0: b97f 873d 4889 60be b212 453e babe 083e
000003f0: 6185 393d f6b8 c2bd 528b 973d f322 3a3e

convolution_layers.1.bias f4 [32]
0.14401114 -0.0058563794 0.15689829 0.19521819 -0.021472672 -0.071881 -0.020151976 0.13581133
-0.08882534 0.14190319 0.1374158 0.17051533 0.1318508 -0.08587963 -0.058502484 -0.015780851
0.13874033 0.0 0.13149452 0.14388992 -0.048004568 0.18811081 -0.03872365 0.19651583
-0.026769647 -0.063584544 0.0 -0.09613303 -0.033211946 0.17324024 0.1622471 0.1318156
00000000: a877 133e dfe6 bfbb f2a9 203e 47e7 473e
00000010: 75e7 afbc 5936 93bd c215 a5bc 2012 0b3e
00000020: 0fea b5bd 124f 113e bab6 0c3e 929b 2e3e
00000030: e503 073e a9e1 afbd 4da0 6fbd d846 81bc
00000040: f211 0e3e 0000 0000 80a6 063e e157 133e
00000050: 70a0 44bd 1fa0 403e b19c 1ebd 723b 493e
00000060: 054c dbbc 9d38 82bd 0000 0000 65e1 c4bd
00000070: 4009 08bd e465 313e 1b24 263e abfa 063e

classify.weight f4 [1, 32]
0.15476345 -0.06648082 0.21487269 0.38485834 0.10942668 -0.51003784 -0.30821976 0.19499229
-0.45329255 0.2608853 0.22943154 0.29859713 0.26166597 -0.22491688 -0.61451983 -0.0053508715
0.23004787 -0.1484307 0.18394023 0.1436858 -0.50069594 0.25582257 -0.118992016 0.33930025
-6.198726e-05 -0.21424387 -0.036865868 -0.3931426 -0.35092813 0.28875798 0.10770397 0.2552803
00000000: 4f7a 1e3e 1927 88bd 9607 5c3e 270c c53e
00000010: 181b e03d d791 02bf fbce 9dbe 0fac 473e
00000020: f615 e8be c292 853e 1af0 6a3e b9e1 983e
00000030: 15f9 853e 9c50 66be 2c51 1dbf 5d56 afbb
00000040: ab91 6b3e 38fe 17be d45a 3c3e 5f22 133e
00000050: 9c2d 00bf 2dfb 823e 16b2 f3bd c3b8 ad3e
00000060: 28ff 81b8 bf62 5bbe aa00 17bd fd49 c9be
00000070: daac b3be 16d8 933e e693 dc3d 19b4 823e
