checkpoints/epoch_11_val_loss_5.4967.pt (torch, 76530 bytes, 5 tensors)

convolution_layers.0.weight f4 [253, 64]
-0.017735427 -0.005734389 0.011465302 -0.026937023 0.04237383 0.041447792 -0.032470636 -0.07253889
-0.053723358 0.10790281 -0.099861555 0.13151804 0.11742148 -0.06385017 -0.033603944 0.12910567
-0.124612324 -0.0014997731 0.022284294 -0.08765829 0.05861432 -0.046027653 -0.0087771835 -0.052517414
-0.060427047 -0.10942312 0.029025966 -0.08798042 0.10136482 -0.06430253 0.07911321 -0.07435939
0.06643555 0.114282295 -0.066172674 0.103584506 -0.12866758 0.10906 -0.07035808 0.0743937
-0.11005843 -0.026639732 0.13565066 -0.08986189 0.08935998 -0.0005578946 -0.07177062 -0.114330746
0.0876557 0.09738079 -0.052948665 -0.029947853 0.04983991 -0.060703903 -0.0070021288 0.100955874
0.0454416 0.049695764 -0.045925513 -0.11513696 0.13698027 0.09959998 0.005310716 -0.004701521
0.094907746 0.004911627 -0.08850011 0.11900504 -0.115326956 0.059441052 0.030978065 0.0020027098
0.018555189 -0.016171513 0.078326024 0.10666369 -0.09244839 0.11824273 -0.0035138156 -0.032268897
-0.075330034 0.099639736 -0.019585155 -0.11454743 -0.10342572 -0.057524968 0.08699545 -0.07186566
0.13035949 0.06485001 -0.12505366 0.09054824 0.09008835 0.1359808 0.05810302 0.10279951
-0.01002293 0.0015491714 -0.020306496 0.1029616 -0.053112295 -0.013679249 0.085101105 0.038612824
0.044917982 0.059569877 0.021816848 -0.0988683 0.05407067 0.021785177 -0.13711035 0.015367644
0.045342572 -0.0075127077 0.045361876 -0.13075261 0.014599873 0.12660058 0.12941529 -0.12083799
-0.002033067 -0.062122595 0.036780663 0.11417871 0.123144336 0.07389045 0.047002696 0.0063545727
-0.09316764 0.11536453 0.081316434 0.0058544734 -0.07017188 0.08863196 0.11710447 0.122731864
-0.017759718 -0.08449953 0.11824978 -0.09938022 0.09451453 0.075194284 0.023230584 -0.08666293
-0.028764166 0.10352315 0.10909326 -0.034281313 -0.01671035 0.030607758 0.04125089 0.08168864
0.13224646 0.0998493 0.07972844 -0.020500349 -0.03473249 0.06858121 0.025021367 -0.040329363
0.10378292 0.07009953 -0.11187371 -0.0673466 0.04512522 0.057629276 -0.10236073 0.06594654
0.05534315 0.06163002 -0.022508504 -0.017875325 -0.088767886 0.07103782 -0.13695225 0.12504709
0.044506133 0.031163586 0.051196735 0.012922466 0.010753308 -0.085909806 -0.077014804 0.079362534
-0.13625185 -0.07373891 0.060132347 0.08748955 0.113070354 0.064038545 0.074614845 -0.009428905
0.014317719 0.007893133 -0.10899079 0.086560726 -0.107662596 -0.07217576 0.090310164 4.7380938e-05
0.056495972 -0.010534444 -0.048549782 -0.1139423 -0.050631117 -0.0034371763 0.019252783 0.10992762
0.011869836 -0.05318723 0.026805097 0.1282466 -0.077318996 -0.13442497 0.011315139 -0.07337321
-0.04349685 -0.048861343 -0.12213758 -0.09163602 0.12341419 -0.08128683 0.11113062 0.104971014
-0.0058485037 -0.029459562 -0.12543309 0.11682379 0.015624394 -0.12645896 0.050546523 0.08035345
0.051970903 -0.07340785 -0.0074791033 0.069932364 0.00077421666 0.008497293 -0.06882356 0.008408108
-0.077687666 0.12355812 -0.038792294 -0.009243924 -0.09865884 -0.037231937 -0.103289135 0.063719474
-0.05937724 -0.097718745 -0.004992268 0.07036384 0.081897646 -0.12743299 -0.1106515 0.089866914
00000000: e349 91bc 8be7 bbbb f6d8 3b3c 08ab dcbc
00000010: 2e90 2d3d 29c5 293d eeff 04bd 458f 94bd
00000020: 060d 5cbd 26fc dc3d 3784 ccbd aaac 063e
00000030: ac7a f03d e1c3 82bd 4aa4 09bd 4734 043e
00000040: bf34 ffbd 0994 c4ba 8d8d b63c 3186 b3bd
00000050: 9215 703d 7e87 3cbd 2dce 0fbc 801c 57bd
00000060: 5a82 77bd 3b19 e0bd ddc7 ed3c 142f b4bd
00000070: 5c98 cf3d 0bb1 83bd 1b06 a23d bc49 98bd
00000080: 5d0f 883d d60c ea3d 8a85 87bd 1d24 d43d
00000090: 6fc1 03be d95a df3d e617 90bd b95b 983d
000000a0: 5066 e1bd 913b dabc 02e8 0a3e 8309 b8bd
000000b0: 5d02 b73d ac3f 12ba 7afc 92bd 3d26 eabd
000000c0: d584 b33d 946f c73d b3e0 58bd 3355 f5bc
000000d0: ef24 4c3d a8a4 78bd 1d72 e5bb f4c1 ce3d
000000e0: f920 3a3d c98d 4b3d 641c 3cbd edcc ebbd
000000f0: 8e44 0c3e 13fb cb3d 8405 ae3b 370f 9abb
00000100: fe5e c23d b7f1 a03b 8c3f b5bd eab8 f33d
00000110: 8a30 ecbd 7678 733d b6c5 fd3c e53f 033b
00000120: 0d01 983c 1f7a 84bc 6569 a03d 7e72 da3d
00000130: 9555 bdbd 3f29 f23d 0b48 66bb 642c 04bd
00000140: a246 9abd eb0f cc3d 0c71 a0bc d897 eabd
00000150: ddd0 d3bd 4d9f 6bbd ac2a b23d 4e2e 93bd
00000160: f57c 053e 15d0 843d 110e 00be 5b71 b93d
00000170: 3e80 b83d 8d3e 0b3e 6ffd 6d3d 8d88 d23d
00000180: 3737 24bc 910d cb3a cf59 a6bc 88dd d23d
00000190: 478c 59bd ee1e 60bc 7d49 ae3d 7b28 1e3d
000001a0: ebfb 373d 8bff 733d 3fb9 b23c 777b cabd
000001b0: 3579 5d3d d476 b23c a866 0cbe 92c8 7b3c
000001c0: 22b9 393d 292d f6bb 60cd 393d 03e4 05be
000001d0: 4e34 6f3c 95a3 013e 7185 043e e879 f7bd
000001e0: 343d 05bb 4374 7ebd 52a7 163d 87d6 e93d
000001f0: 1933 fc3d e053 973d e685 403d 053a d03b
00000200: adce bebd 3d44 ec3d 3b89 a63d e2d6 bf3b
00000210: 46b6 8fbd ac84 b53d 78d4 ef3d d85a fb3d
00000220: d47c 91bc 170e adbd f12c f23d db87 cbbd
00000230: d590 c13d 76ff 993d 114e be3c 567c b1bd
00000240: d4a2 ebbc f203 d43d 496c df3d 906a 0cbd
00000250: 25e4 88bc 1fbd fa3c b1f6 283d 604c a73d
00000260: 9e6b 073e ca7d cc3d aa48 a33d 59f0 a7bc
00000270: a843 0ebd 4e74 8c3d 9cf9 cc3c 6730 25bd
00000280: 248c d43d 5890 8f3d 0b1e e5bd 04ed 89bd
00000290: 39d5 383d ad0c 6c3d 81a2 d1bd fb0e 873d
000002a0: 80af 623d c36f 7c3d c163 b8bc 466f 92bc
000002b0: f0cb b5bd 477c 913d 363d 0cbe 580c 003e
000002c0: 104c 363d c74a ff3c abb3 513d c0b8 533c
000002d0: a52e 303c 7bf1 afbd f0b9 9dbd d388 a23d
000002e0: 9b85 0bbe 6d04 97bd 564d 763d b92d b33d
000002f0: 6e91 e73d a426 833d abcf 983d b27b 1abc
00000300: de94 6a3c 3352 013c 9036 dfbd c046 b13d
00000310: 357e dcbd e3d0 93bd 89f4 b83d e5ba 4638
00000320: 5268 673d a998 2cbc 23dc 46bd 955a e9bd
00000330: 9362 4fbd 4042 61bb 03b8 9d3c bb21 e13d
00000340: b379 423c dada 59bd 5d96 db3c 1453 033e
00000350: 6c59 9ebd b3a6 09be 2263 393c b244 96bd
00000360: c129 32bd d522 48bd 4423 fabd aaab bbbd
00000370: 94c0 fc3d b679 a6bd 7398 e33d 0bfb d63d
00000380: cea4 bfbb 2e55 f1bc 8871 00be 5041 ef3d
00000390: 75fd 7f3c 757e 01be df09 4f3d 5990 a43d
000003a0: 71df 543d db56 96bd 4413 f5bb b338 8f3d
000003b0: cdf4 4a3a 3b38 0b3c 5ef3 8cbd 29c2 093c
000003c0: b61a 9fbd 0a0c fd3d abe4 1ebd d473 17bc
000003d0: a50d cabd 8480 18bd 4189 d3bd 5b7f 823d
000003e0: 8c35 73bd c420 c8bd 2e96 a3bb eb1a 903d
000003f0: f4b9 a73d cb7d 02be 419d e2bd 250c b83d

convolution_layers.0.bias f4 [64]
-0.011681677 -0.037946053 0.0 0.059004605 0.062700234 0.0 -0.02952813 0.05722389
0.105590284 0.07724858 0.06814203 0.0 0.06568489 0.0 -0.012591769 0.057528988
0.06887309 -0.017601682 0.055120323 0.0 0.06313997 0.064615965 0.0 0.0
0.12041027 0.10528622 0.0 -0.048172627 0.054190855 0.1255684 -0.044273846 0.076584265
0.0 -0.00959158 0.06341508 0.05958875 0.062285483 0.06335191 0.07940374 0.057516765
0.0 0.041356277 0.0 -0.07436721 -0.003016787 0.0 0.08347816 -0.08180226
0.01204864 0.050761282 0.04930915 0.0 -0.0070138047 0.044517487 0.072169945 0.07374612
0.0 -0.0056952103 0.052201513 0.063194245 -0.0267585 0.057724215 -0.047126953 -0.0032594495
00000000: 8164 3fbc 526d 1bbd 0000 0000 d0ae 713d
00000010: fb68 803d 0000 0000 fae4 f1bc 9963 6a3d
00000020: b83f d83d 8134 9e3d 0c8e 8b3d 0000 0000
00000030: cd85 863d 0000 0000 b54d 4ebc 84a3 6b3d
00000040: 560d 8d3d 6731 90bc d9c5 613d 0000 0000
00000050: 874f 813d 6055 843d 0000 0000 0000 0000
00000060: a999 f63d 4da0 d73d 0000 0000 a950 45bd
00000070: 3bf7 5d3d 0195 003e 7e58 35bd 36d8 9c3d
00000080: 0000 0000 0126 1dbc c4df 813d 5513 743d
00000090: 101f 7f3d a5be 813d 6e9e a23d b396 6b3d
000000a0: 0000 0000 3365 293d 0000 0000 d64d 98bd
000000b0: 4ab5 45bb 0000 0000 99f6 aa3d f187 a7bd
000000c0: a967 453c 10eb 4f3d 64f8 493d 0000 0000
000000d0: 0fd4 e5bb f857 363d d6cd 933d 3508 973d
000000e0: 0000 0000 e39e babb 41d1 553d fc6b 813d
000000f0: a434 dbbc 3a70 6c3d 3108 41bd 7d9c 55bb

convolution_layers.1.weight f4 [64, 32]
0.1947784 -0.23363696 0.018325225 0.12382392 -0.10060847 -0.20526044 0.17112176 0.0441117
-0.2460621 0.14876045 -0.13902259 0.14328805 -0.006482959 -0.10108899 0.051465906 -0.15372819
0.13809007 -0.025989473 0.047769714 0.107538074 -0.008322649 0.21659875 0.020826055 0.07963812
-0.14863326 0.0071024876 0.12150085 -0.026385615 0.19531508 -0.10221777 -0.032697532 -0.17451912
0.16432673 -0.11416245 -0.070836104 0.2268913 0.21693978 -0.14434779 0.17264791 -0.06694821
0.09512154 -0.09430145 -0.13420206 0.09920622 0.25516438 -0.120028004 0.0002940331 -0.14886692
0.040027205 0.16203058 -0.06963378 0.21579716 -0.17592773 -0.104268566 0.14362651 -0.10628191
0.121009946 -0.16066074 -0.15407777 -0.19487882 -0.13293383 -0.1585607 -0.044613685 -0.14996378
0.15414777 -0.050696433 -0.043177634 -0.11841041 -0.13022736 0.14755046 0.07009706 -0.20599344
0.007950395 -0.14329219 0.17798838 -0.12871057 -0.12473315 0.19914529 0.14539078 -0.083197296
0.008829683 0.06534973 0.11334458 -0.13656837 0.11751413 -0.020694137 -0.19275752 0.2067818
-0.044893175 0.19706887 0.0034285784 -0.00025483966 0.1550504 -0.015281439 0.16470209 -0.17227417
-0.05756478 -0.08193081 -0.16976444 0.005176261 -0.25005892 -0.003988255 0.058562208 0.25633052
-0.107861266 0.18191339 -0.047136687 0.27254346 -0.044780347 0.10563322 -0.23105063 -0.21132796
0.22624044 -0.024157733 0.14115904 0.13769038 -0.14446905 0.19713426 -0.24214032 0.25280836
0.00439813 0.2015759 -0.031963646 -0.15566157 -0.24330966 0.074659064 -0.15678051 0.1169324
-0.083490066 -0.046879783 0.1635766 0.1148274 -0.11167705 -0.04650395 0.11333479 0.079067335
0.16079985 0.028458016 0.2963463 -0.0022546875 0.28012902 0.1501396 -0.2504354 -0.13275376
0.09670754 0.09366813 -0.017733395 0.13158244 0.06835906 0.20576163 -0.008860876 0.20373711
0.16498889 -0.10397974 -0.18792242 -0.13773823 0.123860836 0.25751948 0.1961439 0.00092027144
-0.16877282 0.23931065 0.0049443245 -0.16578543 0.11989254 0.08345869 -0.056657523 0.06336349
-0.16634256 -0.2019327 0.12991408 0.24510804 -0.14621904 0.029226243 0.005348325 0.030934095
0.07075739 -0.02284342 -0.053386927 0.06179139 0.14422601 -0.10444665 -0.10800552 -0.080863714
0.18117574 0.0358679 0.15111557 -0.035475135 0.123220235 -0.045371443 0.07919413 0.011817455
0.18250422 -0.22312216 0.13671978 -0.12877525 -0.010365078 0.21628658 -0.13239095 0.10653352
-0.047050793 0.17560934 -0.09658165 0.2572782 0.20806414 0.19063348 -0.24889825 0.2187412
-0.20080137 0.18185759 -0.13067019 0.072471395 0.20196064 -0.15685439 0.09376073 -0.14776146
0.041584183 -0.13907255 0.0009812117 -0.050486088 0.040358145 -0.009740369 0.09172943 -0.057526894
-0.17135395 -0.110390775 0.20273487 0.059454408 -0.06331935 0.030756319 0.21614666 0.2572046
0.050188813 0.2742526 0.2807675 0.24576393 0.16986772 -0.061279107 -0.017549587 0.058824103
-0.039675724 -0.16927886 -0.041241005 0.21840477 -0.13708256 -0.025111048 -0.090624504 0.11019781
0.06616147 -0.2325027 0.19245413 0.11902804 0.024165958 -0.10530062 0.07976087 0.18472359
00000000: fd73 473e 873e 6fbe c81e 963c 6597 fd3d
00000010: d00b cebd cb2f 52be 8b3a 2f3e 78ae 343d
00000020: b4f7 7bbe a954 183e f05b 0ebe 1aba 123e
00000030: 006f d4bb bf07 cfbd eacd 523d ec6a 1dbe
00000040: 7c67 0d3e e0e7 d4bc 2daa 433d ec3c dc3d
00000050: b85b 08bc 10cc 5d3e 679b aa3c 5019 a33d
00000060: 5133 18be fcbb e83b 70d5 f83d a526 d8bc
00000070: ad00 483e 8d57 d1bd d9ed 05bd 24b5 32be
00000080: 4445 283e 01ce e9bd 8512 91bd 3156 683e
00000090: 7625 5e3e e8cf 13be 9dca 303e 251c 89bd
000000a0: 15cf c23d 1e21 c1bd 446c 09be a12c cb3d
000000b0: e8a4 823e 3ed1 f5bd 7428 9a39 9270 18be
000000c0: 91f3 233d 58eb 253e 289c 8ebd eef9 5c3e
000000d0: 6626 34be c28a d5bd d412 133e 54aa d9bd
000000e0: 10d4 f73d 4084 24be 90c6 1dbe 508e 47be
000000f0: ce1f 08be bc5d 22be d7bc 36bd 1b90 19be
00000100: ead8 1d3e 10a7 4fbd 08db 30bd 2881 f2bd
00000110: 525a 05be 7817 173e 0c8f 8f3d f2ef 52be
00000120: 6042 023c 30bb 12be 9642 363e b4cc 03be
00000130: 1874 ffbd beec 4b3e 52e1 143e 5863 aabd
00000140: 60aa 103c 14d6 853d 3421 e83d 94d8 0bbe
00000150: 40ab f03d c086 a9bc 3a62 45be 9cbe 533e
00000160: e8e1 37bd 6ccc 493e 00b2 603b 009c 85b9
00000170: 88c5 1e3e 005f 7abc aaa7 283e a468 30be
00000180: 0cc9 6bbd 57cb a7bd bbd6 2dbe a09d a93b
00000190: b907 80be e8af 82bb edde 6f3d c13d 833e
000001a0: 5ee6 dcbd 8147 3a3e 6612 41bd d18a 8b3e
000001b0: 996b 37bd 3b56 d83d 8998 6cbe 5b66 58be
000001c0: 93ab 673e 70e6 c5bc ff8b 103e b5fe 0c3e
000001d0: b2ef 13be 90dd 493e a2f3 77be 1970 813e
000001e0: 301e 903b ea69 4e3e 50ec 02bd bf65 1fbe
000001f0: 2b26 79be dae6 983d 128b 20be 417a ef3d
00000200: d7fc aabd 0405 40bd a080 273e a12a eb3d
00000210: f0b6 e4bd ed7a 3ebd 121c e83d 0eee a13d
00000220: b7a8 243e c920 e93c b4ba 973e 61c3 13bb
00000230: 126d 8f3e 32be 193e 1239 80be 9af0 07be
00000240: 9a0e c63d 14d5 bf3d a045 91bc 8cbd 063e
00000250: d6ff 8b3d 2db3 523e 352d 11bc 76a0 503e
00000260: d9f2 283e 54f3 d4bd bc6e 40be 400b 0dbe
00000270: c0aa fd3d 98d9 833e f2d9 483e 5f3e 713a
00000280: c8d2 2cbe da0d 753e 0004 a23b a8c3 29be
00000290: 388a f53d 64ec aa3d b811 68bd b8c4 813d
000002a0: b455 2abe 72c7 4ebe 3208 053e 9afd 7a3e
000002b0: 72ba 15be e06b ef3c 0041 af3b 8069 fd3c
000002c0: 40e9 903d 2022 bbbc 40ac 5abd f818 7d3d
000002d0: fcaf 133e 20e8 d5bd 0032 ddbd e09b a5bd
000002e0: 2286 393e 38ea 123d 0abe 1a3e 604e 11bd
000002f0: e45a fc3d 68d7 39bd 8830 a23d 009e 413c
00000300: 63e2 3a3e 237a 64be 4500 0c3e a9dd 03be
00000310: 4ad2 29bc 3b7a 5d3e 7e91 07be 3f2e da3d
00000320: 55b8 40bd efd2 333e 9acc c5bd f8b9 833e
00000330: c40e 553e 6c35 433e 2fdf 7ebe b1fd 5f3e
00000340: e09e 4dbe e038 3a3e 68ce 05be e26b 943d
00000350: c5ce 4e3e 709e 20be a005 c03d c84e 17be
00000360: 2d54 2a3d 0969 0ebe 009c 803a 80ca 4ebd
00000370: 954e 253d 1296 1fbc a4dc bb3d 52a1 6bbd
00000380: 6977 2fbe 8f14 e2bd bb99 4f3e 7786 733d
00000390: 93ad 81bd adf4 fb3c 8d55 5d3e 52b0 833e
000003a0: c992 4d3d d66a 8c3e c2c0 8f3e 8aa9 7b3e
000003b0: cef1 2d3e cdff 7abd 27c4 8fbc 8bf1 703d
000003c0: 0383 22bd 7057 2dbe 54ec 28bd 80a5 5f3e
000003d0: 5f5f 0cbe afb5 cdbc 5799 b9bd 64af e13d
000003e0: aa7f 873d 3015 6ebe b212 453e f9c4 f33d
000003f0: b0f7 c53c daa7 d7bd ab59 a33d 2e28 3d3e

convolution_layers.1.bias f4 [32]
0.10046217 -0.0058563794 0.10420644 0.121338576 -0.021472584 -0.038313806 -0.011913732 0.09496897
-0.040850434 0.09392615 0.09820447 0.1104716 0.09255283 -0.06902965 -0.01995925 -0.015780851
0.097351015 0.0 0.09507758 0.10251448 -0.017375149 0.122346856 -0.029441273 0.12352965
-0.026769703 -0.035240967 0.0 -0.07035658 -0.021235285 0.11160753 0.11669372 0.09401763
00000000: 1cbf cd3d dfe6 bfbb 306a d53d 5c80 f83d
00000010: 46e7 afbc f0ee 1cbd d031 43bc 177f c23d
00000020: c952 27bd 5a5c c03d 6d1f c93d ef3e e23d
00000030: 578c bd3d 6b5f 8dbd 9581 a3bc d846 81bc
00000040: f85f c73d 0000 0000 09b8 c23d 1df3 d13d
00000050: 5456 8ebc fd90 fa3d d32e f1bc 1dfd fc3d
00000060: 234c dbbc d558 10bd 0000 0000 1c17 90bd
00000070: 9ff5 adbc 7d92 e43d 1efd ee3d 518c c03d

classify.weight f4 [1, 32]
0.11799289 -0.06648082 0.1538489 0.26855716 0.109433964 -0.24675728 -0.07600308 0.16408366
-0.20282818 0.216958 0.19402254 0.2303366 0.2271959 -0.15454438 -0.30884475 -0.0053508715
0.18683247 -0.1484307 0.16595371 0.10872161 -0.19361468 0.17680733 -0.029858226 0.23710065
-6.1087376e-05 -0.072778784 -0.036865868 -0.20621367 -0.18435572 0.22274649 0.07220506 0.2156391
00000000: 42a6 f13d 1927 88bd 918a 1d3e 5380 893e
00000010: ea1e e03d f1ad 7cbe 81a7 9bbd 8c05 283e
00000020: 31b2 4fbe 3d2a 5e3e d8ad 463e 5cdd 6b3e
00000030: 0ba6 683e e240 1ebe e620 9ebe 5d56 afbb
00000040: 0351 3f3e 38fe 17be c5ef 293e 6fa9 de3d
00000050: ed42 46be fb0c 353e 3d99 f4bc 83ca 723e
00000060: 091c 80b8 0b0d 95bd aa00 17bd ad29 53be
00000070: bfc7 3cbe a817 643e 3fe0 933d 7fd0 5c3e
