checkpoints/epoch_09_val_loss_5.6155.pt (torch, 76530 bytes, 5 tensors)

convolution_layers.0.weight f4 [253, 64]
000000 e3 49 91 bc 8b e7 bb bb f6 d8 3b 3c 08 ab dc bc
       -0.017735427 -0.005734389 0.011465302 -0.026937023
000010 2e 90 2d 3d 29 c5 29 3d ee ff 04 bd 45 8f 94 bd
       0.04237383 0.041447792 -0.032470636 -0.07253889
000020 06 0d 5c bd 26 fc dc 3d 37 84 cc bd aa ac 06 3e
       -0.053723358 0.10790281 -0.099861555 0.13151804
000030 ac 7a f0 3d e1 c3 82 bd 4a a4 09 bd 47 34 04 3e
       0.11742148 -0.06385017 -0.033603944 0.12910567
000040 bf 34 ff bd 09 94 c4 ba 8d 8d b6 3c 31 86 b3 bd
       -0.124612324 -0.0014997731 0.022284294 -0.08765829
000050 92 15 70 3d 7e 87 3c bd 2d ce 0f bc 80 1c 57 bd
       0.05861432 -0.046027653 -0.0087771835 -0.052517414
000060 5a 82 77 bd 3b 19 e0 bd dd c7 ed 3c 14 2f b4 bd
       -0.060427047 -0.10942312 0.029025966 -0.08798042
000070 5c 98 cf 3d 0b b1 83 bd 1b 06 a2 3d bc 49 98 bd
       0.10136482 -0.06430253 0.07911321 -0.07435939
000080 5d 0f 88 3d d6 0c ea 3d 8a 85 87 bd 1d 24 d4 3d
       0.06643555 0.114282295 -0.066172674 0.103584506
000090 6f c1 03 be d9 5a df 3d e6 17 90 bd b9 5b 98 3d
       -0.12866758 0.10906 -0.07035808 0.0743937
0000a0 50 66 e1 bd 91 3b da bc 02 e8 0a 3e 83 09 b8 bd
       -0.11005843 -0.026639732 0.13565066 -0.08986189
0000b0 5d 02 b7 3d ac 3f 12 ba 7a fc 92 bd 3d 26 ea bd
       0.08935998 -0.0005578946 -0.07177062 -0.114330746
0000c0 d5 84 b3 3d 94 6f c7 3d b3 e0 58 bd 33 55 f5 bc
       0.0876557 0.09738079 -0.052948665 -0.029947853
0000d0 ef 24 4c 3d a8 a4 78 bd 1d 72 e5 bb f4 c1 ce 3d
       0.04983991 -0.060703903 -0.0070021288 0.100955874
0000e0 f9 20 3a 3d c9 8d 4b 3d 64 1c 3c bd ed cc eb bd
       0.0454416 0.049695764 -0.045925513 -0.11513696
0000f0 8e 44 0c 3e 13 fb cb 3d 84 05 ae 3b 37 0f 9a bb
       0.13698027 0.09959998 0.005310716 -0.004701521
000100 fe 5e c2 3d b7 f1 a0 3b 8c 3f b5 bd ea b8 f3 3d
       0.094907746 0.004911627 -0.08850011 0.11900504
000110 8a 30 ec bd 76 78 73 3d b6 c5 fd 3c e5 3f 03 3b
       -0.115326956 0.059441052 0.030978065 0.0020027098
000120 0d 01 98 3c 1f 7a 84 bc 65 69 a0 3d 7e 72 da 3d
       0.018555189 -0.016171513 0.078326024 0.10666369
000130 95 55 bd bd 3f 29 f2 3d 0b 48 66 bb 64 2c 04 bd
       -0.09244839 0.11824273 -0.0035138156 -0.032268897
000140 a2 46 9a bd eb 0f cc 3d 0c 71 a0 bc d8 97 ea bd
       -0.075330034 0.099639736 -0.019585155 -0.11454743
000150 dd d0 d3 bd 4d 9f 6b bd ac 2a b2 3d 4e 2e 93 bd
       -0.10342572 -0.057524968 0.08699545 -0.07186566
000160 f5 7c 05 3e 15 d0 84 3d 11 0e 00 be 5b 71 b9 3d
       0.13035949 0.06485001 -0.12505366 0.09054824
000170 3e 80 b8 3d 8d 3e 0b 3e 6f fd 6d 3d 8d 88 d2 3d
       0.09008835 0.1359808 0.05810302 0.10279951
000180 37 37 24 bc 91 0d cb 3a cf 59 a6 bc 88 dd d2 3d
       -0.01002293 0.0015491714 -0.020306496 0.1029616
000190 47 8c 59 bd ee 1e 60 bc 7d 49 ae 3d 7b 28 1e 3d
       -0.053112295 -0.013679249 0.085101105 0.038612824
0001a0 eb fb 37 3d 8b ff 73 3d 3f b9 b2 3c 77 7b ca bd
       0.044917982 0.059569877 0.021816848 -0.0988683
0001b0 35 79 5d 3d d4 76 b2 3c a8 66 0c be 92 c8 7b 3c
       0.05407067 0.021785177 -0.13711035 0.015367644
0001c0 22 b9 39 3d 29 2d f6 bb 60 cd 39 3d 03 e4 05 be
       0.045342572 -0.0075127077 0.045361876 -0.13075261
0001d0 4e 34 6f 3c 95 a3 01 3e 71 85 04 3e e8 79 f7 bd
       0.014599873 0.12660058 0.12941529 -0.12083799
0001e0 34 3d 05 bb 43 74 7e bd 52 a7 16 3d 87 d6 e9 3d
       -0.002033067 -0.062122595 0.036780663 0.11417871
0001f0 19 33 fc 3d e0 53 97 3d e6 85 40 3d 05 3a d0 3b
       0.123144336 0.07389045 0.047002696 0.0063545727
000200 ad ce be bd 3d 44 ec 3d 3b 89 a6 3d e2 d6 bf 3b
       -0.09316764 0.11536453 0.081316434 0.0058544734
000210 46 b6 8f bd ac 84 b5 3d 78 d4 ef 3d d8 5a fb 3d
       -0.07017188 0.08863196 0.11710447 0.122731864
000220 d4 7c 91 bc 17 0e ad bd f1 2c f2 3d db 87 cb bd
       -0.017759718 -0.08449953 0.11824978 -0.09938022
000230 d5 90 c1 3d 76 ff 99 3d 11 4e be 3c 56 7c b1 bd
       0.09451453 0.075194284 0.023230584 -0.08666293
000240 d4 a2 eb bc f2 03 d4 3d 49 6c df 3d 90 6a 0c bd
       -0.028764166 0.10352315 0.10909326 -0.034281313
000250 25 e4 88 bc 1f bd fa 3c b1 f6 28 3d 60 4c a7 3d
       -0.01671035 0.030607758 0.04125089 0.08168864
000260 9e 6b 07 3e ca 7d cc 3d aa 48 a3 3d 59 f0 a7 bc
       0.13224646 0.0998493 0.07972844 -0.020500349
000270 a8 43 0e bd 4e 74 8c 3d 9c f9 cc 3c 67 30 25 bd
       -0.03473249 0.06858121 0.025021367 -0.040329363
000280 24 8c d4 3d 58 90 8f 3d 0b 1e e5 bd 04 ed 89 bd
       0.10378292 0.07009953 -0.11187371 -0.0673466
000290 39 d5 38 3d ad 0c 6c 3d 81 a2 d1 bd fb 0e 87 3d
       0.04512522 0.057629276 -0.10236073 0.06594654
0002a0 80 af 62 3d c3 6f 7c 3d c1 63 b8 bc 46 6f 92 bc
       0.05534315 0.06163002 -0.022508504 -0.017875325
0002b0 f0 cb b5 bd 47 7c 91 3d 36 3d 0c be 58 0c 00 3e
       -0.088767886 0.07103782 -0.13695225 0.12504709
0002c0 10 4c 36 3d c7 4a ff 3c ab b3 51 3d c0 b8 53 3c
       0.044506133 0.031163586 0.051196735 0.012922466
0002d0 a5 2e 30 3c 7b f1 af bd f0 b9 9d bd d3 88 a2 3d
       0.010753308 -0.085909806 -0.077014804 0.079362534
0002e0 9b 85 0b be 6d 04 97 bd 56 4d 76 3d b9 2d b3 3d
       -0.13625185 -0.07373891 0.060132347 0.08748955
0002f0 6e 91 e7 3d a4 26 83 3d ab cf 98 3d b2 7b 1a bc
       0.113070354 0.064038545 0.074614845 -0.009428905
000300 de 94 6a 3c 33 52 01 3c 90 36 df bd c0 46 b1 3d
       0.014317719 0.007893133 -0.10899079 0.086560726
000310 35 7e dc bd e3 d0 93 bd 89 f4 b8 3d e5 ba 46 38
       -0.107662596 -0.07217576 0.090310164 4.7380938e-05
000320 52 68 67 3d a9 98 2c bc 23 dc 46 bd 95 5a e9 bd
       0.056495972 -0.010534444 -0.048549782 -0.1139423
000330 93 62 4f bd 40 42 61 bb 03 b8 9d 3c bb 21 e1 3d
       -0.050631117 -0.0034371763 0.019252783 0.10992762
000340 b3 79 42 3c da da 59 bd 5d 96 db 3c 14 53 03 3e
       0.011869836 -0.05318723 0.026805097 0.1282466
000350 6c 59 9e bd b3 a6 09 be 22 63 39 3c b2 44 96 bd
       -0.077318996 -0.13442497 0.011315139 -0.07337321
000360 c1 29 32 bd d5 22 48 bd 44 23 fa bd aa ab bb bd
       -0.04349685 -0.048861343 -0.12213758 -0.09163602
000370 94 c0 fc 3d b6 79 a6 bd 73 98 e3 3d 0b fb d6 3d
       0.12341419 -0.08128683 0.11113062 0.104971014
000380 ce a4 bf bb 2e 55 f1 bc 88 71 00 be 50 41 ef 3d
       -0.0058485037 -0.029459562 -0.12543309 0.11682379
000390 75 fd 7f 3c 75 7e 01 be df 09 4f 3d 59 90 a4 3d
       0.015624394 -0.12645896 0.050546523 0.08035345
0003a0 71 df 54 3d db 56 96 bd 44 13 f5 bb b3 38 8f 3d
       0.051970903 -0.07340785 -0.0074791033 0.069932364
0003b0 cd f4 4a 3a 3b 38 0b 3c 5e f3 8c bd 29 c2 09 3c
       0.00077421666 0.008497293 -0.06882356 0.008408108
0003c0 b6 1a 9f bd 0a 0c fd 3d ab e4 1e bd d4 73 17 bc
       -0.077687666 0.12355812 -0.038792294 -0.009243924
0003d0 a5 0d ca bd 84 80 18 bd 41 89 d3 bd 5b 7f 82 3d
       -0.09865884 -0.037231937 -0.103289135 0.063719474
0003e0 8c 35 73 bd c4 20 c8 bd 2e 96 a3 bb eb 1a 90 3d
       -0.05937724 -0.097718745 -0.004992268 0.07036384
0003f0 f4 b9 a7 3d cb 7d 02 be 41 9d e2 bd 25 0c b8 3d
       0.081897646 -0.12743299 -0.1106515 0.089866914

convolution_layers.0.bias f4 [64]
000000 3a 5d 9a bc 98 2b 2e bd 00 00 00 00 80 62 67 3d
       -0.018843282 -0.042522043 0.0 0.05649042
000010 7a 10 68 3d 00 00 00 00 38 a2 e7 bc 02 a2 66 3d
       0.05665634 0.0 -0.028275594 0.056306846
000020 62 8c b5 3d 99 98 90 3d b1 40 75 3d 00 00 00 00
       0.088646665 0.07060356 0.059876148 0.0
000030 a3 1e 7d 3d 00 00 00 00 b5 4d 4e bc dd bb 46 3d
       0.061796796 0.0 -0.012591769 0.048519004
000040 b5 98 83 3d 67 31 90 bc 42 9c 41 3d 00 00 00 00
       0.06425611 -0.017601682 0.04726816 0.0
000050 a2 c4 69 3d 3d 2e 7b 3d 00 00 00 00 00 00 00 00
       0.05707229 0.061323393 0.0 0.0
000060 05 62 ce 3d aa 06 b9 3d 00 00 00 00 a3 0a 43 bd
       0.100772895 0.09034474 0.0 -0.047617566
000070 64 1f 34 3d 60 79 cd 3d e3 75 32 bd 2a a2 8b 3d
       0.04397525 0.10032916 -0.043569457 0.0681804
000080 00 00 00 00 8b 80 1c bc f9 07 6b 3d 02 cd 67 3d
       0.0 -0.009552131 0.05738065 0.056591995
000090 b2 bc 63 3d 85 c2 70 3d 3d 9d 92 3d 88 46 65 3d
       0.055599876 0.05877926 0.07158897 0.055975467
0000a0 00 00 00 00 91 58 0b 3d 00 00 00 00 81 bf 90 bd
       0.0 0.03402001 0.0 -0.070677765
0000b0 9a 30 b5 bc 00 00 00 00 24 07 93 3d a5 02 8f bd
       -0.022117902 0.0 0.07179096 -0.06982926
0000c0 82 c0 0f bb 48 74 4a 3d 5c 21 43 3d 00 00 00 00
       -0.0021934812 0.0494273 0.047639236 0.0
0000d0 0f d4 e5 bb d2 0b 10 3d 2c c5 84 3d b8 46 87 3d
       -0.0070138047 0.035167523 0.0648292 0.066052854
0000e0 00 00 00 00 d8 1a 31 bc 46 33 46 3d db 82 75 3d
       0.0 -0.010809623 0.048388742 0.059939247
0000f0 a4 34 db bc a0 c6 65 3d 72 94 34 bd f1 4d 95 bc
       -0.0267585 0.056097627 -0.04408688 -0.018225642

convolution_layers.1.weight f4 [64, 32]
000000 fe 63 38 3e 87 3e 6f be f3 60 45 bb 95 e4 b3 3d
       0.18006894 -0.23363696 -0.00301176 0.08783833
000010 d0 0b ce bd d7 08 41 be 8b 3a 2f 3e 8c ac 02 3d
       -0.10060847 -0.18851028 0.17112176 0.031902835
000020 42 20 69 be 2e 1f 0c 3e 89 38 1c be b0 a9 f7 3d
       -0.22766212 0.13683769 -0.15255941 0.12092912
000030 ff e3 91 bc c3 f0 d5 bd ea ee 71 3d ec 6a 1d be
       -0.017808912 -0.10446312 0.059065737 -0.15372819
000040 ae 11 00 3e e0 e7 d4 bc ce 7b 11 3d 57 22 bc 3d
       0.12506744 -0.025989473 0.03551846 0.09186237
000050 e3 1e 46 ba 5d 2d 3d 3e 79 6a aa 3c 3c 53 37 3d
       -0.0007557703 0.18474336 0.020802723 0.044757113
000060 51 33 18 be e2 49 0c 3c 70 d5 f8 3d c5 d7 de bc
       -0.14863326 0.008562537 0.12150085 -0.027202496
000070 52 bf 31 3e f1 a0 05 be 16 9e 65 bd 34 f8 3e be
       0.17358139 -0.13049676 -0.056058966 -0.1864937
000080 50 b5 25 3e 01 ce e9 bd 30 d5 96 bd d6 f8 62 3e
       0.16182446 -0.11416245 -0.07364881 0.22165236
000090 76 25 5e 3e 25 8b 0d be 9d ca 30 3e a3 8d 8d bd
       0.21693978 -0.1382261 0.17264791 -0.06911781
0000a0 c3 8f cb 3d 3b 92 c5 bd 04 ea 0b be e7 69 c4 3d
       0.0993953 -0.09647032 -0.13663489 0.09590512
0000b0 aa 94 81 3e 1b 08 f5 bd 37 fb 6d 3c 92 70 18 be
       0.25308734 -0.119644366 0.014525226 -0.14886692
0000c0 36 da 19 3d 58 eb 25 3e ec 10 93 bd ca 55 5a 3e
       0.037561618 0.16203058 -0.07180962 0.21321788
0000d0 76 9c 2f be 80 c0 dd bd c0 12 13 3e d6 4a e3 bd
       -0.17149529 -0.10827732 0.14362621 -0.11098258
0000e0 d6 d3 f7 3d 69 39 23 be 90 c6 1d be 70 8d 46 be
       0.121009514 -0.15939869 -0.15407777 -0.19389892
0000f0 1d 66 06 be 4e a5 25 be 57 c7 43 bd 9f c9 1b be
       -0.1312489 -0.1617634 -0.047797527 -0.15213631
000100 ea d8 1d 3e 10 a7 4f bd 08 db 30 bd 28 81 f2 bd
       0.15414777 -0.050696433 -0.043177634 -0.11841041
000110 52 5a 05 be 78 17 17 3e 0c 8f 8f 3d f2 ef 52 be
       -0.13022736 0.14755046 0.07009706 -0.20599344
000120 60 42 02 3c 30 bb 12 be 96 42 36 3e b4 cc 03 be
       0.007950395 -0.14329219 0.17798838 -0.12871057
000130 18 74 ff bd be ec 4b 3e 52 e1 14 3e 58 63 aa bd
       -0.12473315 0.19914529 0.14539078 -0.083197296
000140 60 aa 10 3c 14 d6 85 3d 34 21 e8 3d 94 d8 0b be
       0.008829683 0.06534973 0.11334458 -0.13656837
000150 40 ab f0 3d c0 86 a9 bc 3a 62 45 be 9c be 53 3e
       0.11751413 -0.020694137 -0.19275752 0.2067818
000160 e8 e1 37 bd 6c cc 49 3e 00 b2 60 3b 00 9c 85 b9
       -0.044893175 0.19706887 0.0034285784 -0.00025483966
000170 88 c5 1e 3e 00 5f 7a bc aa a7 28 3e a4 68 30 be
       0.1550504 -0.015281439 0.16470209 -0.17227417
000180 58 ba 72 bd 57 cb a7 bd 39 cf 2f be eb f1 51 ba
       -0.059259742 -0.08193081 -0.17168893 -0.0008008766
000190 83 4a 7f be e5 7e fd bb c6 dc 6f 3d f9 6d 82 3e
       -0.24930768 -0.0077360743 0.058560155 0.25474527
0001a0 1a 2a ea bd fd 98 38 3e e9 e2 47 bd 45 5e 8a 3e
       -0.114338115 0.1802711 -0.048800383 0.27025047
0001b0 19 f3 3d bd 99 f0 d2 3d fc 18 6f be 5b 66 58 be
       -0.046374414 0.102997966 -0.23349375 -0.21132796
0001c0 dc ed 65 3e 70 e6 c5 bc f8 eb 0e 3e 18 48 0b 3e
       0.22454017 -0.024157733 0.13957202 0.1360172
0001d0 7e 57 0f be f3 1f 47 3e c0 f4 77 be 84 65 7e 3e
       -0.1399822 0.19445781 -0.24214458 0.24843413
0001e0 c8 0d 90 3b 84 a3 4d 3e 50 ec 02 bd 8d 4e 21 be
       0.004396174 0.20081908 -0.031963646 -0.15752621
0001f0 3f e4 78 be cc 00 94 3d 71 43 22 be a4 25 ec 3d
       -0.24305819 0.072267145 -0.1584604 0.11530617
000200 73 f1 b0 bd 04 05 40 bd ab 42 24 3e 36 23 dd 3d
       -0.08639803 -0.046879783 0.16041057 0.107977316
000210 f0 b6 e4 bd f3 fe 3e bd 1d 1c e8 3d eb 61 9c 3d
       -0.11167705 -0.046629857 0.11333487 0.07635864
000220 72 32 22 3e 56 79 d2 3c 08 47 96 3e 50 1f ba bb
       0.15839556 0.025692623 0.29351068 -0.0056800023
000230 a6 0b 8e 3e 55 2c 18 3e c2 c6 7d be 9a f0 07 be
       0.27743262 0.14860661 -0.24782851 -0.13275376
000240 ba 1f c0 3d 14 d5 bf 3d 14 7e a7 bc 3d c6 03 3e
       0.09381051 0.09366813 -0.02044586 0.1286859
000250 ca 74 98 3d 2e b6 4e 3e 0b 43 11 bc fd 0a 4b 3e
       0.07444151 0.20186684 -0.008866082 0.1982841
000260 53 f2 28 3e 16 7f d3 bd bc 6e 40 be c7 83 0d be
       0.1649869 -0.10326974 -0.18792242 -0.138198
000270 35 95 ff 3d 17 0f 82 3e d7 c6 45 3e ed ff f0 ba
       0.12479631 0.25402138 0.19314133 -0.0018386819
000280 c8 d2 2c be da 0d 75 3e 00 04 a2 3b a8 c3 29 be
       -0.16877282 0.23931065 0.0049443245 -0.16578543
000290 38 8a f5 3d 64 ec aa 3d b8 11 68 bd b8 c4 81 3d
       0.11989254 0.08345869 -0.056657523 0.06336349
0002a0 b4 55 2a be 72 c7 4e be 32 08 05 3e 9a fd 7a 3e
       -0.16634256 -0.2019327 0.12991408 0.24510804
0002b0 72 ba 15 be e0 6b ef 3c 00 41 af 3b 80 69 fd 3c
       -0.14621904 0.029226243 0.005348325 0.030934095
0002c0 40 e9 90 3d 20 22 bb bc 40 ac 5a bd f8 18 7d 3d
       0.07075739 -0.02284342 -0.053386927 0.06179139
0002d0 fc af 13 3e 20 e8 d5 bd 00 32 dd bd e0 9b a5 bd
       0.14422601 -0.10444665 -0.10800552 -0.080863714
0002e0 22 86 39 3e 38 ea 12 3d 0a be 1a 3e 60 4e 11 bd
       0.18117574 0.0358679 0.15111557 -0.035475135
0002f0 e4 5a fc 3d 68 d7 39 bd 88 30 a2 3d 00 9e 41 3c
       0.123220235 -0.045371443 0.07919413 0.011817455
000300 9a a7 39 3e 23 7a 64 be 43 9b 0a 3e cf fd 07 be
       0.18130341 -0.22312216 0.1353579 -0.13280414
000310 75 d2 29 bc e7 eb 5b 3e 7e 91 07 be 8c fd d7 3d
       -0.010365118 0.21476708 -0.13239095 0.10546407
000320 d7 5c 51 bd 43 b5 32 3e 56 44 c8 bd bd e3 82 3e
       -0.05111393 0.17451958 -0.09778659 0.25564376
000330 63 fb 53 3e 43 2b 42 3e 94 8f 7c be b1 fd 5f 3e
       0.20701365 0.18961816 -0.24664146 0.2187412
000340 c0 df 4e be e0 38 3a 3e 01 e7 06 be 0f f2 91 3d
       -0.20202541 0.18185759 -0.13174058 0.07126247
000350 d5 c6 52 3e a2 98 22 be d4 04 c0 3d 73 42 1a be
       0.20583661 -0.15878537 0.09375921 -0.15064411
000360 4b 53 2a 3d 5b 58 0e be 00 9c 80 3a e8 ba 51 bd
       0.04158334 -0.13900892 0.0009812117 -0.05120364
000370 84 d6 29 3d 82 98 3a bc 33 1e b9 3d 67 16 70 bd
       0.041464344 -0.0113889 0.09038963 -0.058615115
000380 33 9f 2c be 8f 14 e2 bd 50 4e 52 3e ac a2 68 3d
       -0.16857605 -0.110390775 0.20537686 0.05679576
000390 56 11 3b bd 36 40 83 3c 80 54 5d 3e eb fb 84 3e
       -0.04567083 0.01602183 0.21614265 0.25973448
0003a0 5b a4 02 3d 34 a9 8d 3e d9 1c 91 3e b3 a9 7d 3e
       0.031895023 0.27668154 0.28342322 0.24771766
0003b0 9a 68 30 3e 97 e8 89 bd 19 5c 13 bd 8b f1 70 3d
       0.17227402 -0.06733816 -0.035976503 0.058824103
0003c0 29 7b 17 bd 70 57 2d be 65 83 1e bd 09 9e 62 3e
       -0.03698269 -0.16927886 -0.038699526 0.22130598
0003d0 0a 8b 0f be fb 30 be bc b6 cc b9 bd 8d 86 e0 3d
       -0.14017883 -0.023216715 -0.09072249 0.109631635
0003e0 83 7e 87 3d 6b 34 73 be b2 12 45 3e 86 19 e7 3d
       0.06615927 -0.23750465 0.19245413 0.11284165
0003f0 e9 a0 a3 3c 95 27 d4 bd 49 51 aa 3d 26 ba 3f 3e
       0.019974189 -0.10359112 0.08316285 0.18723354

convolution_layers.1.bias f4 [32]
000000 50 a1 b8 3d df e6 bf bb f0 31 be 3d 31 74 d6 3d
       0.09015143 -0.0058563794 0.092868686 0.104713805
000010 b3 d1 af bc 72 2b b9 bc ed 3a 43 bc 78 2a af 3d
       -0.021462297 -0.022603724 -0.0119159045 0.08553022
000020 4f 78 b1 bc e5 b2 ac 3d 5d 46 b5 3d 90 3a ca 3d
       -0.021663813 0.08432559 0.08851311 0.09874451
000030 4d a0 aa 3d 61 58 87 bd 3a 96 65 bb d8 46 81 bc
       0.08331356 -0.06608654 -0.003503217 -0.015780851
000040 e9 2d b3 3d 00 00 00 00 d5 5e af 3d de bb bc 3d
       0.08748991 0.0 0.0856301 0.0921552
000050 23 2e 85 bc ef e9 de 3d 0b f0 f3 bc 2a 68 da 3d
       -0.016257351 0.10884463 -0.029777547 0.10664399
000060 92 4e db bc b3 4d f4 bc 00 00 00 00 1d a9 82 bd
       -0.026770864 -0.029822206 0.0 -0.06379912
000070 f5 00 b1 bc 95 b1 cb 3d 97 c9 d7 3d 5c 1f ad 3d
       -0.021606902 0.099459805 0.10536497 0.08453247

classify.weight f4 [1, 32]
000000 76 ba e6 3d 19 27 88 bd a9 c7 11 3e 2b f8 76 3e
       0.11266033 -0.06648082 0.1423632 0.24118106
000010 25 b1 e1 3d 1a 98 2d be 6c a7 9b bd fb 02 25 3e
       0.11020116 -0.16952553 -0.076002926 0.16114418
000020 4e a7 04 be a1 b2 57 3e 93 de 42 3e af b0 5f 3e
       -0.12954447 0.21064235 0.19030218 0.21844743
000030 2f 6b 64 3e d5 ba 15 be fd 51 4f be 5d 56 af bb
       0.22306512 -0.14622052 -0.2024612 -0.0053508715
000040 b8 03 38 3e 38 fe 17 be 59 d6 27 3e b2 ea d4 3d
       0.17970169 -0.1484307 0.16390361 0.10396327
000050 1b be 29 be 02 19 25 3e 72 46 f4 bc 8e e4 59 3e
       -0.16576426 0.16122821 -0.029818747 0.21278593
000060 18 c1 47 b8 3e 07 6f bd aa 00 17 bd d0 7e 33 be
       -4.762513e-05 -0.058356516 -0.036865868 -0.17528844
000070 8d 52 33 be 5b 3c 58 3e 4f e5 89 3d 5c 9e 56 3e
       -0.1751196 0.21116774 0.0673319 0.20958847
