checkpoints/epoch_03_val_loss_5.8578.pt (torch, 76530 bytes, 5 tensors)

convolution_layers.0.weight f4 [253, 64]
-0.017735427 -0.005734389 0.011465302 -0.026937023 0.04237383 0.041447792 -0.032470636 -0.07253889
-0.053723358 0.10790281 -0.099861555 0.13151804 0.11742148 -0.06385017 -0.033603944 0.12910567
-0.124612324 -0.0014997731 0.022284294 -0.08765829 0.05861432 -0.046027653 -0.0087771835 -0.052517414
-0.060427047 -0.10942312 0.029025966 -0.08798042 0.10136482 -0.06430253 0.07911321 -0.07435939
0.06643555 0.114282295 -0.066172674 0.103584506 -0.12866758 0.10906 -0.07035808 0.0743937
-0.11005843 -0.026639732 0.13565066 -0.08986189 0.08935998 -0.0005578946 -0.07177062 -0.114330746
0.0876557 0.09738079 -0.052948665 -0.029947853 0.04983991 -0.060703903 -0.0070021288 0.100955874
0.0454416 0.049695764 -0.045925513 -0.11513696 0.13698027 0.09959998 0.005310716 -0.004701521
0.094907746 0.004911627 -0.08850011 0.11900504 -0.115326956 0.059441052 0.030978065 0.0020027098
0.018555189 -0.016171513 0.078326024 0.10666369 -0.09244839 0.11824273 -0.0035138156 -0.032268897
-0.075330034 0.099639736 -0.019585155 -0.11454743 -0.10342572 -0.057524968 0.08699545 -0.07186566
0.13035949 0.06485001 -0.12505366 0.09054824 0.09008835 0.1359808 0.05810302 0.10279951
-0.01002293 0.0015491714 -0.020306496 0.1029616 -0.053112295 -0.013679249 0.085101105 0.038612824
0.044917982 0.059569877 0.021816848 -0.0988683 0.05407067 0.021785177 -0.13711035 0.015367644
0.045342572 -0.0075127077 0.045361876 -0.13075261 0.014599873 0.12660058 0.12941529 -0.12083799
-0.002033067 -0.062122595 0.036780663 0.11417871 0.123144336 0.07389045 0.047002696 0.0063545727
-0.09316764 0.11536453 0.081316434 0.0058544734 -0.07017188 0.08863196 0.11710447 0.122731864
-0.017759718 -0.08449953 0.11824978 -0.09938022 0.09451453 0.075194284 0.023230584 -0.08666293
-0.028764166 0.10352315 0.10909326 -0.034281313 -0.01671035 0.030607758 0.04125089 0.08168864
0.13224646 0.0998493 0.07972844 -0.020500349 -0.03473249 0.06858121 0.025021367 -0.040329363
0.10378292 0.07009953 -0.11187371 -0.0673466 0.04512522 0.057629276 -0.10236073 0.06594654
0.05534315 0.06163002 -0.022508504 -0.017875325 -0.088767886 0.07103782 -0.13695225 0.12504709
0.044506133 0.031163586 0.051196735 0.012922466 0.010753308 -0.085909806 -0.077014804 0.079362534
-0.13625185 -0.07373891 0.060132347 0.08748955 0.113070354 0.064038545 0.074614845 -0.009428905
0.014317719 0.007893133 -0.10899079 0.086560726 -0.107662596 -0.07217576 0.090310164 4.7380938e-05
0.056495972 -0.010534444 -0.048549782 -0.1139423 -0.050631117 -0.0034371763 0.019252783 0.10992762
0.011869836 -0.05318723 0.026805097 0.1282466 -0.077318996 -0.13442497 0.011315139 -0.07337321
-0.04349685 -0.048861343 -0.12213758 -0.09163602 0.12341419 -0.08128683 0.11113062 0.104971014
-0.0058485037 -0.029459562 -0.12543309 0.11682379 0.015624394 -0.12645896 0.050546523 0.08035345
0.051970903 -0.07340785 -0.0074791033 0.069932364 0.00077421666 0.008497293 -0.06882356 0.008408108
-0.077687666 0.12355812 -0.038792294 -0.009243924 -0.09865884 -0.037231937 -0.103289135 0.063719474
-0.05937724 -0.097718745 -0.004992268 0.07036384 0.081897646 -0.12743299 -0.1106515 0.089866914
00000000: e349 91bc 8be7 bbbb f6d8 3b3c 08ab dcbc
00000010: 2e90 2d3d 29c5 293d eeff 04bd 458f 94bd
00000020: 060d 5cbd 26fc dc3d 3784 ccbd aaac 063e
00000030: ac7a f03d e1c3 82bd 4aa4 09bd 4734 043e
00000040: bf34 ffbd 0994 c4ba 8d8d b63c 3186 b3bd
00000050: 9215 703d 7e87 3cbd 2dce 0fbc 801c 57bd
00000060: 5a82 77bd 3b19 e0bd ddc7 ed3c 142f b4bd
00000070: 5c98 cf3d 0bb1 83bd 1b06 a23d bc49 98bd
00000080: 5d0f 883d d60c ea3d 8a85 87bd 1d24 d43d
00000090: 6fc1 03be d95a df3d e617 90bd b95b 983d
000000a0: 5066 e1bd 913b dabc 02e8 0a3e 8309 b8bd
000000b0: 5d02 b73d ac3f 12ba 7afc 92bd 3d26 eabd
000000c0: d584 b33d 946f c73d b3e0 58bd 3355 f5bc
000000d0: ef24 4c3d a8a4 78bd 1d72 e5bb f4c1 ce3d
000000e0: f920 3a3d c98d 4b3d 641c 3cbd edcc ebbd
000000f0: 8e44 0c3e 13fb cb3d 8405 ae3b 370f 9abb
00000100: fe5e c23d b7f1 a03b 8c3f b5bd eab8 f33d
00000110: 8a30 ecbd 7678 733d b6c5 fd3c e53f 033b
00000120: 0d01 983c 1f7a 84bc 6569 a03d 7e72 da3d
00000130: 9555 bdbd 3f29 f23d 0b48 66bb 642c 04bd
00000140: a246 9abd eb0f cc3d 0c71 a0bc d897 eabd
00000150: ddd0 d3bd 4d9f 6bbd ac2a b23d 4e2e 93bd
00000160: f57c 053e 15d0 843d 110e 00be 5b71 b93d
00000170: 3e80 b83d 8d3e 0b3e 6ffd 6d3d 8d88 d23d
00000180: 3737 24bc 910d cb3a cf59 a6bc 88dd d23d
00000190: 478c 59bd ee1e 60bc 7d49 ae3d 7b28 1e3d
000001a0: ebfb 373d 8bff 733d 3fb9 b23c 777b cabd
000001b0: 3579 5d3d d476 b23c a866 0cbe 92c8 7b3c
000001c0: 22b9 393d 292d f6bb 60cd 393d 03e4 05be
000001d0: 4e34 6f3c 95a3 013e 7185 043e e879 f7bd
000001e0: 343d 05bb 4374 7ebd 52a7 163d 87d6 e93d
000001f0: 1933 fc3d e053 973d e685 403d 053a d03b
00000200: adce bebd 3d44 ec3d 3b89 a63d e2d6 bf3b
00000210: 46b6 8fbd ac84 b53d 78d4 ef3d d85a fb3d
00000220: d47c 91bc 170e adbd f12c f23d db87 cbbd
00000230: d590 c13d 76ff 993d 114e be3c 567c b1bd
00000240: d4a2 ebbc f203 d43d 496c df3d 906a 0cbd
00000250: 25e4 88bc 1fbd fa3c b1f6 283d 604c a73d
00000260: 9e6b 073e ca7d cc3d aa48 a33d 59f0 a7bc
00000270: a843 0ebd 4e74 8c3d 9cf9 cc3c 6730 25bd
00000280: 248c d43d 5890 8f3d 0b1e e5bd 04ed 89bd
00000290: 39d5 383d ad0c 6c3d 81a2 d1bd fb0e 873d
000002a0: 80af 623d c36f 7c3d c163 b8bc 466f 92bc
000002b0: f0cb b5bd 477c 913d 363d 0cbe 580c 003e
000002c0: 104c 363d c74a ff3c abb3 513d c0b8 533c
000002d0: a52e 303c 7bf1 afbd f0b9 9dbd d388 a23d
000002e0: 9b85 0bbe 6d04 97bd 564d 763d b92d b33d
000002f0: 6e91 e73d a426 833d abcf 983d b27b 1abc
00000300: de94 6a3c 3352 013c 9036 dfbd c046 b13d
00000310: 357e dcbd e3d0 93bd 89f4 b83d e5ba 4638
00000320: 5268 673d a998 2cbc 23dc 46bd 955a e9bd
00000330: 9362 4fbd 4042 61bb 03b8 9d3c bb21 e13d
00000340: b379 423c dada 59bd 5d96 db3c 1453 033e
00000350: 6c59 9ebd b3a6 09be 2263 393c b244 96bd
00000360: c129 32bd d522 48bd 4423 fabd aaab bbbd
00000370: 94c0 fc3d b679 a6bd 7398 e33d 0bfb d63d
00000380: cea4 bfbb 2e55 f1bc 8871 00be 5041 ef3d
00000390: 75fd 7f3c 757e 01be df09 4f3d 5990 a43d
000003a0: 71df 543d db56 96bd 4413 f5bb b338 8f3d
000003b0: cdf4 4a3a 3b38 0b3c 5ef3 8cbd 29c2 093c
000003c0: b61a 9fbd 0a0c fd3d abe4 1ebd d473 17bc
000003d0: a50d cabd 8480 18bd 4189 d3bd 5b7f 823d
000003e0: 8c35 73bd c420 c8bd 2e96 a3bb eb1a 903d
000003f0: f4b9 a73d cb7d 02be 419d e2bd 250c b83d

convolution_layers.0.bias f4 [64]
-0.022142334 -0.025405752 0.0 0.050981473 0.045145188 0.0 -0.019732205 0.049323738
0.047457363 0.06003721 0.045902364 0.0 0.054277603 0.0 -0.012591769 0.0371463
0.055735327 -0.017601682 0.033951383 0.0 0.04921309 0.050526217 0.0 0.0
0.045793787 0.05774204 0.0 -0.042357564 0.024544317 0.048785485 -0.040444616 0.05644462
0.0 -0.010086682 0.044386078 0.04960047 0.042776957 0.04973935 0.053877216 0.049855523
0.0 0.019833656 0.0 -0.04637157 -0.012477539 0.0 0.047894023 -0.039442047
-0.009832438 0.046880882 0.046419084 0.0 -0.0070138047 0.0150868725 0.054526784 0.051049657
0.0 -0.011219104 0.040898453 0.05031266 -0.0267585 0.04994925 -0.029441472 -0.02174148
00000000: d763 b5bc b91f d0bc 0000 0000 f3d1 503d
00000010: 29ea 383d 0000 0000 6fa5 a1bc b007 4a3d
00000020: a762 423d 94e9 753d 1e04 3c3d 0000 0000
00000030: 3152 5e3d 0000 0000 b54d 4ebc b826 183d
00000040: ba4a 643d 6731 90bc 9b10 0b3d 0000 0000
00000050: aa93 493d 94f4 4e3d 0000 0000 0000 0000
00000060: 4492 3b3d eb82 6c3d 0000 0000 207f 2dbd
00000070: 2a11 c93c 4ad3 473d 41a9 25bd 7932 673d
00000080: 0000 0000 9c42 25bc 2dce 353d dd29 4b3d
00000090: e436 2f3d 7dbb 4b3d 5bae 5c3d 4e35 4c3d
000000a0: 0000 0000 317a a23c 0000 0000 1ef0 3dbd
000000b0: 976e 4cbc 0000 0000 862c 443d fc8d 21bd
000000c0: 3c18 21bc 2b06 403d f021 3e3d 0000 0000
000000d0: 0fd4 e5bb ee2e 773c 7a57 5f3d 7219 513d
000000e0: 0000 0000 55d0 37bc 2385 273d a614 4e3d
000000f0: a434 dbbc 9697 4c3d 3e2f f1bc 301b b2bc

convolution_layers.1.weight f4 [64, 32]
0.16966571 -0.23363696 -0.019513885 0.047563188 -0.10060847 -0.14712058 0.17112176 0.023265626
-0.14120618 0.12853739 -0.16226251 0.10315102 -0.025748702 -0.10657256 0.07470138 -0.15374582
0.11596488 -0.025989473 0.026830476 0.08061333 0.00748138 0.14620057 0.020802723 -0.0016728616
-0.1486215 0.009483456 0.12150085 -0.025458846 0.16871494 -0.1585611 -0.07554993 -0.19485007
0.1581642 -0.11416245 -0.07762391 0.21314856 0.21693978 -0.14572962 0.17264791 -0.072553806
0.102501206 -0.09993156 -0.14052527 0.0906213 0.24967076 -0.120876886 0.024331545 -0.14886703
0.033737704 0.16203058 -0.07527102 0.2096055 -0.16790667 -0.114231244 0.14362621 -0.118307926
0.121272914 -0.15850809 -0.15407777 -0.1937022 -0.13080667 -0.16684783 -0.05135006 -0.15560324
0.15414777 -0.050696433 -0.043177634 -0.11841041 -0.13022736 0.14755046 0.07009706 -0.20599344
0.007950395 -0.14329219 0.17798838 -0.12871057 -0.12473315 0.19914529 0.14539078 -0.083197296
0.008829683 0.06534973 0.11334458 -0.13656837 0.11751413 -0.020694137 -0.19275752 0.2067818
-0.044893175 0.19706887 0.0034285784 -0.00025483966 0.1550504 -0.015281439 0.16470209 -0.17227417
-0.06462196 -0.08193081 -0.1773138 -0.011478121 -0.24979654 -0.041643556 0.058559876 0.24943069
-0.1473538 0.17484286 -0.05446718 0.26355153 -0.051804498 0.099605516 -0.26576066 -0.2113263
0.2189257 -0.024157733 0.13422494 0.1308629 -0.1365556 0.18741038 -0.24214585 0.23956198
0.004894412 0.19987513 -0.031963646 -0.1590685 -0.24310541 0.06564023 -0.16285524 0.109880485
-0.09404439 -0.046879783 0.15241288 0.0951507 -0.11167705 -0.07374983 0.113335386 0.06888195
0.14905208 0.018112894 0.28554788 -0.014782303 0.2698857 0.14693567 -0.26920015 -0.13275205
0.08589605 0.09366813 -0.027964776 0.12122386 0.07756921 0.19227937 -0.008867476 0.18700325
0.16550292 -0.10305613 -0.18792242 -0.13744627 0.12376929 0.24501507 0.18626313 -0.009419143
-0.16877282 0.23931065 0.0049443245 -0.16578543 0.11989254 0.08345869 -0.056657523 0.06336349
-0.16634256 -0.2019327 0.12991408 0.24510804 -0.14621904 0.029226243 0.005348325 0.030934095
0.07075739 -0.02284342 -0.053386927 0.06179139 0.14422601 -0.10444665 -0.10800552 -0.080863714
0.18117574 0.0358679 0.15111557 -0.035475135 0.123220235 -0.045371443 0.07919413 0.011817455
0.17773499 -0.22312216 0.13150924 -0.14259893 -0.011054128 0.19267826 -0.13239095 0.10202637
-0.048709285 0.17104158 -0.10177463 0.2502504 0.20355117 0.1870072 -0.26602963 0.2187412
-0.20591044 0.18185759 -0.13519853 0.067790955 0.20939645 -0.16467483 0.09375653 -0.15845752
0.04186949 -0.1389652 0.0009812117 -0.05191102 0.041965783 -0.016627815 0.08723342 -0.06209669
-0.16589196 -0.110390775 0.20819591 0.055323385 -0.037541717 -0.040860526 0.21614158 0.26186353
-0.01380824 0.2785896 0.28569096 0.25000954 0.17401916 -0.07512193 -0.088835336 0.058825884
-0.03467153 -0.16927886 -0.036569413 0.22439465 -0.14248055 -0.02041393 -0.09073142 0.11048897
0.06666934 -0.24074021 0.19245413 0.10477472 0.016431835 -0.10138224 0.0881659 0.18916957
00000000: d9bc 2d3e 873e 6fbe 95db 9fbc 9ed1 423d
00000010: d00b cebd c7a6 16be 8b3a 2f3e 8e97 be3c
00000020: 5a98 10be 4e9f 033e 2528 26be d840 d33d
00000030: f1ee d2bc b742 dabd 0afd 983d 8b6f 1dbe
00000040: ff7e ed3d e0e7 d4bc 96cb db3c 9a18 a53d
00000050: 5d26 f53b 9ab5 153e 796a aa3c ec43 dbba
00000060: 3c30 18be 7f60 1b3c 70d5 f83d 128f d0bc
00000070: 9cc3 2c3e d75d 22be ecb9 9abd c786 47be
00000080: ccf5 213e 01ce e9bd 49f9 9ebd 9e43 5a3e
00000090: 7625 5e3e 253a 15be 9dca 303e 1797 94bd
000000a0: 27ec d13d eba8 ccbd dbe5 0fbe a997 b93d
000000b0: b1a9 7f3e 4d8e f7bd f352 c73c 9970 18be
000000c0: 8c30 0a3d 58eb 253e b127 9abd d3a2 563e
000000d0: baef 2bbe 12f2 e9bd c012 133e 6d4b f2bd
000000e0: ef5d f83d f24f 22be 90c6 1dbe df59 46be
000000f0: 2ff2 05be 28da 2abe 7154 52bd 7556 1fbe
00000100: ead8 1d3e 10a7 4fbd 08db 30bd 2881 f2bd
00000110: 525a 05be 7817 173e 0c8f 8f3d f2ef 52be
00000120: 6042 023c 30bb 12be 9642 363e b4cc 03be
00000130: 1874 ffbd beec 4b3e 52e1 143e 5863 aabd
00000140: 60aa 103c 14d6 853d 3421 e83d 94d8 0bbe
00000150: 40ab f03d c086 a9bc 3a62 45be 9cbe 533e
00000160: e8e1 37bd 6ccc 493e 00b2 603b 009c 85b9
00000170: 88c5 1e3e 005f 7abc aaa7 283e a468 30be
00000180: 8558 84bd 57cb a7bd c091 35be bb0e 3cbc
00000190: aaca 7fbe 6f92 2abd 7bdc 6f3d c26a 7f3e
000001a0: eae3 16be 020a 333e fa18 5fbd 3af0 863e
000001b0: f430 54bd fafd cb3d c811 88be ec65 58be
000001c0: 0f2e 603e 70e6 c5bc 4372 093e ed00 063e
000001d0: 3bd5 0bbe 82e8 3f3e 15f5 77be bc4f 753e
000001e0: 4e61 a03b 11ac 4c3e 50ec 02bd dae2 22be
000001f0: a0f0 78be 636e 863d 86c3 26be 0509 e13d
00000200: 589a c0bd 0405 40bd 1f12 1c3e 5fde c23d
00000210: f0b6 e4bd 270a 97bd 621c e83d fb11 8d3d
00000220: 1ca1 183e 7e61 943c 5533 923e 7931 72bc
00000230: 752e 8a3e 4e76 163e 9ad4 89be 27f0 07be
00000240: 45ea af3d 14d5 bf3d 6316 e5bc 3744 f83d
00000250: 9bdc 9e3d e2e4 443e e448 11bc c87d 3f3e
00000260: 9979 293e 180f d3bd bc6e 40be b7be 0cbe
00000270: c17a fd3d 3be5 7a3e c3bb 3e3e c052 1abc
00000280: c8d2 2cbe da0d 753e 0004 a23b a8c3 29be
00000290: 388a f53d 64ec aa3d b811 68bd b8c4 813d
000002a0: b455 2abe 72c7 4ebe 3208 053e 9afd 7a3e
000002b0: 72ba 15be e06b ef3c 0041 af3b 8069 fd3c
000002c0: 40e9 903d 2022 bbbc 40ac 5abd f818 7d3d
000002d0: fcaf 133e 20e8 d5bd 0032 ddbd e09b a5bd
000002e0: 2286 393e 38ea 123d 0abe 1a3e 604e 11bd
000002f0: e45a fc3d 68d7 39bd 8830 a23d 009e 413c
00000300: 2900 363e 237a 64be 5caa 063e 7405 12be
00000310: 601c 35bc 734d 453e 7e91 07be 34f3 d03d
00000320: 6383 47bd 8625 2f3e 386f d0bd d220 803e
00000330: b86f 503e d17e 3f3e 0935 88be b1fd 5f3e
00000340: 30da 52be e038 3a3e 7c71 0abe fcd5 8a3d
00000350: 066c 563e 85a0 28be 6c03 c03d b042 22be
00000360: 587f 2b3d e54c 0ebe 009c 803a a6a0 54bd
00000370: 50e4 2b3d 0e37 88bc 6fa7 b23d 1959 7ebd
00000380: 95df 29be 8f14 e2bd 4f31 553e c69a 623d
00000390: 58c5 19bd 5e5d 27bd 3854 5d3e fa12 863e
000003a0: f53b 62bc 4ca3 8e3e 1646 923e 4001 803e
000003b0: 1432 323e 87d9 99bd 4def b5bd 69f3 703d
000003c0: bc03 0ebd 7057 2dbe cfc9 15bd b6c7 653e
000003d0: 6ce6 11be 1d3b a7bc 65d1 b9bd 0b48 e23d
000003e0: ef89 883d 9a84 76be b212 453e 2194 d63d
000003f0: 0e9c 863c 7ea1 cfbd 5390 b43d abb5 413e

convolution_layers.1.bias f4 [32]
0.05437518 -0.0058563794 0.055295214 0.059245884 0.0 -0.005824611 -0.0119175045 0.052237153
-0.012706982 0.051442165 0.053889964 0.05923198 0.051077984 -0.04582375 -0.021202909 -0.015767105
0.053135216 0.0 0.05219247 0.055646256 -0.0055269087 0.0638682 -0.02978558 0.058632243
-0.026808357 -0.030475039 0.0 -0.039873526 -0.012110565 0.059624158 0.0642632 0.051550582
00000000: 82b8 5e3d dfe6 bfbb 3c7d 623d d0ab 723d
00000010: 0000 0000 61dc bebb a341 43bc a0f6 553d
00000020: f230 50bc 05b5 523d b9bb 5c3d 3c9d 723d
00000030: 2637 513d afb1 3bbd b9b1 adbc 042a 81bc
00000040: 50a4 593d 0000 0000 c5c7 553d 54ed 633d
00000050: 121b b5bb 55cd 823d e300 f4bc 5d28 703d
00000060: 339d dbbc caa6 f9bc 0000 0000 6c52 23bd
00000070: 646b 46bc 7638 743d 6d9c 833d b426 533d

classify.weight f4 [1, 32]
0.10403801 -0.06648082 0.12459573 0.21328977 0.13219367 -0.10572558 -0.076002836 0.15719561
-0.07825342 0.2015699 0.18488856 0.2018351 0.21796271 -0.14102514 -0.12520464 -0.0053505935
0.17089942 -0.1484307 0.15880553 0.096654125 -0.121003546 0.13464418 -0.029817853 0.18171428
0.001392712 -0.056336496 -0.036865868 -0.14471719 -0.16416034 0.19294721 0.060929723 0.20110701
00000000: e111 d53d 1927 88bd 0c2c ff3d a268 5a3e
00000010: c75d 073e a786 d8bd 60a7 9bbd e3f7 203e
00000020: 5443 a0bd 5768 4e3e 6d53 3d3e dcad 4e3e
00000030: 9e31 5f3e e568 10be a535 00be 0854 afbb
00000040: 4200 2f3e 38fe 17be eb9d 223e 99f2 c53d
00000050: b5d0 f7bd 2ae0 093e 9244 f4bc 4f13 3a3e
00000060: a98b b63a 19c1 66bd aa00 17bd be30 14be
00000070: a619 28be f493 453e 7291 793d ffee 4d3e
