checkpoints/epoch_20_val_loss_4.7946.pt (torch, 76530 bytes, 5 tensors)

convolution_layers.0.weight f4 [253, 64]
000000 e3 49 91 bc 8b e7 bb bb f6 d8 3b 3c 08 ab dc bc
       -0.017735427 -0.005734389 0.011465302 -0.026937023
000010 2e 90 2d 3d 29 c5 29 3d ee ff 04 bd 45 8f 94 bd
       0.04237383 0.041447792 -0.032470636 -0.07253889
000020 06 0d 5c bd 26 fc dc 3d 37 84 cc bd aa ac 06 3e
       -0.053723358 0.10790281 -0.099861555 0.13151804
000030 ac 7a f0 3d e1 c3 82 bd 4a a4 09 bd 47 34 04 3e
       0.11742148 -0.06385017 -0.033603944 0.12910567
000040 bf 34 ff bd 09 94 c4 ba 8d 8d b6 3c 31 86 b3 bd
       -0.124612324 -0.0014997731 0.022284294 -0.08765829
000050 92 15 70 3d 7e 87 3c bd 2d ce 0f bc 80 1c 57 bd
       0.05861432 -0.046027653 -0.0087771835 -0.052517414
000060 5a 82 77 bd 3b 19 e0 bd dd c7 ed 3c 14 2f b4 bd
       -0.060427047 -0.10942312 0.029025966 -0.08798042
000070 5c 98 cf 3d 0b b1 83 bd 1b 06 a2 3d bc 49 98 bd
       0.10136482 -0.06430253 0.07911321 -0.07435939
000080 5d 0f 88 3d d6 0c ea 3d 8a 85 87 bd 1d 24 d4 3d
       0.06643555 0.114282295 -0.066172674 0.103584506
000090 6f c1 03 be d9 5a df 3d e6 17 90 bd b9 5b 98 3d
       -0.12866758 0.10906 -0.07035808 0.0743937
0000a0 50 66 e1 bd 91 3b da bc 02 e8 0a 3e 83 09 b8 bd
       -0.11005843 -0.026639732 0.13565066 -0.08986189
0000b0 5d 02 b7 3d ac 3f 12 ba 7a fc 92 bd 3d 26 ea bd
       0.08935998 -0.0005578946 -0.07177062 -0.114330746
0000c0 d5 84 b3 3d 94 6f c7 3d b3 e0 58 bd 33 55 f5 bc
       0.0876557 0.09738079 -0.052948665 -0.029947853
0000d0 ef 24 4c 3d a8 a4 78 bd 1d 72 e5 bb f4 c1 ce 3d
       0.04983991 -0.060703903 -0.0070021288 0.100955874
0000e0 f9 20 3a 3d c9 8d 4b 3d 64 1c 3c bd ed cc eb bd
       0.0454416 0.049695764 -0.045925513 -0.11513696
0000f0 8e 44 0c 3e 13 fb cb 3d 84 05 ae 3b 37 0f 9a bb
       0.13698027 0.09959998 0.005310716 -0.004701521
000100 fe 5e c2 3d b7 f1 a0 3b 8c 3f b5 bd ea b8 f3 3d
       0.094907746 0.004911627 -0.08850011 0.11900504
000110 8a 30 ec bd 76 78 73 3d b6 c5 fd 3c e5 3f 03 3b
       -0.115326956 0.059441052 0.030978065 0.0020027098
000120 0d 01 98 3c 1f 7a 84 bc 65 69 a0 3d 7e 72 da 3d
       0.018555189 -0.016171513 0.078326024 0.10666369
000130 95 55 bd bd 3f 29 f2 3d 0b 48 66 bb 64 2c 04 bd
       -0.09244839 0.11824273 -0.0035138156 -0.032268897
000140 a2 46 9a bd eb 0f cc 3d 0c 71 a0 bc d8 97 ea bd
       -0.075330034 0.099639736 -0.019585155 -0.11454743
000150 dd d0 d3 bd 4d 9f 6b bd ac 2a b2 3d 4e 2e 93 bd
       -0.10342572 -0.057524968 0.08699545 -0.07186566
000160 f5 7c 05 3e 15 d0 84 3d 11 0e 00 be 5b 71 b9 3d
       0.13035949 0.06485001 -0.12505366 0.09054824
000170 3e 80 b8 3d 8d 3e 0b 3e 6f fd 6d 3d 8d 88 d2 3d
       0.09008835 0.1359808 0.05810302 0.10279951
000180 37 37 24 bc 91 0d cb 3a cf 59 a6 bc 88 dd d2 3d
       -0.01002293 0.0015491714 -0.020306496 0.1029616
000190 47 8c 59 bd ee 1e 60 bc 7d 49 ae 3d 7b 28 1e 3d
       -0.053112295 -0.013679249 0.085101105 0.038612824
0001a0 eb fb 37 3d 8b ff 73 3d 3f b9 b2 3c 77 7b ca bd
       0.044917982 0.059569877 0.021816848 -0.0988683
0001b0 35 79 5d 3d d4 76 b2 3c a8 66 0c be 92 c8 7b 3c
       0.05407067 0.021785177 -0.13711035 0.015367644
0001c0 22 b9 39 3d 29 2d f6 bb 60 cd 39 3d 03 e4 05 be
       0.045342572 -0.0075127077 0.045361876 -0.13075261
0001d0 4e 34 6f 3c 95 a3 01 3e 71 85 04 3e e8 79 f7 bd
       0.014599873 0.12660058 0.12941529 -0.12083799
0001e0 34 3d 05 bb 43 74 7e bd 52 a7 16 3d 87 d6 e9 3d
       -0.002033067 -0.062122595 0.036780663 0.11417871
0001f0 19 33 fc 3d e0 53 97 3d e6 85 40 3d 05 3a d0 3b
       0.123144336 0.07389045 0.047002696 0.0063545727
000200 ad ce be bd 3d 44 ec 3d 3b 89 a6 3d e2 d6 bf 3b
       -0.09316764 0.11536453 0.081316434 0.0058544734
000210 46 b6 8f bd ac 84 b5 3d 78 d4 ef 3d d8 5a fb 3d
       -0.07017188 0.08863196 0.11710447 0.122731864
000220 d4 7c 91 bc 17 0e ad bd f1 2c f2 3d db 87 cb bd
       -0.017759718 -0.08449953 0.11824978 -0.09938022
000230 d5 90 c1 3d 76 ff 99 3d 11 4e be 3c 56 7c b1 bd
       0.09451453 0.075194284 0.023230584 -0.08666293
000240 d4 a2 eb bc f2 03 d4 3d 49 6c df 3d 90 6a 0c bd
       -0.028764166 0.10352315 0.10909326 -0.034281313
000250 25 e4 88 bc 1f bd fa 3c b1 f6 28 3d 60 4c a7 3d
       -0.01671035 0.030607758 0.04125089 0.08168864
000260 9e 6b 07 3e ca 7d cc 3d aa 48 a3 3d 59 f0 a7 bc
       0.13224646 0.0998493 0.07972844 -0.020500349
000270 a8 43 0e bd 4e 74 8c 3d 9c f9 cc 3c 67 30 25 bd
       -0.03473249 0.06858121 0.025021367 -0.040329363
000280 24 8c d4 3d 58 90 8f 3d 0b 1e e5 bd 04 ed 89 bd
       0.10378292 0.07009953 -0.11187371 -0.0673466
000290 39 d5 38 3d ad 0c 6c 3d 81 a2 d1 bd fb 0e 87 3d
       0.04512522 0.057629276 -0.10236073 0.06594654
0002a0 80 af 62 3d c3 6f 7c 3d c1 63 b8 bc 46 6f 92 bc
       0.05534315 0.06163002 -0.022508504 -0.017875325
0002b0 f0 cb b5 bd 47 7c 91 3d 36 3d 0c be 58 0c 00 3e
       -0.088767886 0.07103782 -0.13695225 0.12504709
0002c0 10 4c 36 3d c7 4a ff 3c ab b3 51 3d c0 b8 53 3c
       0.044506133 0.031163586 0.051196735 0.012922466
0002d0 a5 2e 30 3c 7b f1 af bd f0 b9 9d bd d3 88 a2 3d
       0.010753308 -0.085909806 -0.077014804 0.079362534
0002e0 9b 85 0b be 6d 04 97 bd 56 4d 76 3d b9 2d b3 3d
       -0.13625185 -0.07373891 0.060132347 0.08748955
0002f0 6e 91 e7 3d a4 26 83 3d ab cf 98 3d b2 7b 1a bc
       0.113070354 0.064038545 0.074614845 -0.009428905
000300 de 94 6a 3c 33 52 01 3c 90 36 df bd c0 46 b1 3d
       0.014317719 0.007893133 -0.10899079 0.086560726
000310 35 7e dc bd e3 d0 93 bd 89 f4 b8 3d e5 ba 46 38
       -0.107662596 -0.07217576 0.090310164 4.7380938e-05
000320 52 68 67 3d a9 98 2c bc 23 dc 46 bd 95 5a e9 bd
       0.056495972 -0.010534444 -0.048549782 -0.1139423
000330 93 62 4f bd 40 42 61 bb 03 b8 9d 3c bb 21 e1 3d
       -0.050631117 -0.0034371763 0.019252783 0.10992762
000340 b3 79 42 3c da da 59 bd 5d 96 db 3c 14 53 03 3e
       0.011869836 -0.05318723 0.026805097 0.1282466
000350 6c 59 9e bd b3 a6 09 be 22 63 39 3c b2 44 96 bd
       -0.077318996 -0.13442497 0.011315139 -0.07337321
000360 c1 29 32 bd d5 22 48 bd 44 23 fa bd aa ab bb bd
       -0.04349685 -0.048861343 -0.12213758 -0.09163602
000370 94 c0 fc 3d b6 79 a6 bd 73 98 e3 3d 0b fb d6 3d
       0.12341419 -0.08128683 0.11113062 0.104971014
000380 ce a4 bf bb 2e 55 f1 bc 88 71 00 be 50 41 ef 3d
       -0.0058485037 -0.029459562 -0.12543309 0.11682379
000390 75 fd 7f 3c 75 7e 01 be df 09 4f 3d 59 90 a4 3d
       0.015624394 -0.12645896 0.050546523 0.08035345
0003a0 71 df 54 3d db 56 96 bd 44 13 f5 bb b3 38 8f 3d
       0.051970903 -0.07340785 -0.0074791033 0.069932364
0003b0 cd f4 4a 3a 3b 38 0b 3c 5e f3 8c bd 29 c2 09 3c
       0.00077421666 0.008497293 -0.06882356 0.008408108
0003c0 b6 1a 9f bd 0a 0c fd 3d ab e4 1e bd d4 73 17 bc
       -0.077687666 0.12355812 -0.038792294 -0.009243924
0003d0 a5 0d ca bd 84 80 18 bd 41 89 d3 bd 5b 7f 82 3d
       -0.09865884 -0.037231937 -0.103289135 0.063719474
0003e0 8c 35 73 bd c4 20 c8 bd 2e 96 a3 bb eb 1a 90 3d
       -0.05937724 -0.097718745 -0.004992268 0.07036384
0003f0 f4 b9 a7 3d cb 7d 02 be 41 9d e2 bd 25 0c b8 3d
       0.081897646 -0.12743299 -0.1106515 0.089866914

convolution_layers.0.bias f4 [64]
000000 1c 0d 2f bc c6 b5 12 3d 00 00 00 00 93 b3 c0 3d
       -0.010684278 0.035817884 0.0 0.09409251
000010 03 14 df 3d 00 00 00 00 aa e4 1a 3c 3f 76 ac 3d
       0.10892489 0.0 0.009453932 0.08420991
000020 1f 08 36 3e 8c 51 09 3e a8 e2 05 3e 00 00 00 00
       0.17776535 0.13410014 0.13074744 0.0
000030 aa 58 cd 3d 00 00 00 00 b5 4d 4e bc 0b f2 fd 3d
       0.10026677 0.0 -0.012591769 0.12399682
000040 bd 4c cb 3d 67 31 90 bc 1d ec e2 3d 00 00 00 00
       0.09926746 -0.017601682 0.11080191 0.0
000050 1c 71 05 3e 18 23 ad 3d 00 00 00 00 00 00 00 00
       0.13031429 0.08453959 0.0 0.0
000060 31 83 4b 3e 76 91 33 3e 00 00 00 00 d7 90 55 bd
       0.19874264 0.17535958 0.0 -0.052140083
000070 38 9a ed 3d ed d6 57 3e db 4a a8 bd 81 4e 0d 3e
       0.116016805 0.21078081 -0.082174025 0.13799478
000080 00 00 00 00 03 73 37 bc c1 58 e9 3d 94 13 ca 3d
       0.0 -0.0111968545 0.113938816 0.098670155
000090 d8 d5 e4 3d 91 64 e2 3d c1 7b 0c 3e 28 c1 b0 3d
       0.111736 0.11054338 0.13719083 0.08630592
0000a0 00 00 00 00 53 bd c3 3d 00 00 00 00 24 51 92 bc
       0.0 0.09557595 0.0 -0.017860956
0000b0 ee af ee bb 00 00 00 00 7a eb 25 3e 06 c5 ee bd
       -0.007284156 0.0 0.16203108 -0.11658673
0000c0 03 5c b7 3d 1b 53 b6 3d 36 fc be 3d 00 00 00 00
       0.08953097 0.0890257 0.09325449 0.0
0000d0 0f d4 e5 bb 8d 62 db 3d f9 49 09 3e 76 01 06 3e
       -0.0070138047 0.107121564 0.13407125 0.13086495
0000e0 00 00 00 00 7d 56 f3 bb 8c 3c d9 3d 2a 3b c2 3d
       0.0 -0.0074260817 0.106072515 0.09483941
0000f0 a4 34 db bc f9 9f 9f 3d 11 22 fb bc ad 04 9a 3d
       -0.0267585 0.07794184 -0.030655893 0.07520423

convolution_layers.1.weight f4 [64, 32]
000000 6b 56 06 3f 87 3e 6f be a1 06 bc 3e 6d 4b fe 3e
       0.52475613 -0.23363696 0.36723807 0.4966692
000010 d0 0b ce bd a7 c8 04 bf 38 54 26 be 21 d8 ba 3e
       -0.10060847 -0.5186867 -0.16243064 0.36493018
000020 cb 0b 04 bf 4e a1 f1 3e d7 d7 3a 3e 5b c2 ef 3e
       -0.51580495 0.47193378 0.18246399 0.4682797
000030 43 ac 9d 3e c3 66 a3 be ad 02 99 be ec 6a 1d be
       0.30795488 -0.31914338 -0.29884854 -0.15372819
000040 75 48 ed 3e e0 e7 d4 bc 54 99 b9 3e 75 d0 df 3e
       0.46344343 -0.025989473 0.36249793 0.43713728
000050 40 47 c6 be 94 cb 12 3f 7c 28 9f be a9 7e e3 3e
       -0.38726234 0.57341886 -0.31085575 0.44432572
000060 51 33 18 be f4 21 7b be 70 d5 f8 3d 12 2e 93 be
       -0.14863326 -0.24524671 0.12150085 -0.28746086
000070 28 fe 92 bd 10 14 71 3e 0c c5 9e 3e 49 8a 0d 3e
       -0.07177383 0.2354281 0.3100971 0.13822283
000080 ca 8e 3d 3e 01 ce e9 bd 67 38 3f bd 3f a3 86 3e
       0.18511501 -0.11416245 -0.04668465 0.26296422
000090 76 25 5e 3e d1 f7 4b be 3c 4b 01 3e 87 aa 4b bd
       0.21693978 -0.19918753 0.12626356 -0.049723174
0000a0 5d d9 0e 3d e6 45 9d bd a1 ef eb bd b0 fb 00 3e
       0.034875263 -0.07679348 -0.11520315 0.12596011
0000b0 7b f9 8a 3e 06 a4 06 be 42 81 b8 bd 92 70 18 be
       0.27143463 -0.13148507 -0.09009029 -0.14886692
0000c0 db f3 74 3d 58 eb 25 3e ff a2 59 bd ea ea 72 3e
       0.05980287 0.16203058 -0.05313396 0.23722425
0000d0 b4 d5 82 be 4d 89 92 bd e0 4c f7 3d a0 4c 91 bd
       -0.25553668 -0.07155094 0.120752096 -0.07094693
0000e0 10 d4 f7 3d 6b 5a 3d be 90 c6 1d be 1d 94 5c be
       0.121009946 -0.18491523 -0.15407777 -0.21540876
0000f0 12 1d 2b be fc c6 07 be 6c 14 8e bc 18 e4 07 be
       -0.16710308 -0.132595 -0.017343722 -0.13270605
000100 ea d8 1d 3e 10 a7 4f bd 08 db 30 bd 28 81 f2 bd
       0.15414777 -0.050696433 -0.043177634 -0.11841041
000110 52 5a 05 be 78 17 17 3e 0c 8f 8f 3d f2 ef 52 be
       -0.13022736 0.14755046 0.07009706 -0.20599344
000120 60 42 02 3c 30 bb 12 be 96 42 36 3e b4 cc 03 be
       0.007950395 -0.14329219 0.17798838 -0.12871057
000130 18 74 ff bd be ec 4b 3e 52 e1 14 3e 58 63 aa bd
       -0.12473315 0.19914529 0.14539078 -0.083197296
000140 60 aa 10 3c 14 d6 85 3d 34 21 e8 3d 94 d8 0b be
       0.008829683 0.06534973 0.11334458 -0.13656837
000150 40 ab f0 3d c0 86 a9 bc 3a 62 45 be 9c be 53 3e
       0.11751413 -0.020694137 -0.19275752 0.2067818
000160 e8 e1 37 bd 6c cc 49 3e 00 b2 60 3b 00 9c 85 b9
       -0.044893175 0.19706887 0.0034285784 -0.00025483966
000170 88 c5 1e 3e 00 5f 7a bc aa a7 28 3e a4 68 30 be
       0.1550504 -0.015281439 0.16470209 -0.17227417
000180 ab 19 28 bd 57 cb a7 bd b8 20 19 be e0 52 1c 3d
       -0.041040104 -0.08193081 -0.14953887 0.038164973
000190 40 06 80 be ea 0c 9f bc 33 db 0d 3d b3 dd 8a 3e
       -0.25004768 -0.019415338 0.034632873 0.27122268
0001a0 9b a6 03 be 27 3a 4b 3e 07 8f 02 bd 66 bb 97 3e
       -0.12856524 0.19846402 -0.031874683 0.2963516
0001b0 f9 54 f5 bc 63 4b ce 3d b4 33 87 be 5b 66 58 be
       -0.029947745 0.100729726 -0.26406634 -0.21132796
0001c0 ac c4 77 3e 70 e6 c5 bc 7d ec 1e 3e 29 b4 1d 3e
       0.24196118 -0.024157733 0.155199 0.15400757
0001d0 4f fc 3c be 11 ac 64 3e 04 0c 87 be 34 51 90 3e
       -0.18455623 0.22331263 -0.26376355 0.28186953
0001e0 1a 1f 90 3b a2 5f 3e 3e 50 ec 02 bd ab a1 29 be
       0.004398239 0.18591169 -0.031963646 -0.16565578
0001f0 cb dc 85 be bf 6e c9 3d cd c4 0e be da 05 07 3e
       -0.26145014 0.09835576 -0.13942261 0.13185826
000200 0f 86 83 bd 04 05 40 bd 9c 4f 3f 3e e7 8f 1a 3e
       -0.06422054 -0.046879783 0.18682712 0.15093957
000210 f0 b6 e4 bd 56 9d 87 bd c0 74 b3 3d 81 b9 c5 3d
       -0.11167705 -0.06621806 0.08762503 0.09654523
000220 93 1c 0a 3e bd d0 43 3d f4 e4 a0 3e 75 2e c9 3c
       0.13487463 0.04780649 0.31424677 0.024558285
000230 9b 53 98 3e d0 6f 12 3e e8 d0 93 be 9a f0 07 be
       0.29751286 0.14300466 -0.2887032 -0.13275376
000240 d7 bb eb 3d 14 d5 bf 3d 36 a9 9d ba 82 35 1a 3e
       0.11510437 0.09366813 -0.0012028578 0.15059474
000250 31 5c c6 3c a6 9c 70 3e 08 4a 06 bd 72 b4 71 3e
       0.024213882 0.23497257 -0.032785445 0.2360399
000260 db f2 28 3e c3 c6 fc bd bc 6e 40 be 13 56 1a be
       0.16498892 -0.12342598 -0.18792242 -0.15071897
000270 8c 86 d4 3d eb 80 91 3e af 68 5d 3e 3c 0b 97 3c
       0.10377225 0.2841867 0.21621965 0.018437974
000280 c8 d2 2c be da 0d 75 3e 00 04 a2 3b a8 c3 29 be
       -0.16877282 0.23931065 0.0049443245 -0.16578543
000290 38 8a f5 3d 64 ec aa 3d b8 11 68 bd b8 c4 81 3d
       0.11989254 0.08345869 -0.056657523 0.06336349
0002a0 b4 55 2a be 72 c7 4e be 32 08 05 3e 9a fd 7a 3e
       -0.16634256 -0.2019327 0.12991408 0.24510804
0002b0 72 ba 15 be e0 6b ef 3c 00 41 af 3b 80 69 fd 3c
       -0.14621904 0.029226243 0.005348325 0.030934095
0002c0 40 e9 90 3d 20 22 bb bc 40 ac 5a bd f8 18 7d 3d
       0.07075739 -0.02284342 -0.053386927 0.06179139
0002d0 fc af 13 3e 20 e8 d5 bd 00 32 dd bd e0 9b a5 bd
       0.14422601 -0.10444665 -0.10800552 -0.080863714
0002e0 22 86 39 3e 38 ea 12 3d 0a be 1a 3e 60 4e 11 bd
       0.18117574 0.0358679 0.15111557 -0.035475135
0002f0 e4 5a fc 3d 68 d7 39 bd 88 30 a2 3d 00 9e 41 3c
       0.123220235 -0.045371443 0.07919413 0.011817455
000300 e4 a6 48 3e 23 7a 64 be ac eb 1b 3e 38 a4 d8 bd
       0.19594914 -0.22312216 0.1522662 -0.10578197
000310 4a d2 29 bc 84 d0 3c 3e 7e ff 29 be 8b 69 f1 3d
       -0.010365078 0.18438917 -0.16601369 0.11787709
000320 73 10 aa bd 04 b2 3f 3e 3c 13 ac bd 69 79 8c 3e
       -0.08303919 0.18720251 -0.08402106 0.2743638
000330 85 23 60 3e f6 8a 3c 3e b3 e5 9e be b1 fd 5f 3e
       0.2188855 0.18412384 -0.31034622 0.2187412
000340 5f 45 40 be e0 38 3a 3e 21 5d f5 bd 94 94 b0 3d
       -0.18776463 0.18185759 -0.119806536 0.08622089
000350 8b a7 10 3e 57 e9 0b be 17 9f 9d 3d ea e2 00 be
       0.14126413 -0.13663231 0.076963596 -0.12586561
000360 35 54 2a 3d 45 61 1e be 00 9c 80 3a 0b f8 7f bd
       0.041584212 -0.15466793 0.0009812117 -0.06249241
000370 db 47 82 3c 8d ad e5 3b 9a 35 de 3d d8 eb 3c bd
       0.015903404 0.0070092143 0.108500674 -0.046123356
000380 49 5d 31 be 8f 14 e2 bd 94 02 53 3e 9d c7 a3 3d
       -0.17320742 -0.110390775 0.20606452 0.079970576
000390 90 14 82 bd 2a bb 5e 3d c3 e3 72 3e e0 b2 82 3e
       -0.06351578 0.054377712 0.23719697 0.25527096
0003a0 c3 ec 8d 3d 94 76 8d 3e 55 4a 8e 3e 88 63 83 3e
       0.06929924 0.2762953 0.27791086 0.25661874
0003b0 44 b7 2c 3e 9c 06 40 bd a9 5d 66 bb 8b f1 70 3d
       0.16866785 -0.046881303 -0.003515104 0.058824103
0003c0 ab 05 31 bd 70 57 2d be 22 41 3b bd cd f9 5b 3e
       -0.043218296 -0.16927886 -0.045716412 0.2148201
0003d0 a9 ce f8 bd 32 74 68 bc 12 7f ab bd 6c 10 00 3e
       -0.12148792 -0.014187859 -0.08373846 0.12506264
0003e0 b9 7f 87 3d 76 af 5e be b2 12 45 3e 30 4a 0a 3e
       0.06616158 -0.2174662 0.19245413 0.13504863
0003f0 1c c4 3b 3d 08 3e c1 bd 2f 1f 96 3d b0 cf 39 3e
       0.04584132 -0.0943566 0.073301665 0.18145633

convolution_layers.1.bias f4 [32]
000000 ed 5a 19 3e df e6 bf bb c1 d3 27 3e 9e 5c 50 3e
       0.14976092 -0.0058563794 0.16389371 0.2034783
000010 75 e7 af bc 4c 48 9e bd b5 46 b4 bc b8 d8 10 3e
       -0.021472672 -0.07728633 -0.022006372 0.14145172
000020 99 0b c1 bd 01 1c 18 3e 02 33 12 3e ee 81 36 3e
       -0.0942604 0.14854433 0.1427727 0.17823002
000030 18 65 0c 3e 17 62 b8 bd 0a 50 80 bd d8 46 81 bc
       0.13710439 -0.09003084 -0.06265266 -0.015780851
000040 b7 f7 13 3e 00 00 00 00 02 9a 0b 3e a4 07 19 3e
       0.14449964 0.0 0.13632968 0.14944321
000050 56 d8 4d bd 24 ff 48 3e 30 fe 26 bd 49 9d 51 3e
       -0.050255142 0.19628578 -0.040769756 0.20470156
000060 05 4c db bc e2 88 8e bd 00 00 00 00 d9 f7 ce bd
       -0.026769647 -0.06959702 0.0 -0.10105867
000070 84 cf 10 bd 4f 2f 39 3e f7 fa 2b 3e a3 f5 0b 3e
       -0.035354152 0.18084453 0.16794954 0.13667922

classify.weight f4 [1, 32]
000000 75 9b 22 3e 19 27 88 bd 46 48 62 3e 13 2b ca 3e
       0.15879615 -0.06648082 0.22097883 0.39485988
000010 18 1b e0 3d 32 bf 06 bf 45 89 a8 be fe 58 4b 3e
       0.10942668 -0.5263549 -0.32917228 0.19858167
000020 08 f4 ef be 82 fd 87 3e 7a 32 6f 3e 61 7b 9c 3e
       -0.4686587 0.265606 0.23359099 0.3056288
000030 cc f0 87 3e 38 27 6f be 64 c9 21 bf 5d 56 af bb
       0.265509 -0.23354805 -0.6319792 -0.0053508715
000040 30 37 70 3e 38 fe 17 be 25 72 3e 3e c4 24 17 3e
       0.23458552 -0.1484307 0.1859823 0.14760119
000050 d4 06 05 bf 6a e7 86 3e 9c b9 07 be 5e 5c b2 3e
       -0.51963544 0.2634843 -0.13254398 0.34836096
000060 28 ff 81 b8 30 b1 69 be aa 00 17 bd 28 b7 d0 be
       -6.198726e-05 -0.22821498 -0.036865868 -0.40764737
000070 f5 2a bd be c4 58 97 3e 3b aa e4 3d 51 e0 84 3e
       -0.36946836 0.2955991 0.111652814 0.2595239
