checkpoints/epoch_18_val_loss_5.0334.pt (torch, 76530 bytes, 5 tensors)

convolution_layers.0.weight f4 [253, 64]
000000 e3 49 91 bc 8b e7 bb bb f6 d8 3b 3c 08 ab dc bc
       -0.017735427 -0.005734389 0.011465302 -0.026937023
000010 2e 90 2d 3d 29 c5 29 3d ee ff 04 bd 45 8f 94 bd
       0.04237383 0.041447792 -0.032470636 -0.07253889
000020 06 0d 5c bd 26 fc dc 3d 37 84 cc bd aa ac 06 3e
       -0.053723358 0.10790281 -0.099861555 0.13151804
000030 ac 7a f0 3d e1 c3 82 bd 4a a4 09 bd 47 34 04 3e
       0.11742148 -0.06385017 -0.033603944 0.12910567
000040 bf 34 ff bd 09 94 c4 ba 8d 8d b6 3c 31 86 b3 bd
       -0.124612324 -0.0014997731 0.022284294 -0.08765829
000050 92 15 70 3d 7e 87 3c bd 2d ce 0f bc 80 1c 57 bd
       0.05861432 -0.046027653 -0.0087771835 -0.052517414
000060 5a 82 77 bd 3b 19 e0 bd dd c7 ed 3c 14 2f b4 bd
       -0.060427047 -0.10942312 0.029025966 -0.08798042
000070 5c 98 cf 3d 0b b1 83 bd 1b 06 a2 3d bc 49 98 bd
       0.10136482 -0.06430253 0.07911321 -0.07435939
000080 5d 0f 88 3d d6 0c ea 3d 8a 85 87 bd 1d 24 d4 3d
       0.06643555 0.114282295 -0.066172674 0.103584506
000090 6f c1 03 be d9 5a df 3d e6 17 90 bd b9 5b 98 3d
       -0.12866758 0.10906 -0.07035808 0.0743937
0000a0 50 66 e1 bd 91 3b da bc 02 e8 0a 3e 83 09 b8 bd
       -0.11005843 -0.026639732 0.13565066 -0.08986189
0000b0 5d 02 b7 3d ac 3f 12 ba 7a fc 92 bd 3d 26 ea bd
       0.08935998 -0.0005578946 -0.07177062 -0.114330746
0000c0 d5 84 b3 3d 94 6f c7 3d b3 e0 58 bd 33 55 f5 bc
       0.0876557 0.09738079 -0.052948665 -0.029947853
0000d0 ef 24 4c 3d a8 a4 78 bd 1d 72 e5 bb f4 c1 ce 3d
       0.04983991 -0.060703903 -0.0070021288 0.100955874
0000e0 f9 20 3a 3d c9 8d 4b 3d 64 1c 3c bd ed cc eb bd
       0.0454416 0.049695764 -0.045925513 -0.11513696
0000f0 8e 44 0c 3e 13 fb cb 3d 84 05 ae 3b 37 0f 9a bb
       0.13698027 0.09959998 0.005310716 -0.004701521
000100 fe 5e c2 3d b7 f1 a0 3b 8c 3f b5 bd ea b8 f3 3d
       0.094907746 0.004911627 -0.08850011 0.11900504
000110 8a 30 ec bd 76 78 73 3d b6 c5 fd 3c e5 3f 03 3b
       -0.115326956 0.059441052 0.030978065 0.0020027098
000120 0d 01 98 3c 1f 7a 84 bc 65 69 a0 3d 7e 72 da 3d
       0.018555189 -0.016171513 0.078326024 0.10666369
000130 95 55 bd bd 3f 29 f2 3d 0b 48 66 bb 64 2c 04 bd
       -0.09244839 0.11824273 -0.0035138156 -0.032268897
000140 a2 46 9a bd eb 0f cc 3d 0c 71 a0 bc d8 97 ea bd
       -0.075330034 0.099639736 -0.019585155 -0.11454743
000150 dd d0 d3 bd 4d 9f 6b bd ac 2a b2 3d 4e 2e 93 bd
       -0.10342572 -0.057524968 0.08699545 -0.07186566
000160 f5 7c 05 3e 15 d0 84 3d 11 0e 00 be 5b 71 b9 3d
       0.13035949 0.06485001 -0.12505366 0.09054824
000170 3e 80 b8 3d 8d 3e 0b 3e 6f fd 6d 3d 8d 88 d2 3d
       0.09008835 0.1359808 0.05810302 0.10279951
000180 37 37 24 bc 91 0d cb 3a cf 59 a6 bc 88 dd d2 3d
       -0.01002293 0.0015491714 -0.020306496 0.1029616
000190 47 8c 59 bd ee 1e 60 bc 7d 49 ae 3d 7b 28 1e 3d
       -0.053112295 -0.013679249 0.085101105 0.038612824
0001a0 eb fb 37 3d 8b ff 73 3d 3f b9 b2 3c 77 7b ca bd
       0.044917982 0.059569877 0.021816848 -0.0988683
0001b0 35 79 5d 3d d4 76 b2 3c a8 66 0c be 92 c8 7b 3c
       0.05407067 0.021785177 -0.13711035 0.015367644
0001c0 22 b9 39 3d 29 2d f6 bb 60 cd 39 3d 03 e4 05 be
       0.045342572 -0.0075127077 0.045361876 -0.13075261
0001d0 4e 34 6f 3c 95 a3 01 3e 71 85 04 3e e8 79 f7 bd
       0.014599873 0.12660058 0.12941529 -0.12083799
0001e0 34 3d 05 bb 43 74 7e bd 52 a7 16 3d 87 d6 e9 3d
       -0.002033067 -0.062122595 0.036780663 0.11417871
0001f0 19 33 fc 3d e0 53 97 3d e6 85 40 3d 05 3a d0 3b
       0.123144336 0.07389045 0.047002696 0.0063545727
000200 ad ce be bd 3d 44 ec 3d 3b 89 a6 3d e2 d6 bf 3b
       -0.09316764 0.11536453 0.081316434 0.0058544734
000210 46 b6 8f bd ac 84 b5 3d 78 d4 ef 3d d8 5a fb 3d
       -0.07017188 0.08863196 0.11710447 0.122731864
000220 d4 7c 91 bc 17 0e ad bd f1 2c f2 3d db 87 cb bd
       -0.017759718 -0.08449953 0.11824978 -0.09938022
000230 d5 90 c1 3d 76 ff 99 3d 11 4e be 3c 56 7c b1 bd
       0.09451453 0.075194284 0.023230584 -0.08666293
000240 d4 a2 eb bc f2 03 d4 3d 49 6c df 3d 90 6a 0c bd
       -0.028764166 0.10352315 0.10909326 -0.034281313
000250 25 e4 88 bc 1f bd fa 3c b1 f6 28 3d 60 4c a7 3d
       -0.01671035 0.030607758 0.04125089 0.08168864
000260 9e 6b 07 3e ca 7d cc 3d aa 48 a3 3d 59 f0 a7 bc
       0.13224646 0.0998493 0.07972844 -0.020500349
000270 a8 43 0e bd 4e 74 8c 3d 9c f9 cc 3c 67 30 25 bd
       -0.03473249 0.06858121 0.025021367 -0.040329363
000280 24 8c d4 3d 58 90 8f 3d 0b 1e e5 bd 04 ed 89 bd
       0.10378292 0.07009953 -0.11187371 -0.0673466
000290 39 d5 38 3d ad 0c 6c 3d 81 a2 d1 bd fb 0e 87 3d
       0.04512522 0.057629276 -0.10236073 0.06594654
0002a0 80 af 62 3d c3 6f 7c 3d c1 63 b8 bc 46 6f 92 bc
       0.05534315 0.06163002 -0.022508504 -0.017875325
0002b0 f0 cb b5 bd 47 7c 91 3d 36 3d 0c be 58 0c 00 3e
       -0.088767886 0.07103782 -0.13695225 0.12504709
0002c0 10 4c 36 3d c7 4a ff 3c ab b3 51 3d c0 b8 53 3c
       0.044506133 0.031163586 0.051196735 0.012922466
0002d0 a5 2e 30 3c 7b f1 af bd f0 b9 9d bd d3 88 a2 3d
       0.010753308 -0.085909806 -0.077014804 0.079362534
0002e0 9b 85 0b be 6d 04 97 bd 56 4d 76 3d b9 2d b3 3d
       -0.13625185 -0.07373891 0.060132347 0.08748955
0002f0 6e 91 e7 3d a4 26 83 3d ab cf 98 3d b2 7b 1a bc
       0.113070354 0.064038545 0.074614845 -0.009428905
000300 de 94 6a 3c 33 52 01 3c 90 36 df bd c0 46 b1 3d
       0.014317719 0.007893133 -0.10899079 0.086560726
000310 35 7e dc bd e3 d0 93 bd 89 f4 b8 3d e5 ba 46 38
       -0.107662596 -0.07217576 0.090310164 4.7380938e-05
000320 52 68 67 3d a9 98 2c bc 23 dc 46 bd 95 5a e9 bd
       0.056495972 -0.010534444 -0.048549782 -0.1139423
000330 93 62 4f bd 40 42 61 bb 03 b8 9d 3c bb 21 e1 3d
       -0.050631117 -0.0034371763 0.019252783 0.10992762
000340 b3 79 42 3c da da 59 bd 5d 96 db 3c 14 53 03 3e
       0.011869836 -0.05318723 0.026805097 0.1282466
000350 6c 59 9e bd b3 a6 09 be 22 63 39 3c b2 44 96 bd
       -0.077318996 -0.13442497 0.011315139 -0.07337321
000360 c1 29 32 bd d5 22 48 bd 44 23 fa bd aa ab bb bd
       -0.04349685 -0.048861343 -0.12213758 -0.09163602
000370 94 c0 fc 3d b6 79 a6 bd 73 98 e3 3d 0b fb d6 3d
       0.12341419 -0.08128683 0.11113062 0.104971014
000380 ce a4 bf bb 2e 55 f1 bc 88 71 00 be 50 41 ef 3d
       -0.0058485037 -0.029459562 -0.12543309 0.11682379
000390 75 fd 7f 3c 75 7e 01 be df 09 4f 3d 59 90 a4 3d
       0.015624394 -0.12645896 0.050546523 0.08035345
0003a0 71 df 54 3d db 56 96 bd 44 13 f5 bb b3 38 8f 3d
       0.051970903 -0.07340785 -0.0074791033 0.069932364
0003b0 cd f4 4a 3a 3b 38 0b 3c 5e f3 8c bd 29 c2 09 3c
       0.00077421666 0.008497293 -0.06882356 0.008408108
0003c0 b6 1a 9f bd 0a 0c fd 3d ab e4 1e bd d4 73 17 bc
       -0.077687666 0.12355812 -0.038792294 -0.009243924
0003d0 a5 0d ca bd 84 80 18 bd 41 89 d3 bd 5b 7f 82 3d
       -0.09865884 -0.037231937 -0.103289135 0.063719474
0003e0 8c 35 73 bd c4 20 c8 bd 2e 96 a3 bb eb 1a 90 3d
       -0.05937724 -0.097718745 -0.004992268 0.07036384
0003f0 f4 b9 a7 3d cb 7d 02 be 41 9d e2 bd 25 0c b8 3d
       0.081897646 -0.12743299 -0.1106515 0.089866914

convolution_layers.0.bias f4 [64]
000000 73 13 b3 bc 62 24 1e 3c 00 00 00 00 94 21 a6 3d
       -0.02185986 0.009652229 0.0 0.08111873
000010 44 f4 bf 3d 00 00 00 00 a4 2f 9a bb 36 32 94 3d
       0.09372762 0.0 -0.0047053862 0.072361395
000020 d7 86 22 3e c7 3f f0 3d 74 18 e5 3d 00 00 00 00
       0.1587175 0.117309146 0.11186305 0.0
000030 3b e7 b2 3d 00 00 00 00 b5 4d 4e bc f6 de d6 3d
       0.0873551 0.0 -0.012591769 0.10491745
000040 86 1e bc 3d 67 31 90 bc 92 b6 c0 3d 00 00 00 00
       0.091855094 -0.017601682 0.094098225 0.0
000050 02 bb dd 3d 8e 2b ab 3d 00 00 00 00 00 00 00 00
       0.108266845 0.08357917 0.0 0.0
000060 4c 0f 37 3e 8a de 1f 3e 00 00 00 00 a6 14 46 bd
       0.17876929 0.15612236 0.0 -0.048359536
000070 dc 10 c9 3d 1d b3 42 3e 0a f5 84 bd 5e 86 f3 3d
       0.09817669 0.19013639 -0.0649205 0.11890863
000080 00 00 00 00 87 dc 2c bc 58 0b c4 3d 51 87 b0 3d
       0.0 -0.010550625 0.09572476 0.086195596
000090 46 ec c3 3d 81 6b bf 3d fc 8a f4 3d 16 f8 9c 3d
       0.0956655 0.093466766 0.11940572 0.07664506
0000a0 00 00 00 00 75 b9 9f 3d 00 00 00 00 f7 e8 fe bc
       0.0 0.07799045 0.0 -0.031116946
0000b0 00 d5 96 ba 00 00 00 00 b2 20 0b 3e c9 41 e3 bd
       -0.0011507571 0.0 0.13586691 -0.11096532
0000c0 d0 d1 8a 3d 1c 70 97 3d 86 4c 9d 3d 00 00 00 00
       0.067783 0.0739443 0.07680611 0.0
0000d0 0f d4 e5 bb fd 92 b5 3d f3 4c eb 3d 76 2a e8 3d
       -0.0070138047 0.088659264 0.11489286 0.11336224
0000e0 00 00 00 00 ee 8b cc ba ca 4b b6 3d 21 e0 af 3d
       0.0 -0.0015605667 0.08901174 0.08587671
0000f0 a4 34 db bc 36 96 93 3d 27 e1 14 bd 97 0c 57 3d
       -0.0267585 0.07206385 -0.036347535 0.05250224

convolution_layers.1.weight f4 [64, 32]
000000 cc c8 df 3e 87 3e 6f be 1a 2e 8d 3e 31 ca cd 3e
       0.43707883 -0.23363696 0.27574235 0.40193322
000010 d0 0b ce bd b9 7b d6 be ac d6 81 bd b1 67 8d 3e
       -0.10060847 -0.41891268 -0.063397735 0.27618173
000020 0b 83 d9 be b5 12 c2 3e 4c d8 c4 3d d5 0d c4 3e
       -0.4248279 0.37904897 0.09611568 0.38291803
000030 6c 34 62 3e 7f a4 6b be 47 75 4d be ec 6a 1d be
       0.2209031 -0.23011969 -0.20064269 -0.15372819
000040 b7 77 be 3e e0 e7 d4 bc ba 25 8c 3e 6b b1 b3 3e
       0.3720071 -0.025989473 0.27372533 0.35096297
000050 d4 af 92 be 55 61 f5 3e 20 09 50 be 08 69 b3 3e
       -0.2864977 0.4792582 -0.20315981 0.3504107
000060 51 33 18 be 8e 81 17 be 70 d5 f8 3d b1 1c 49 be
       -0.14863326 -0.14795515 0.12150085 -0.19639851
000070 42 1f f9 3c 41 33 14 3e 5d c1 64 3e 59 3c 61 3d
       0.030410413 0.14472677 0.22339387 0.054989193
000080 e5 ee 37 3e 01 ce e9 bd 55 56 59 bd b8 38 82 3e
       0.17962225 -0.11416245 -0.05306085 0.25433898
000090 76 25 5e 3e c9 7c 41 be a0 b7 13 3e ff 0d 5e bd
       0.21693978 -0.18895258 0.14425516 -0.054212566
0000a0 e4 b3 3a 3d 85 a4 a6 bd 47 f8 f5 bd 8b ee f3 3d
       0.045581713 -0.08136848 -0.12010246 0.11910733
0000b0 85 d3 88 3e 23 e9 02 be 2b 45 91 bd 92 70 18 be
       0.26723877 -0.12784247 -0.07093271 -0.14886692
0000c0 05 f3 5f 3d 58 eb 25 3e cb ba 6a bd f8 1b 6d 3e
       0.05467512 0.16203058 -0.057307046 0.231552
0000d0 2d 5b 70 be b1 63 a3 bd b0 32 07 3e 8b e7 a2 bd
       -0.23472281 -0.07977999 0.1320293 -0.079543196
0000e0 10 d4 f7 3d 32 fe 35 be 90 c6 1d be c7 7a 56 be
       0.121009946 -0.17772749 -0.15407777 -0.20945273
0000f0 68 7c 1e be 97 8f 0e be 19 3c c9 bc 96 77 0c be
       -0.15477145 -0.13921963 -0.02456479 -0.13717493
000100 ea d8 1d 3e 10 a7 4f bd 08 db 30 bd 28 81 f2 bd
       0.15414777 -0.050696433 -0.043177634 -0.11841041
000110 52 5a 05 be 78 17 17 3e 0c 8f 8f 3d f2 ef 52 be
       -0.13022736 0.14755046 0.07009706 -0.20599344
000120 60 42 02 3c 30 bb 12 be 96 42 36 3e b4 cc 03 be
       0.007950395 -0.14329219 0.17798838 -0.12871057
000130 18 74 ff bd be ec 4b 3e 52 e1 14 3e 58 63 aa bd
       -0.12473315 0.19914529 0.14539078 -0.083197296
000140 60 aa 10 3c 14 d6 85 3d 34 21 e8 3d 94 d8 0b be
       0.008829683 0.06534973 0.11334458 -0.13656837
000150 40 ab f0 3d c0 86 a9 bc 3a 62 45 be 9c be 53 3e
       0.11751413 -0.020694137 -0.19275752 0.2067818
000160 e8 e1 37 bd 6c cc 49 3e 00 b2 60 3b 00 9c 85 b9
       -0.044893175 0.19706887 0.0034285784 -0.00025483966
000170 88 c5 1e 3e 00 5f 7a bc aa a7 28 3e a4 68 30 be
       0.1550504 -0.015281439 0.16470209 -0.17227417
000180 ee 84 3b bd 57 cb a7 bd 79 d5 1e be e8 a9 ff 3c
       -0.04578107 -0.08193081 -0.15511121 0.031208947
000190 40 06 80 be 5e c3 6b bc 8d 49 3c 3d 04 b1 88 3e
       -0.25004768 -0.014389841 0.04596858 0.26697552
0001a0 70 39 fc bd 2a 79 46 3e 2e 47 14 bd 31 a2 94 3e
       -0.12315643 0.19382158 -0.036200695 0.29029992
0001b0 3c a9 0b bd 87 d8 d4 3d 86 e6 81 be 5b 66 58 be
       -0.03409694 0.10392862 -0.25371188 -0.21132796
0001c0 fc 36 73 3e 70 e6 c5 bc bd ef 1a 3e 17 d6 18 3e
       0.23751444 -0.024157733 0.15130515 0.14925419
0001d0 f4 87 30 be 12 08 5e 3e 01 ba 80 be a2 ec 8c 3e
       -0.17239362 0.21682766 -0.2514191 0.27524287
0001e0 1a 1f 90 3b fd cb 43 3e 50 ec 02 bd e0 55 25 be
       0.004398239 0.19120784 -0.031963646 -0.1614604
0001f0 dd 07 81 be 84 8b bd 3d 4d 0e 14 be 51 b6 02 3e
       -0.25201312 0.09255126 -0.1445858 0.1276486
000200 08 fb 8d bd 04 05 40 bd b4 20 39 3e 46 ea 12 3e
       -0.06932646 -0.046879783 0.18078882 0.1434718
000210 f0 b6 e4 bd 0a c6 7a bd 8b f7 c9 3d 5c 48 bc 3d
       -0.11167705 -0.06122402 0.09861668 0.09193489
000220 b1 b6 0f 3e d6 de 2e 3d 76 7f 9e 3e 7e 5c 93 3c
       0.14034535 0.04269298 0.3095662 0.01798844
000230 63 03 96 3e f8 e5 15 3e 69 7c 8e be 9a f0 07 be
       0.2929946 0.14638507 -0.27829292 -0.13275376
000240 97 f0 e1 3d 14 d5 bf 3d 67 7e b1 bb b6 fd 14 3e
       0.11032217 0.09366813 -0.0054166797 0.14549908
000250 17 d3 13 3d fd 7c 69 3e 7e 5c a3 bc ba 67 6a 3e
       0.036089983 0.22801585 -0.019941565 0.22891131
000260 db f2 28 3e f2 aa f1 bd bc 6e 40 be 7e e0 15 be
       0.16498892 -0.11800183 -0.18792242 -0.14636418
000270 4f 4f e7 3d fd 44 8e 3e f8 d8 57 3e 5b 84 63 3c
       0.11294424 0.2778701 0.21078861 0.0138865365
000280 c8 d2 2c be da 0d 75 3e 00 04 a2 3b a8 c3 29 be
       -0.16877282 0.23931065 0.0049443245 -0.16578543
000290 38 8a f5 3d 64 ec aa 3d b8 11 68 bd b8 c4 81 3d
       0.11989254 0.08345869 -0.056657523 0.06336349
0002a0 b4 55 2a be 72 c7 4e be 32 08 05 3e 9a fd 7a 3e
       -0.16634256 -0.2019327 0.12991408 0.24510804
0002b0 72 ba 15 be e0 6b ef 3c 00 41 af 3b 80 69 fd 3c
       -0.14621904 0.029226243 0.005348325 0.030934095
0002c0 40 e9 90 3d 20 22 bb bc 40 ac 5a bd f8 18 7d 3d
       0.07075739 -0.02284342 -0.053386927 0.06179139
0002d0 fc af 13 3e 20 e8 d5 bd 00 32 dd bd e0 9b a5 bd
       0.14422601 -0.10444665 -0.10800552 -0.080863714
0002e0 22 86 39 3e 38 ea 12 3d 0a be 1a 3e 60 4e 11 bd
       0.18117574 0.0358679 0.15111557 -0.035475135
0002f0 e4 5a fc 3d 68 d7 39 bd 88 30 a2 3d 00 9e 41 3c
       0.123220235 -0.045371443 0.07919413 0.011817455
000300 f2 72 45 3e 23 7a 64 be 89 2f 18 3e 50 7a e2 bd
       0.1928213 -0.22312216 0.14861883 -0.110584855
000310 4a d2 29 bc 74 9d 42 3e ce 71 1c be 86 20 ec 3d
       -0.010365078 0.19005376 -0.15277788 0.11529641
000320 13 66 9d bd ae fb 3c 3e dd de b1 bd 5f 7e 8a 3e
       -0.07685485 0.18455383 -0.08685086 0.27049538
000330 0e a7 5d 3e dc 95 3e 3e 2b c9 97 be b1 fd 5f 3e
       0.21645758 0.18611854 -0.29645666 0.2187412
000340 12 4d 43 be e0 38 3a 3e 7b 3f fa bd 49 00 aa 3d
       -0.19072369 0.18185759 -0.12219139 0.08300836
000350 45 ec 20 3e 1c 9b 10 be 56 ac ae 3d 91 c4 05 be
       0.1571513 -0.1412167 0.08528964 -0.13063265
000360 35 54 2a 3d 7c 4c 1a be 00 9c 80 3a 23 e8 72 bd
       0.041584212 -0.15068239 0.0009812117 -0.059303414
000370 91 b4 c7 3c cb 4d 55 3b 48 00 d6 3d a1 76 47 bd
       0.024378093 0.003254759 0.104492724 -0.048697118
000380 7c fd 32 be 8f 14 e2 bd cf 21 50 3e 52 50 9a 3d
       -0.17479509 -0.110390775 0.20325397 0.07534851
000390 90 14 82 bd 58 5f 5a 3d dd e1 73 3e 27 f3 81 3e
       -0.06351578 0.053313583 0.23816629 0.25380823
0003a0 a0 95 8c 3d 9f 3b 8c 3e 58 96 8d 3e 3f 53 81 3e
       0.06864476 0.27389237 0.27653766 0.25258824
0003b0 8e 27 2b 3e 5b 83 42 bd cc 13 02 ba 8b f1 70 3d
       0.16714308 -0.04748855 -0.00049620564 0.058824103
0003c0 5f 90 35 bd 70 57 2d be 37 59 3d bd 27 80 5a 3e
       -0.044327136 -0.16927886 -0.04622766 0.21337949
0003d0 f1 d5 f1 bd b1 6b 94 bc 3b 9d a3 bd 86 bb f7 3d
       -0.11808384 -0.018117758 -0.07988974 0.12096314
0003e0 b9 7f 87 3d c5 be 5f be b2 12 45 3e 0b 76 09 3e
       0.06616158 -0.21850117 0.19245413 0.13423936
0003f0 9c 7b 3f 3d 29 be c8 bd a4 8c 94 3d 6a bd 38 3e
       0.046748742 -0.09801895 0.072533876 0.18041006

convolution_layers.1.bias f4 [32]
000000 8a 48 0b 3e df e6 bf bb 76 e2 16 3e c8 72 3c 3e
       0.1360189 -0.0058563794 0.14734825 0.1840316
000010 75 e7 af bc 63 7d 83 bd c6 86 70 bc b1 31 03 3e
       -0.021472672 -0.064204 -0.01468057 0.12811925
000020 23 4c a6 bd 20 57 08 3e c1 28 05 3e 2a 37 24 3e
       -0.08119991 0.13314486 0.13003828 0.16036668
000030 0a 54 ff 3d ca 09 a5 bd 8d ad 52 bd d8 46 81 bc
       0.12467201 -0.08058508 -0.051435042 -0.015780851
000040 2f 0f 06 3e 00 00 00 00 59 8a ff 3d 46 6c 0b 3e
       0.1309173 0.0 0.124775596 0.13615522
000050 50 10 2a bd 09 5d 35 3e 71 68 02 bd 8b db 3d 3e
       -0.041519463 0.17711271 -0.031837884 0.1854078
000060 05 4c db bc da 10 65 bd 00 00 00 00 a5 b0 b7 bd
       -0.026769647 -0.055924274 0.0 -0.08969239
000070 23 b3 e8 bc 5c 09 27 3e 6e 9c 1d 3e b9 08 00 3e
       -0.028405732 0.16312164 0.15391704 0.12503327

classify.weight f4 [1, 32]
000000 53 f3 17 3e 19 27 88 bd bd 9c 52 3e f0 80 bd 3e
       0.14838915 -0.06648082 0.20567603 0.37012434
000010 18 1b e0 3d b6 51 fb be c5 80 90 be c8 c3 41 3e
       0.10942668 -0.49085778 -0.28223243 0.18922341
000020 e1 f3 de be f1 e9 81 3e 0b 43 64 3e 5d 9b 93 3e
       -0.4354544 0.25373796 0.222912 0.2882947
000030 24 e1 82 3e 61 8a 5d be 27 06 18 bf 5d 56 af bb
       0.25562394 -0.21634819 -0.5938439 -0.0053508715
000040 9e 2c 64 3e 38 fe 17 be 35 1d 38 3e 27 c8 0c 3e
       0.22282645 -0.1484307 0.17979892 0.13748227
000050 d6 df f4 be f0 5f 7a 3e ab a9 d6 bd 2f ec a6 3e
       -0.47827023 0.2445066 -0.1048158 0.3260207
000060 28 ff 81 b8 ff 6e 4b be aa 00 17 bd 23 eb c0 be
       -6.198726e-05 -0.1986656 -0.036865868 -0.37679395
000070 cc d8 a7 be 6d af 8e 3e f5 73 cf 3d 8b 8b 7e 3e
       -0.3278259 0.27868214 0.10129539 0.24857919
