checkpoints/epoch_01_val_loss_5.9207.pt (torch, 76530 bytes, 5 tensors)

convolution_layers.0.weight f4 [253, 64]
0	0xbc9149e3	-0.017735427
1	0xbbbbe78b	-0.005734389
2	0x3c3bd8f6	0.011465302
3	0xbcdcab08	-0.026937023
4	0x3d2d902e	0.04237383
5	0x3d29c529	0.041447792
6	0xbd04ffee	-0.032470636
7	0xbd948f45	-0.07253889
8	0xbd5c0d06	-0.053723358
9	0x3ddcfc26	0.10790281
10	0xbdcc8437	-0.099861555
11	0x3e06acaa	0.13151804
12	0x3df07aac	0.11742148
13	0xbd82c3e1	-0.06385017
14	0xbd09a44a	-0.033603944
15	0x3e043447	0.12910567
16	0xbdff34bf	-0.124612324
17	0xbac49409	-0.0014997731
18	0x3cb68d8d	0.022284294
19	0xbdb38631	-0.08765829
20	0x3d701592	0.05861432
21	0xbd3c877e	-0.046027653
22	0xbc0fce2d	-0.0087771835
23	0xbd571c80	-0.052517414
24	0xbd77825a	-0.060427047
25	0xbde0193b	-0.10942312
26	0x3cedc7dd	0.029025966
27	0xbdb42f14	-0.08798042
28	0x3dcf985c	0.10136482
29	0xbd83b10b	-0.06430253
30	0x3da2061b	0.07911321
31	0xbd9849bc	-0.07435939
32	0x3d880f5d	0.06643555
33	0x3dea0cd6	0.114282295
34	0xbd87858a	-0.066172674
35	0x3dd4241d	0.103584506
36	0xbe03c16f	-0.12866758
37	0x3ddf5ad9	0.10906
38	0xbd9017e6	-0.07035808
39	0x3d985bb9	0.0743937
40	0xbde16650	-0.11005843
41	0xbcda3b91	-0.026639732
42	0x3e0ae802	0.13565066
43	0xbdb80983	-0.08986189
44	0x3db7025d	0.08935998
45	0xba123fac	-0.0005578946
46	0xbd92fc7a	-0.07177062
47	0xbdea263d	-0.114330746
48	0x3db384d5	0.0876557
49	0x3dc76f94	0.09738079
50	0xbd58e0b3	-0.052948665
51	0xbcf55533	-0.029947853
52	0x3d4c24ef	0.04983991
53	0xbd78a4a8	-0.060703903
54	0xbbe5721d	-0.0070021288
55	0x3dcec1f4	0.100955874
56	0x3d3a20f9	0.0454416
57	0x3d4b8dc9	0.049695764
58	0xbd3c1c64	-0.045925513
59	0xbdebcced	-0.11513696
60	0x3e0c448e	0.13698027
61	0x3dcbfb13	0.09959998
62	0x3bae0584	0.005310716
63	0xbb9a0f37	-0.004701521
64	0x3dc25efe	0.094907746
65	0x3ba0f1b7	0.004911627
66	0xbdb53f8c	-0.08850011
67	0x3df3b8ea	0.11900504
68	0xbdec308a	-0.115326956
69	0x3d737876	0.059441052
70	0x3cfdc5b6	0.030978065
71	0x3b033fe5	0.0020027098
72	0x3c98010d	0.018555189
73	0xbc847a1f	-0.016171513
74	0x3da06965	0.078326024
75	0x3dda727e	0.10666369
76	0xbdbd5595	-0.09244839
77	0x3df2293f	0.11824273
78	0xbb66480b	-0.0035138156
79	0xbd042c64	-0.032268897
80	0xbd9a46a2	-0.075330034
81	0x3dcc0feb	0.099639736
82	0xbca0710c	-0.019585155
83	0xbdea97d8	-0.11454743
84	0xbdd3d0dd	-0.10342572
85	0xbd6b9f4d	-0.057524968
86	0x3db22aac	0.08699545
87	0xbd932e4e	-0.07186566
88	0x3e057cf5	0.13035949
89	0x3d84d015	0.06485001
90	0xbe000e11	-0.12505366
91	0x3db9715b	0.09054824
92	0x3db8803e	0.09008835
93	0x3e0b3e8d	0.1359808
94	0x3d6dfd6f	0.05810302
95	0x3dd2888d	0.10279951
96	0xbc243737	-0.01002293
97	0x3acb0d91	0.0015491714
98	0xbca659cf	-0.020306496
99	0x3dd2dd88	0.1029616
100	0xbd598c47	-0.053112295
101	0xbc601eee	-0.013679249
102	0x3dae497d	0.085101105
103	0x3d1e287b	0.038612824
104	0x3d37fbeb	0.044917982
105	0x3d73ff8b	0.059569877
106	0x3cb2b93f	0.021816848
107	0xbdca7b77	-0.0988683
108	0x3d5d7935	0.05407067
109	0x3cb276d4	0.021785177
110	0xbe0c66a8	-0.13711035
111	0x3c7bc892	0.015367644
112	0x3d39b922	0.045342572
113	0xbbf62d29	-0.0075127077
114	0x3d39cd60	0.045361876
115	0xbe05e403	-0.13075261
116	0x3c6f344e	0.014599873
117	0x3e01a395	0.12660058
118	0x3e048571	0.12941529
119	0xbdf779e8	-0.12083799
120	0xbb053d34	-0.002033067
121	0xbd7e7443	-0.062122595
122	0x3d16a752	0.036780663
123	0x3de9d687	0.11417871
124	0x3dfc3319	0.123144336
125	0x3d9753e0	0.07389045
126	0x3d4085e6	0.047002696
127	0x3bd03a05	0.0063545727
128	0xbdbecead	-0.09316764
129	0x3dec443d	0.11536453
130	0x3da6893b	0.081316434
131	0x3bbfd6e2	0.0058544734
132	0xbd8fb646	-0.07017188
133	0x3db584ac	0.08863196
134	0x3defd478	0.11710447
135	0x3dfb5ad8	0.122731864
136	0xbc917cd4	-0.017759718
137	0xbdad0e17	-0.08449953
138	0x3df22cf1	0.11824978
139	0xbdcb87db	-0.09938022
140	0x3dc190d5	0.09451453
141	0x3d99ff76	0.075194284
142	0x3cbe4e11	0.023230584
143	0xbdb17c56	-0.08666293
144	0xbceba2d4	-0.028764166
145	0x3dd403f2	0.10352315
146	0x3ddf6c49	0.10909326
147	0xbd0c6a90	-0.034281313
148	0xbc88e425	-0.01671035
149	0x3cfabd1f	0.030607758
150	0x3d28f6b1	0.04125089
151	0x3da74c60	0.08168864
152	0x3e076b9e	0.13224646
153	0x3dcc7dca	0.0998493
154	0x3da348aa	0.07972844
155	0xbca7f059	-0.020500349
156	0xbd0e43a8	-0.03473249
157	0x3d8c744e	0.06858121
158	0x3cccf99c	0.025021367
159	0xbd253067	-0.040329363
160	0x3dd48c24	0.10378292
161	0x3d8f9058	0.07009953
162	0xbde51e0b	-0.11187371
163	0xbd89ed04	-0.0673466
164	0x3d38d539	0.04512522
165	0x3d6c0cad	0.057629276
166	0xbdd1a281	-0.10236073
167	0x3d870efb	0.06594654
168	0x3d62af80	0.05534315
169	0x3d7c6fc3	0.06163002
170	0xbcb863c1	-0.022508504
171	0xbc926f46	-0.017875325
172	0xbdb5cbf0	-0.088767886
173	0x3d917c47	0.07103782
174	0xbe0c3d36	-0.13695225
175	0x3e000c58	0.12504709
176	0x3d364c10	0.044506133
177	0x3cff4ac7	0.031163586
178	0x3d51b3ab	0.051196735
179	0x3c53b8c0	0.012922466
180	0x3c302ea5	0.010753308
181	0xbdaff17b	-0.085909806
182	0xbd9db9f0	-0.077014804
183	0x3da288d3	0.079362534
184	0xbe0b859b	-0.13625185
185	0xbd97046d	-0.07373891
186	0x3d764d56	0.060132347
187	0x3db32db9	0.08748955
188	0x3de7916e	0.113070354
189	0x3d8326a4	0.064038545
190	0x3d98cfab	0.074614845
191	0xbc1a7bb2	-0.009428905
192	0x3c6a94de	0.014317719
193	0x3c015233	0.007893133
194	0xbddf3690	-0.10899079
195	0x3db146c0	0.086560726
196	0xbddc7e35	-0.107662596
197	0xbd93d0e3	-0.07217576
198	0x3db8f489	0.090310164
199	0x3846bae5	4.7380938e-05
200	0x3d676852	0.056495972
201	0xbc2c98a9	-0.010534444
202	0xbd46dc23	-0.048549782
203	0xbde95a95	-0.1139423
204	0xbd4f6293	-0.050631117
205	0xbb614240	-0.0034371763
206	0x3c9db803	0.019252783
207	0x3de121bb	0.10992762
208	0x3c4279b3	0.011869836
209	0xbd59dada	-0.05318723
210	0x3cdb965d	0.026805097
211	0x3e035314	0.1282466
212	0xbd9e596c	-0.077318996
213	0xbe09a6b3	-0.13442497
214	0x3c396322	0.011315139
215	0xbd9644b2	-0.07337321
216	0xbd3229c1	-0.04349685
217	0xbd4822d5	-0.048861343
218	0xbdfa2344	-0.12213758
219	0xbdbbabaa	-0.09163602
220	0x3dfcc094	0.12341419
221	0xbda679b6	-0.08128683
222	0x3de39873	0.11113062
223	0x3dd6fb0b	0.104971014
224	0xbbbfa4ce	-0.0058485037
225	0xbcf1552e	-0.029459562
226	0xbe007188	-0.12543309
227	0x3def4150	0.11682379
228	0x3c7ffd75	0.015624394
229	0xbe017e75	-0.12645896
230	0x3d4f09df	0.050546523
231	0x3da49059	0.08035345
232	0x3d54df71	0.051970903
233	0xbd9656db	-0.07340785
234	0xbbf51344	-0.0074791033
235	0x3d8f38b3	0.069932364
236	0x3a4af4cd	0.00077421666
237	0x3c0b383b	0.008497293
238	0xbd8cf35e	-0.06882356
239	0x3c09c229	0.008408108
240	0xbd9f1ab6	-0.077687666
241	0x3dfd0c0a	0.12355812
242	0xbd1ee4ab	-0.038792294
243	0xbc1773d4	-0.009243924
244	0xbdca0da5	-0.09865884
245	0xbd188084	-0.037231937
246	0xbdd38941	-0.103289135
247	0x3d827f5b	0.063719474
248	0xbd73358c	-0.05937724
249	0xbdc820c4	-0.097718745
250	0xbba3962e	-0.004992268
251	0x3d901aeb	0.07036384
252	0x3da7b9f4	0.081897646
253	0xbe027dcb	-0.12743299
254	0xbde29d41	-0.1106515
255	0x3db80c25	0.089866914

convolution_layers.0.bias f4 [64]
0	0xbcaf115c	-0.021370582
1	0xbcb4c2d4	-0.022065558
2	0x00000000	0.0
3	0x3d3d6478	0.046238393
4	0x3d2207fd	0.0395584
5	0x00000000	0.0
6	0xbca11f9c	-0.019668393
7	0x3d37f33f	0.044909712
8	0x3d1bb6ff	0.038016316
9	0x3d572a2f	0.052530464
10	0x3d229272	0.039690442
11	0x00000000	0.0
12	0x3d46cf7b	0.048537713
13	0x00000000	0.0
14	0xbc4e3bdd	-0.012587515
15	0x3ceba9b7	0.02876745
16	0x3d493a8c	0.0491281
17	0xbc90213b	-0.01759397
18	0x3cde674c	0.027148865
19	0x00000000	0.0
20	0x3d34784e	0.044060044
21	0x3d39d67c	0.045370564
22	0x00000000	0.0
23	0x00000000	0.0
24	0x3cf06747	0.029346121
25	0x3d4aefa2	0.049544938
26	0x00000000	0.0
27	0xbd22fa2b	-0.03978936
28	0x3c882065	0.01661701
29	0x3d1ab480	0.037769794
30	0xbd1f9808	-0.038963348
31	0x3d4c451b	0.04987059
32	0x00000000	0.0
33	0xbc217bb4	-0.009856153
34	0x3d170d20	0.03687775
35	0x3d35ee61	0.04441679
36	0x3d181a33	0.03713436
37	0x3d3acc43	0.045604955
38	0x3d4629f5	0.048379857
39	0x3d3a60f3	0.045502614
40	0x00000000	0.0
41	0x3c3e8fd5	0.011630972
42	0x00000000	0.0
43	0xbd2f05ad	-0.042730022
44	0xbc52bf26	-0.012862956
45	0x00000000	0.0
46	0x3d388fa0	0.045058846
47	0xbd082b3b	-0.033244353
48	0xbc926d09	-0.017874258
49	0x3d2f317a	0.042771794
50	0x3d2e838e	0.04260593
51	0x00000000	0.0
52	0xbbe5c8ab	-0.007012447
53	0x3beecd88	0.007287685
54	0x3d466bad	0.04844253
55	0x3d3cd7f3	0.046104383
56	0x00000000	0.0
57	0xbc813703	-0.015773302
58	0x3d19bfe7	0.037536528
59	0x3d39abaa	0.045329727
60	0xbcdafe48	-0.026732579
61	0x3d3bcaf0	0.045847833
62	0xbce4fc90	-0.027952462
63	0xbcb12b13	-0.021626985

convolution_layers.1.weight f4 [64, 32]
0	0x3e2ded0d	0.16984959
1	0xbe6f3e87	-0.23363696
2	0xbc9d54d6	-0.019205492
3	0x3d485f47	0.04891899
4	0xbdce0bd0	-0.10060847
5	0xbe16a649	-0.1471187
6	0x3e2f3b6d	0.17112513
7	0x3cbfd965	0.023419091
8	0xbe109812	-0.1412051
9	0x3e03c505	0.12868126
10	0xbe25f9a1	-0.16208507
11	0x3dd3f4b1	0.103494056
12	0xbcd1cee7	-0.025611354
13	0xbdda8e15	-0.10671631
14	0x3d99030c	0.07471284
15	0xbe1d6da9	-0.15373863
16	0x3dedd4ad	0.1161283
17	0xbcd4e7e0	-0.025989473
18	0x3cdd0c66	0.026983451
19	0x3da586ff	0.08082389
20	0x3bff6dd8	0.007795077
21	0x3e16e55e	0.14735934
22	0x3caa812a	0.020813543
23	0x39eeabee	0.00045522995
24	0xbe1828e7	-0.14859353
25	0x3c1bc9da	0.009508574
26	0x3df8d570	0.12150085
27	0xbcd131d7	-0.02553646
28	0x3e2cc402	0.16871646
29	0xbe21b60c	-0.15792102
30	0xbd99d370	-0.07511032
31	0xbe4760ba	-0.19470492
32	0x3e217064	0.1576553
33	0xbde9cd23	-0.1141608
34	0xbd9ffd80	-0.07812023
35	0x3e59395a	0.21213284
36	0x3e5e2576	0.21693978
37	0xbe1537fe	-0.1457214
38	0x3e30cb97	0.17265163
39	0xbd9594c7	-0.07303768
40	0x3dd1ee85	0.10250572
41	0xbdcd9efe	-0.10040091
42	0xbe107264	-0.14106137
43	0x3db80e07	0.089870505
44	0x3e7f2d8e	0.24919721
45	0xbdf5c775	-0.12000934
46	0x3cc76e7e	0.024344679
47	0xbe186f24	-0.14886147
48	0x3d080f1c	0.033217534
49	0x3e25eb58	0.16203058
50	0xbd9b2493	-0.07575335
51	0x3e562076	0.2091082
52	0xbe2d1351	-0.169019
53	0xbdeb8a00	-0.11500931
54	0x3e131a83	0.14365582
55	0xbdf44349	-0.11926896
56	0x3df89a71	0.12138832
57	0xbe225878	-0.1585406
58	0xbe1dc690	-0.15407777
59	0xbe46ecd8	-0.19426286
60	0xbe060127	-0.13086377
61	0xbe2b9104	-0.16754538
62	0xbd544d14	-0.05183132
63	0xbe1fd23f	-0.15607546
64	0x3e1dd8ea	0.15414777
65	0xbd4fa710	-0.050696433
66	0xbd30db08	-0.043177634
67	0xbdf28128	-0.11841041
68	0xbe055a52	-0.13022736
69	0x3e171778	0.14755046
70	0x3d8f8f0c	0.07009706
71	0xbe52eff2	-0.20599344
72	0x3c024260	0.007950395
73	0xbe12bb30	-0.14329219
74	0x3e364296	0.17798838
75	0xbe03ccb4	-0.12871057
76	0xbdff7418	-0.12473315
77	0x3e4becbe	0.19914529
78	0x3e14e152	0.14539078
79	0xbdaa6358	-0.083197296
80	0x3c10aa60	0.008829683
81	0x3d85d614	0.06534973
82	0x3de82134	0.11334458
83	0xbe0bd894	-0.13656837
84	0x3df0ab40	0.11751413
85	0xbca986c0	-0.020694137
86	0xbe45623a	-0.19275752
87	0x3e53be9c	0.2067818
88	0xbd37e1e8	-0.044893175
89	0x3e49cc6c	0.19706887
90	0x3b60b200	0.0034285784
91	0xb9859c00	-0.00025483966
92	0x3e1ec588	0.1550504
93	0xbc7a5f00	-0.015281439
94	0x3e28a7aa	0.16470209
95	0xbe3068a4	-0.17227417
96	0xbd87c694	-0.06629673
97	0xbda7bf22	-0.081907526
98	0xbe374a22	-0.17899373
99	0xbc6abd8b	-0.014327417
100	0xbe7fcaaa	-0.24979654
101	0xbd2a8915	-0.041634638
102	0x3d6fe079	0.058563683
103	0x3e7dcc52	0.24784973
104	0xbe16e2b7	-0.14734922
105	0x3e317705	0.17330559
106	0xbd6619c2	-0.05617691
107	0x3e85d7f0	0.2614131
108	0xbd5a7747	-0.053336408
109	0x3dd004b9	0.10157151
110	0xbe880ff4	-0.2657467
111	0xbe58647b	-0.2113208
112	0x3e5e7524	0.21724373
113	0xbcc5e670	-0.024157733
114	0x3e07d492	0.13264683
115	0x3e044679	0.12917508
116	0xbe0e6659	-0.1390623
117	0x3e3d8e5f	0.18511342
118	0xbe77ec80	-0.24211311
119	0x3e727349	0.2367679
120	0x3ba54ae6	0.005044329
121	0x3e4c89c9	0.19974436
122	0xbd02ec50	-0.031963646
123	0xbe234e69	-0.1594788
124	0xbe790977	-0.24320017
125	0x3d824478	0.06360716
126	0xbe28a3f0	-0.16468787
127	0x3ddddecc	0.10833511
128	0xbdc4652f	-0.09589612
129	0xbd3fe702	-0.046851166
130	0x3e1a2b7c	0.1505565
131	0x3dbcc7cb	0.09217795
132	0xbde4b6f0	-0.11167705
133	0xbd9705b2	-0.07374133
134	0x3de81e59	0.11333913
135	0x3d897ad3	0.0671288
136	0x3e18a243	0.14905648
137	0x3c86661c	0.016406111
138	0x3e91399f	0.28364274
139	0xbc8c03d1	-0.017091664
140	0x3e894f77	0.2681844
141	0x3e18c7f4	0.14920026
142	0xbe89d2d2	-0.26918656
143	0xbe07eebf	-0.13274668
144	0x3dac1260	0.08401942
145	0x3dbfd514	0.09366813
146	0xbcf36d14	-0.029715098
147	0x3df47369	0.11936075
148	0x3d994567	0.074839406
149	0x3e426472	0.1898363
150	0xbc10bf23	-0.008834633
151	0x3e3c80a9	0.18408455
152	0x3e299d6a	0.16563955
153	0xbdd35b2c	-0.10320124
154	0xbe406ebc	-0.18792242
155	0xbe0d2124	-0.13782173
156	0x3dfd39dc	0.123645514
157	0x3e78a2ea	0.24280897
158	0x3e3cb003	0.18426518
159	0xbc366dc2	-0.011134567
160	0xbe2cd2c8	-0.16877282
161	0x3e750dda	0.23931065
162	0x3ba20400	0.0049443245
163	0xbe29c3a8	-0.16578543
164	0x3df58a38	0.11989254
165	0x3daaec64	0.08345869
166	0xbd6811b8	-0.056657523
167	0x3d81c4b8	0.06336349
168	0xbe2a55b4	-0.16634256
169	0xbe4ec772	-0.2019327
170	0x3e050832	0.12991408
171	0x3e7afd9a	0.24510804
172	0xbe15ba72	-0.14621904
173	0x3cef6be0	0.029226243
174	0x3baf4100	0.005348325
175	0x3cfd6980	0.030934095
176	0x3d90e940	0.07075739
177	0xbcbb2220	-0.02284342
178	0xbd5aac40	-0.053386927
179	0x3d7d18f8	0.06179139
180	0x3e13affc	0.14422601
181	0xbdd5e820	-0.10444665
182	0xbddd3200	-0.10800552
183	0xbda59be0	-0.080863714
184	0x3e398622	0.18117574
185	0x3d12ea38	0.0358679
186	0x3e1abe0a	0.15111557
187	0xbd114e60	-0.035475135
188	0x3dfc5ae4	0.123220235
189	0xbd39d768	-0.045371443
190	0x3da23088	0.07919413
191	0x3c419e00	0.011817455
192	0x3e33d40f	0.17561363
193	0xbe647a3a	-0.2231225
194	0x3e0460a5	0.12927492
195	0xbe17ca6f	-0.14823316
196	0xbc351c60	-0.011054128
197	0x3e454f70	0.19268584
198	0xbe079084	-0.13238722
199	0x3dcd0a29	0.100117035
200	0xbd477ef2	-0.04870505
201	0x3e2d45db	0.16921179
202	0xbdd51d6a	-0.10406001
203	0x3e7cb9de	0.24680278
204	0x3e4e9823	0.20175223
205	0x3e40ece6	0.1884037
206	0xbe883382	-0.26601797
207	0x3e5fff19	0.21874656
208	0xbe551ddd	-0.20812173
209	0x3e3a38e0	0.18185759
210	0xbe0c6502	-0.13710406
211	0x3d8644f0	0.065561175
212	0x3e55b99e	0.20871589
213	0xbe2cdfa0	-0.16882181
214	0x3dc011ba	0.09378381
215	0xbe27f7fd	-0.16403194
216	0x3d2bb9b5	0.04192515
217	0xbe0e5368	-0.13899004
218	0x3a809c00	0.0009812117
219	0xbd52c50f	-0.05145746
220	0x3d2bbf44	0.041930452
221	0xbca1fbdc	-0.019773416
222	0x3dac726d	0.084202625
223	0xbd82f27d	-0.06393907
224	0xbe2a76b4	-0.16646844
225	0xbde2083d	-0.110367276
226	0x3e54a567	0.20766221
227	0x3d5f601a	0.05453501
228	0xbd19c558	-0.037541717
229	0xbd27543c	-0.040851817
230	0x3e5d5532	0.2161453
231	0x3e85c7e5	0.2612907
232	0xbc6228d3	-0.013803679
233	0x3e8e598f	0.27802703
234	0x3e91f789	0.28509167
235	0x3e7f466e	0.2492921
236	0x3e319b3b	0.17344372
237	0xbd96e887	-0.0736857
238	0xbdb5e829	-0.08882172
239	0x3d70f93b	0.058831435
240	0xbd106a91	-0.03525788
241	0xbe2d5770	-0.16927886
242	0xbd1820a8	-0.03714052
243	0x3e653aec	0.22385758
244	0xbe144788	-0.14480412
245	0xbcac654c	-0.021044396
246	0xbdb9c08b	-0.09069928
247	0x3de0c908	0.10975844
248	0x3d88e930	0.06685102
249	0xbe76a12d	-0.24084921
250	0x3e4512b2	0.19245413
251	0x3dd45345	0.10367445
252	0x3c85b052	0.016319428
253	0xbdd10992	-0.102069035
254	0x3db3c91f	0.08778595
255	0x3e41217d	0.18860431

convolution_layers.1.bias f4 [32]
0	0x3d32dcfb	0.043667775
1	0xbbbfd443	-0.005854161
2	0x3d34a5ff	0.04410362
3	0x3d35544b	0.04426984
4	0x00000000	0.0
5	0xbbbecc83	-0.0058227195
6	0xbc433216	-0.011913797
7	0x3d2e0617	0.042486276
8	0xbc501f88	-0.01270283
9	0x3d2c3135	0.042039115
10	0x3d3274f8	0.04356858
11	0x3d403bf9	0.046932194
12	0x3d2b78d4	0.041863278
13	0xbd1d1016	-0.03834542
14	0xbcad983c	-0.021190755
15	0xbc811da5	-0.015761206
16	0x3d303a3f	0.043024298
17	0x00000000	0.0
18	0x3d2de355	0.04245313
19	0x3d35b0ee	0.044358186
20	0xbc47f358	-0.012204014
21	0x3d482410	0.048862517
22	0xbcf3c50a	-0.029757041
23	0x3d2a6cba	0.041607596
24	0xbcded99e	-0.027203377
25	0xbcfa0149	-0.030518191
26	0x00000000	0.0
27	0xbd05fa64	-0.032709494
28	0xbc4ae41a	-0.012383485
29	0x3d41617d	0.047212113
30	0x3d4a9ca6	0.049465798
31	0x3d2c67d1	0.042091195

classify.weight f4 [1, 32]
0	0x3dd1432d	0.10217891
1	0xbd882f21	-0.06649614
2	0x3df8fab0	0.1215719
3	0x3e5dd439	0.21662988
4	0x3e075dc7	0.13219367
5	0xbdd88aa3	-0.10573318
6	0xbd9ba8db	-0.07600566
7	0x3e1fde37	0.15612112
8	0xbda04551	-0.07825721
9	0x3e4d1d31	0.20030667
10	0x3e3c7442	0.18403724
11	0x3e4b2149	0.19836916
12	0x3e5e7e9d	0.21727987
13	0xbe10abc6	-0.14128026
14	0xbe003850	-0.12521482
15	0xbbaf7812	-0.0053548897
16	0x3e2dddbc	0.16979116
17	0xbe17fe38	-0.1484307
18	0x3e2121a1	0.15735485
19	0x3dc3707f	0.09542941
20	0xbdecab77	-0.11556142
21	0x3e04bcae	0.129626
22	0xbcf46779	-0.029834496
23	0x3e3963cd	0.18104477
24	0x3afa72cf	0.0019107702
25	0xbd66acdc	-0.056317195
26	0xbd1700aa	-0.036865868
27	0xbe0c1f68	-0.13683856
28	0xbe280a94	-0.16410285
29	0x3e41d99d	0.18930669
30	0x3d753512	0.059865065
31	0x3e4c6211	0.19959284
