checkpoints/epoch_12_val_loss_5.4195.pt (torch, 76530 bytes, 5 tensors)

convolution_layers.0.weight f4 [253, 64]
-0.017735427 -0.005734389 0.011465302 -0.026937023 0.04237383 0.041447792 -0.032470636 -0.07253889
-0.053723358 0.10790281 -0.099861555 0.13151804 0.11742148 -0.06385017 -0.033603944 0.12910567
-0.124612324 -0.0014997731 0.022284294 -0.08765829 0.05861432 -0.046027653 -0.0087771835 -0.052517414
-0.060427047 -0.10942312 0.029025966 -0.08798042 0.10136482 -0.06430253 0.07911321 -0.07435939
0.06643555 0.114282295 -0.066172674 0.103584506 -0.12866758 0.10906 -0.07035808 0.0743937
-0.11005843 -0.026639732 0.13565066 -0.08986189 0.08935998 -0.0005578946 -0.07177062 -0.114330746
0.0876557 0.09738079 -0.052948665 -0.029947853 0.04983991 -0.060703903 -0.0070021288 0.100955874
0.0454416 0.049695764 -0.045925513 -0.11513696 0.13698027 0.09959998 0.005310716 -0.004701521
0.094907746 0.004911627 -0.08850011 0.11900504 -0.115326956 0.059441052 0.030978065 0.0020027098
0.018555189 -0.016171513 0.078326024 0.10666369 -0.09244839 0.11824273 -0.0035138156 -0.032268897
-0.075330034 0.099639736 -0.019585155 -0.11454743 -0.10342572 -0.057524968 0.08699545 -0.07186566
0.13035949 0.06485001 -0.12505366 0.09054824 0.09008835 0.1359808 0.05810302 0.10279951
-0.01002293 0.0015491714 -0.020306496 0.1029616 -0.053112295 -0.013679249 0.085101105 0.038612824
0.044917982 0.059569877 0.021816848 -0.0988683 0.05407067 0.021785177 -0.13711035 0.015367644
0.045342572 -0.0075127077 0.045361876 -0.13075261 0.014599873 0.12660058 0.12941529 -0.12083799
-0.002033067 -0.062122595 0.036780663 0.11417871 0.123144336 0.07389045 0.047002696 0.0063545727
-0.09316764 0.11536453 0.081316434 0.0058544734 -0.07017188 0.08863196 0.11710447 0.122731864
-0.017759718 -0.08449953 0.11824978 -0.09938022 0.09451453 0.075194284 0.023230584 -0.08666293
-0.028764166 0.10352315 0.10909326 -0.034281313 -0.01671035 0.030607758 0.04125089 0.08168864
0.13224646 0.0998493 0.07972844 -0.020500349 -0.03473249 0.06858121 0.025021367 -0.040329363
0.10378292 0.07009953 -0.11187371 -0.0673466 0.04512522 0.057629276 -0.10236073 0.06594654
0.05534315 0.06163002 -0.022508504 -0.017875325 -0.088767886 0.07103782 -0.13695225 0.12504709
0.044506133 0.031163586 0.051196735 0.012922466 0.010753308 -0.085909806 -0.077014804 0.079362534
-0.13625185 -0.07373891 0.060132347 0.08748955 0.113070354 0.064038545 0.074614845 -0.009428905
0.014317719 0.007893133 -0.10899079 0.086560726 -0.107662596 -0.07217576 0.090310164 4.7380938e-05
0.056495972 -0.010534444 -0.048549782 -0.1139423 -0.050631117 -0.0034371763 0.019252783 0.10992762
0.011869836 -0.05318723 0.026805097 0.1282466 -0.077318996 -0.13442497 0.011315139 -0.07337321
-0.04349685 -0.048861343 -0.12213758 -0.09163602 0.12341419 -0.08128683 0.11113062 0.104971014
-0.0058485037 -0.029459562 -0.12543309 0.11682379 0.015624394 -0.12645896 0.050546523 0.08035345
0.051970903 -0.07340785 -0.0074791033 0.069932364 0.00077421666 0.008497293 -0.06882356 0.008408108
-0.077687666 0.12355812 -0.038792294 -0.009243924 -0.09865884 -0.037231937 -0.103289135 0.063719474
-0.05937724 -0.097718745 -0.004992268 0.07036384 0.081897646 -0.12743299 -0.1106515 0.089866914
00000000: e349 91bc 8be7 bbbb f6d8 3b3c 08ab dcbc
00000010: 2e90 2d3d 29c5 293d eeff 04bd 458f 94bd
00000020: 060d 5cbd 26fc dc3d 3784 ccbd aaac 063e
00000030: ac7a f03d e1c3 82bd 4aa4 09bd 4734 043e
00000040: bf34 ffbd 0994 c4ba 8d8d b63c 3186 b3bd
00000050: 9215 703d 7e87 3cbd 2dce 0fbc 801c 57bd
00000060: 5a82 77bd 3b19 e0bd ddc7 ed3c 142f b4bd
00000070: 5c98 cf3d 0bb1 83bd 1b06 a23d bc49 98bd
00000080: 5d0f 883d d60c ea3d 8a85 87bd 1d24 d43d
00000090: 6fc1 03be d95a df3d e617 90bd b95b 983d
000000a0: 5066 e1bd 913b dabc 02e8 0a3e 8309 b8bd
000000b0: 5d02 b73d ac3f 12ba 7afc 92bd 3d26 eabd
000000c0: d584 b33d 946f c73d b3e0 58bd 3355 f5bc
000000d0: ef24 4c3d a8a4 78bd 1d72 e5bb f4c1 ce3d
000000e0: f920 3a3d c98d 4b3d 641c 3cbd edcc ebbd
000000f0: 8e44 0c3e 13fb cb3d 8405 ae3b 370f 9abb
00000100: fe5e c23d b7f1 a03b 8c3f b5bd eab8 f33d
00000110: 8a30 ecbd 7678 733d b6c5 fd3c e53f 033b
00000120: 0d01 983c 1f7a 84bc 6569 a03d 7e72 da3d
00000130: 9555 bdbd 3f29 f23d 0b48 66bb 642c 04bd
00000140: a246 9abd eb0f cc3d 0c71 a0bc d897 eabd
00000150: ddd0 d3bd 4d9f 6bbd ac2a b23d 4e2e 93bd
00000160: f57c 053e 15d0 843d 110e 00be 5b71 b93d
00000170: 3e80 b83d 8d3e 0b3e 6ffd 6d3d 8d88 d23d
00000180: 3737 24bc 910d cb3a cf59 a6bc 88dd d23d
00000190: 478c 59bd ee1e 60bc 7d49 ae3d 7b28 1e3d
000001a0: ebfb 373d 8bff 733d 3fb9 b23c 777b cabd
000001b0: 3579 5d3d d476 b23c a866 0cbe 92c8 7b3c
000001c0: 22b9 393d 292d f6bb 60cd 393d 03e4 05be
000001d0: 4e34 6f3c 95a3 013e 7185 043e e879 f7bd
000001e0: 343d 05bb 4374 7ebd 52a7 163d 87d6 e93d
000001f0: 1933 fc3d e053 973d e685 403d 053a d03b
00000200: adce bebd 3d44 ec3d 3b89 a63d e2d6 bf3b
00000210: 46b6 8fbd ac84 b53d 78d4 ef3d d85a fb3d
00000220: d47c 91bc 170e adbd f12c f23d db87 cbbd
00000230: d590 c13d 76ff 993d 114e be3c 567c b1bd
00000240: d4a2 ebbc f203 d43d 496c df3d 906a 0cbd
00000250: 25e4 88bc 1fbd fa3c b1f6 283d 604c a73d
00000260: 9e6b 073e ca7d cc3d aa48 a33d 59f0 a7bc
00000270: a843 0ebd 4e74 8c3d 9cf9 cc3c 6730 25bd
00000280: 248c d43d 5890 8f3d 0b1e e5bd 04ed 89bd
00000290: 39d5 383d ad0c 6c3d 81a2 d1bd fb0e 873d
000002a0: 80af 623d c36f 7c3d c163 b8bc 466f 92bc
000002b0: f0cb b5bd 477c 913d 363d 0cbe 580c 003e
000002c0: 104c 363d c74a ff3c abb3 513d c0b8 533c
000002d0: a52e 303c 7bf1 afbd f0b9 9dbd d388 a23d
000002e0: 9b85 0bbe 6d04 97bd 564d 763d b92d b33d
000002f0: 6e91 e73d a426 833d abcf 983d b27b 1abc
00000300: de94 6a3c 3352 013c 9036 dfbd c046 b13d
00000310: 357e dcbd e3d0 93bd 89f4 b83d e5ba 4638
00000320: 5268 673d a998 2cbc 23dc 46bd 955a e9bd
00000330: 9362 4fbd 4042 61bb 03b8 9d3c bb21 e13d
00000340: b379 423c dada 59bd 5d96 db3c 1453 033e
00000350: 6c59 9ebd b3a6 09be 2263 393c b244 96bd
00000360: c129 32bd d522 48bd 4423 fabd aaab bbbd
00000370: 94c0 fc3d b679 a6bd 7398 e33d 0bfb d63d
00000380: cea4 bfbb 2e55 f1bc 8871 00be 5041 ef3d
00000390: 75fd 7f3c 757e 01be df09 4f3d 5990 a43d
000003a0: 71df 543d db56 96bd 4413 f5bb b338 8f3d
000003b0: cdf4 4a3a 3b38 0b3c 5ef3 8cbd 29c2 093c
000003c0: b61a 9fbd 0a0c fd3d abe4 1ebd d473 17bc
000003d0: a50d cabd 8480 18bd 4189 d3bd 5b7f 823d
000003e0: 8c35 73bd c420 c8bd 2e96 a3bb eb1a 903d
000003f0: f4b9 a73d cb7d 02be 419d e2bd 250c b83d

convolution_layers.0.bias f4 [64]
-0.0075178067 -0.03137913 0.0 0.060127378 0.06591617 0.0 -0.027261073 0.05685656
0.112445444 0.080982514 0.07279176 0.0 0.066873 0.0 -0.012591769 0.06357433
0.07098107 -0.017601682 0.058936168 0.0 0.066626795 0.06571363 0.0 0.0
0.12846883 0.11202341 0.0 -0.048511274 0.059000622 0.13632423 -0.04460214 0.0810389
0.0 -0.009528527 0.065591365 0.06103014 0.0651678 0.06519313 0.08325392 0.05755873
0.0 0.045122325 0.0 -0.06883361 -0.0073417355 0.0 0.08795471 -0.09343616
0.01859493 0.051292296 0.05023586 0.0 -0.0070138047 0.04952576 0.07637841 0.07743763
0.0 -0.004147048 0.054390114 0.064533636 -0.0267585 0.057280626 -0.047362745 -0.0015502925
00000000: ef57 f6bb 6787 00bd 0000 0000 2048 763d
00000010: 0fff 863d 0000 0000 9d52 dfbc 6de2 683d
00000020: cc49 e63d 29da a53d d913 953d 0000 0000
00000030: b6f4 883d 0000 0000 b54d 4ebc 4233 823d
00000040: 865e 913d 6731 90bc 0d67 713d 0000 0000
00000050: a173 883d de94 863d 0000 0000 0000 0000
00000060: 558d 033e 886c e53d 0000 0000 c2b3 46bd
00000070: a3aa 713d 9498 0b3e bcb0 36bd b9f7 a53d
00000080: 0000 0000 8a1d 1cbc c454 863d bdfa 793d
00000090: b276 853d fa83 853d 0881 aa3d b4c2 6b3d
000000a0: 0000 0000 30d2 383d 0000 0000 a3f8 8cbd
000000b0: f192 f0bb 0000 0000 9921 b43d 755b bfbd
000000c0: 6554 983c df17 523d 1ec4 4d3d 0000 0000
000000d0: 0fd4 e5bb 86db 4a3d 496c 9c3d 9f97 9e3d
000000e0: 0000 0000 f6e3 87bb 2bc8 5e3d 362a 843d
000000f0: a434 dbbc 179f 6a3d 70ff 41bd 2f33 cbba

convolution_layers.1.weight f4 [64, 32]
0.20722795 -0.23363696 0.03411764 0.14466049 -0.10060847 -0.21704125 0.17110075 0.054771606
-0.2545984 0.15935673 -0.12751953 0.15904194 0.0035721806 -0.09974432 0.038535252 -0.15372819
0.14942178 -0.025989473 0.058392126 0.12047773 -0.020854563 0.23568767 0.020750051 0.09936221
-0.14863326 0.0045649484 0.12150085 -0.028605713 0.20249479 -0.084826276 -0.016424056 -0.16395001
0.16607086 -0.11416245 -0.068852015 0.23028006 0.21693978 -0.1487041 0.17264791 -0.065459736
0.088611156 -0.092807844 -0.1325389 0.10149431 0.2565846 -0.12060506 -0.009785446 -0.14886692
0.04172901 0.16203058 -0.068148725 0.21759617 -0.18263704 -0.10145943 0.14364374 -0.10308105
0.121009946 -0.16182607 -0.15407777 -0.19581546 -0.13606182 -0.15633564 -0.042355485 -0.14847061
0.15414777 -0.050696433 -0.043177634 -0.11841041 -0.13022736 0.14755046 0.07009706 -0.20599344
0.007950395 -0.14329219 0.17798838 -0.12871057 -0.12473315 0.19914529 0.14539078 -0.083197296
0.008829683 0.06534973 0.11334458 -0.13656837 0.11751413 -0.020694137 -0.19275752 0.2067818
-0.044893175 0.19706887 0.0034285784 -0.00025483966 0.1550504 -0.015281439 0.16470209 -0.17227417
-0.05615106 -0.08193081 -0.16812561 0.009081684 -0.25004768 -0.003205754 0.05856495 0.25763065
-0.10903966 0.18327056 -0.04578068 0.27456328 -0.04348283 0.10630067 -0.23356138 -0.21132796
0.22763434 -0.024157733 0.14245221 0.13909532 -0.15026568 0.19944897 -0.24200362 0.25593707
0.004398236 0.20109761 -0.031963646 -0.15522383 -0.2472499 0.076767005 -0.15531023 0.11825877
-0.08152354 -0.046879783 0.1657761 0.11917552 -0.11167705 -0.047131598 0.113336235 0.08087773
0.15796988 0.030319612 0.29823187 0.00025073614 0.28192613 0.15031502 -0.2547227 -0.13275376
0.098647945 0.09366813 -0.015931476 0.13354336 0.061009772 0.20859452 -0.00872506 0.20737466
0.16498892 -0.105246395 -0.18792242 -0.13798001 0.119055614 0.26009768 0.198212 0.0027647594
-0.16877282 0.23931065 0.0049443245 -0.16578543 0.11989254 0.08345869 -0.056657523 0.06336349
-0.16634256 -0.2019327 0.12991408 0.24510804 -0.14621904 0.029226243 0.005348325 0.030934095
0.07075739 -0.02284342 -0.053386927 0.06179139 0.14422601 -0.10444665 -0.10800552 -0.080863714
0.18117574 0.0358679 0.15111557 -0.035475135 0.123220235 -0.045371443 0.07919413 0.011817455
0.18391454 -0.22312216 0.13831049 -0.12585856 -0.010365078 0.21431309 -0.13239095 0.107761666
-0.05067923 0.1768483 -0.09520625 0.25910905 0.20924817 0.19037035 -0.2553834 0.2187412
-0.19939698 0.18185759 -0.12944618 0.07391169 0.19558327 -0.15471153 0.09377564 -0.14522816
0.041584212 -0.13993819 0.0009812117 -0.050969277 0.03736847 -0.007930525 0.09343342 -0.056290086
-0.172303 -0.110390775 0.20202349 0.06182567 -0.06351578 0.0370686 0.21615508 0.2563103
0.054941088 0.27349737 0.27980664 0.24580102 0.16903901 -0.05855723 -0.0128576765 0.058824103
-0.04066067 -0.16927886 -0.042164378 0.21732101 -0.13508335 -0.025017949 -0.090135634 0.11150316
0.06616158 -0.23025163 0.19245413 0.12212818 0.02407585 -0.105086535 0.07845101 0.1838064
00000000: 9033 543e 873e 6fbe f0be 0b3d e121 143e
00000010: d00b cebd 1040 5ebe 0935 2f3e 3158 603d
00000020: b95a 82be 692e 233e 7b94 02be e4db 223e
00000030: 3f1b 6a3b c046 ccbd 24d7 1d3d ec6a 1dbe
00000040: 0602 193e e0e7 d4bc 952c 6f3d 07bd f63d
00000050: 30d7 aabc 1c58 713e 03fc a93c 6a7e cb3d
00000060: 5133 18be 9095 953b 70d5 f83d 8756 eabc
00000070: cb5a 4f3e 66b9 adbd be8b 86bc 83e2 27be
00000080: 7b0e 2a3e 01ce e9bd 4902 8dbd 89ce 6b3e
00000090: 7625 5e3e e345 18be 9dca 303e c10f 86bd
000000a0: c479 b53d 0a12 bebd 47b8 07be 40dc cf3d
000000b0: 0f5f 833e c9ff f6bd 2353 20bc 9270 18be
000000c0: 0aec 2a3d 58eb 253e 8f91 8bbd 88d1 5e3e
000000d0: 3405 3bbe f6c9 cfbd 5817 133e 281c d3bd
000000e0: 10d4 f73d bcb5 25be 90c6 1dbe d983 48be
000000f0: ca53 0bbe 7316 20be f27c 2dbd ae08 18be
00000100: ead8 1d3e 10a7 4fbd 08db 30bd 2881 f2bd
00000110: 525a 05be 7817 173e 0c8f 8f3d f2ef 52be
00000120: 6042 023c 30bb 12be 9642 363e b4cc 03be
00000130: 1874 ffbd beec 4b3e 52e1 143e 5863 aabd
00000140: 60aa 103c 14d6 853d 3421 e83d 94d8 0bbe
00000150: 40ab f03d c086 a9bc 3a62 45be 9cbe 533e
00000160: e8e1 37bd 6ccc 493e 00b2 603b 009c 85b9
00000170: 88c5 1e3e 005f 7abc aaa7 283e a468 30be
00000180: a7fe 65bd 57cb a7bd 1f29 2cbe 58cb 143c
00000190: 4006 80be a117 52bb cde1 6f3d 2ae8 833e
000001a0: 2f50 dfbd 47ab 3b3e 8684 3bbd 8f93 8c3e
000001b0: 0d1b 32bd 2ab4 d93d b72a 6fbe 5b66 58be
000001c0: fa18 693e 70e6 c5bc fede 113e 016f 0e3e
000001d0: 3fdf 19be 5a3c 4c3e cccf 77be 2f0a 833e
000001e0: 141f 903b 88ec 4d3e 50ec 02bd fff2 1ebe
000001f0: 142f 7dbe 0538 9d3d a509 1fbe a731 f23d
00000200: d0f5 a6bd 0405 40bd 36c1 293e 4c12 f43d
00000210: f0b6 e4bd 100d 41bd d41c e83d 39a3 a53d
00000220: dbc2 213e d660 f83c d9b1 983e 3c75 8339
00000230: 9f58 903e 2eec 193e 046b 82be 9af0 07be
00000240: ef07 ca3d 14d5 bf3d ba82 82bc 97bf 083e
00000250: 62e5 793d cd99 553e 8ef3 0ebc 065a 543e
00000260: dbf2 283e 6c8b d7bd bc6e 40be a24a 0dbe
00000270: 6ed3 f33d 862b 853e 16f8 4a3e f730 353b
00000280: c8d2 2cbe da0d 753e 0004 a23b a8c3 29be
00000290: 388a f53d 64ec aa3d b811 68bd b8c4 813d
000002a0: b455 2abe 72c7 4ebe 3208 053e 9afd 7a3e
000002b0: 72ba 15be e06b ef3c 0041 af3b 8069 fd3c
000002c0: 40e9 903d 2022 bbbc 40ac 5abd f818 7d3d
000002d0: fcaf 133e 20e8 d5bd 0032 ddbd e09b a5bd
000002e0: 2286 393e 38ea 123d 0abe 1a3e 604e 11bd
000002f0: e45a fc3d 68d7 39bd 8830 a23d 009e 413c
00000300: 1854 3c3e 237a 64be 44a1 0d3e 11e1 00be
00000310: 4ad2 29bc e474 5b3e 7e91 07be 26b2 dc3d
00000320: 0695 4fbd b917 353e 7ffb c2bd f1a9 843e
00000330: 2745 563e 72f0 423e 9dc1 82be b1fd 5f3e
00000340: b92e 4cbe e038 3a3e 8a8d 04be 035f 973d
00000350: fb46 483e b36c 1ebe 710d c03d b1b6 14be
00000360: 3554 2a3d f54b 0fbe 009c 803a 29c5 50bd
00000370: ae0f 193d 08ef 01bc 055a bf3d 6f90 66bd
00000380: 3370 30be 8f14 e2bd 3fdf 4e3e ea3c 7d3d
00000390: 9014 82bd 3fd5 173d c257 5d3e 1b3b 833e
000003a0: e809 613d d907 8c3e d142 8f3e 43b3 7b3e
000003b0: 9018 2d3e b5d9 6fbd 01a9 52bc 8bf1 703d
000003c0: cd8b 26bd 7057 2dbe 8eb4 2cbd 6689 5e3e
000003d0: 4a53 0abe 71f2 ccbc 0899 b8bd c55b e43d
000003e0: b97f 873d 15c7 6bbe b212 453e 571e fa3d
000003f0: b83a c53c 9c37 d7bd ecaa a03d bf37 3c3e

convolution_layers.1.bias f4 [32]
0.104748525 -0.0058563794 0.108991705 0.12955905 -0.021472672 -0.042559613 -0.011909709 0.098758206
-0.049797058 0.0979157 0.10201342 0.11594015 0.096280776 -0.07014699 -0.028355716 -0.015780851
0.101284936 0.0 0.09877496 0.106606394 -0.020225255 0.1284472 -0.027038677 0.1316337
-0.026769647 -0.039101712 0.0 -0.07296639 -0.025688743 0.11731589 0.121131025 0.0977918
00000000: 6586 d63d dfe6 bfbb 0b37 df3d 21ab 043e
00000010: 75e7 afbc fd52 2ebd f120 43bc be41 ca3d
00000020: 00f8 4bbd 0788 c83d 69ec d03d 0872 ed3d
00000030: db2e c53d 3aa9 8fbd 3f4a e8bc d846 81bc
00000040: 7a6e cf3d 0000 0000 874a ca3d 7454 da3d
00000050: 6faf a5bc aa87 033e 3780 ddbc fcca 063e
00000060: 054c dbbc 1e29 20bd 0000 0000 676f 95bd
00000070: 3371 d2bc 5043 f03d 8b13 f83d 1147 c83d

classify.weight f4 [1, 32]
0.12155549 -0.06648082 0.16074784 0.28381538 0.10942668 -0.289054 -0.07600493 0.16655904
-0.24469142 0.22128029 0.19687085 0.23774686 0.2302712 -0.16033463 -0.36358055 -0.0053508715
0.19131868 -0.1484307 0.16748385 0.1119631 -0.22771141 0.18592092 -0.030382732 0.25044245
-6.192108e-05 -0.08496845 -0.036865868 -0.22747914 -0.18718176 0.2298692 0.07551667 0.21961029
00000000: 16f2 f83d 1927 88bd 159b 243e 4050 913e
00000010: 181b e03d e3fe 93be 79a8 9bbd 748e 2a3e
00000020: 6390 7abe 4d97 623e 8398 493e ea73 733e
00000030: 37cc 6b3e c32e 24be 3b27 babe 5d56 afbb
00000040: 0be9 433e 38fe 17be e380 2b3e e94c e53d
00000050: 2e2d 69be 0e62 3e3e 35e5 f8bc fe39 803e
00000060: a0db 81b8 f003 aebd aa00 17bd 4bf0 68be
00000070: 93ac 3fbe d562 6b3e 7ca8 9a3d 85e1 603e
