checkpoints/epoch_02_val_loss_5.8896.pt (torch, 76530 bytes, 5 tensors)

convolution_layers.0.weight f4 [253, 64]
-0.017735427 -0.005734389 0.011465302 -0.026937023 0.04237383 0.041447792 -0.032470636 -0.07253889
-0.053723358 0.10790281 -0.099861555 0.13151804 0.11742148 -0.06385017 -0.033603944 0.12910567
-0.124612324 -0.0014997731 0.022284294 -0.08765829 0.05861432 -0.046027653 -0.0087771835 -0.052517414
-0.060427047 -0.10942312 0.029025966 -0.08798042 0.10136482 -0.06430253 0.07911321 -0.07435939
0.06643555 0.114282295 -0.066172674 0.103584506 -0.12866758 0.10906 -0.07035808 0.0743937
-0.11005843 -0.026639732 0.13565066 -0.08986189 0.08935998 -0.0005578946 -0.07177062 -0.114330746
0.0876557 0.09738079 -0.052948665 -0.029947853 0.04983991 -0.060703903 -0.0070021288 0.100955874
0.0454416 0.049695764 -0.045925513 -0.11513696 0.13698027 0.09959998 0.005310716 -0.004701521
0.094907746 0.004911627 -0.08850011 0.11900504 -0.115326956 0.059441052 0.030978065 0.0020027098
0.018555189 -0.016171513 0.078326024 0.10666369 -0.09244839 0.11824273 -0.0035138156 -0.032268897
-0.075330034 0.099639736 -0.019585155 -0.11454743 -0.10342572 -0.057524968 0.08699545 -0.07186566
0.13035949 0.06485001 -0.12505366 0.09054824 0.09008835 0.1359808 0.05810302 0.10279951
-0.01002293 0.0015491714 -0.020306496 0.1029616 -0.053112295 -0.013679249 0.085101105 0.038612824
0.044917982 0.059569877 0.021816848 -0.0988683 0.05407067 0.021785177 -0.13711035 0.015367644
0.045342572 -0.0075127077 0.045361876 -0.13075261 0.014599873 0.12660058 0.12941529 -0.12083799
-0.002033067 -0.062122595 0.036780663 0.11417871 0.123144336 0.07389045 0.047002696 0.0063545727
-0.09316764 0.11536453 0.081316434 0.0058544734 -0.07017188 0.08863196 0.11710447 0.122731864
-0.017759718 -0.08449953 0.11824978 -0.09938022 0.09451453 0.075194284 0.023230584 -0.08666293
-0.028764166 0.10352315 0.10909326 -0.034281313 -0.01671035 0.030607758 0.04125089 0.08168864
0.13224646 0.0998493 0.07972844 -0.020500349 -0.03473249 0.06858121 0.025021367 -0.040329363
0.10378292 0.07009953 -0.11187371 -0.0673466 0.04512522 0.057629276 -0.10236073 0.06594654
0.05534315 0.06163002 -0.022508504 -0.017875325 -0.088767886 0.07103782 -0.13695225 0.12504709
0.044506133 0.031163586 0.051196735 0.012922466 0.010753308 -0.085909806 -0.077014804 0.079362534
-0.13625185 -0.07373891 0.060132347 0.08748955 0.113070354 0.064038545 0.074614845 -0.009428905
0.014317719 0.007893133 -0.10899079 0.086560726 -0.107662596 -0.07217576 0.090310164 4.7380938e-05
0.056495972 -0.010534444 -0.048549782 -0.1139423 -0.050631117 -0.0034371763 0.019252783 0.10992762
0.011869836 -0.05318723 0.026805097 0.1282466 -0.077318996 -0.13442497 0.011315139 -0.07337321
-0.04349685 -0.048861343 -0.12213758 -0.09163602 0.12341419 -0.08128683 0.11113062 0.104971014
-0.0058485037 -0.029459562 -0.12543309 0.11682379 0.015624394 -0.12645896 0.050546523 0.08035345
0.051970903 -0.07340785 -0.0074791033 0.069932364 0.00077421666 0.008497293 -0.06882356 0.008408108
-0.077687666 0.12355812 -0.038792294 -0.009243924 -0.09865884 -0.037231937 -0.103289135 0.063719474
-0.05937724 -0.097718745 -0.004992268 0.07036384 0.081897646 -0.12743299 -0.1106515 0.089866914
00000000: e349 91bc 8be7 bbbb f6d8 3b3c 08ab dcbc
00000010: 2e90 2d3d 29c5 293d eeff 04bd 458f 94bd
00000020: 060d 5cbd 26fc dc3d 3784 ccbd aaac 063e
00000030: ac7a f03d e1c3 82bd 4aa4 09bd 4734 043e
00000040: bf34 ffbd 0994 c4ba 8d8d b63c 3186 b3bd
00000050: 9215 703d 7e87 3cbd 2dce 0fbc 801c 57bd
00000060: 5a82 77bd 3b19 e0bd ddc7 ed3c 142f b4bd
00000070: 5c98 cf3d 0bb1 83bd 1b06 a23d bc49 98bd
00000080: 5d0f 883d d60c ea3d 8a85 87bd 1d24 d43d
00000090: 6fc1 03be d95a df3d e617 90bd b95b 983d
000000a0: 5066 e1bd 913b dabc 02e8 0a3e 8309 b8bd
000000b0: 5d02 b73d ac3f 12ba 7afc 92bd 3d26 eabd
000000c0: d584 b33d 946f c73d b3e0 58bd 3355 f5bc
000000d0: ef24 4c3d a8a4 78bd 1d72 e5bb f4c1 ce3d
000000e0: f920 3a3d c98d 4b3d 641c 3cbd edcc ebbd
000000f0: 8e44 0c3e 13fb cb3d 8405 ae3b 370f 9abb
00000100: fe5e c23d b7f1 a03b 8c3f b5bd eab8 f33d
00000110: 8a30 ecbd 7678 733d b6c5 fd3c e53f 033b
00000120: 0d01 983c 1f7a 84bc 6569 a03d 7e72 da3d
00000130: 9555 bdbd 3f29 f23d 0b48 66bb 642c 04bd
00000140: a246 9abd eb0f cc3d 0c71 a0bc d897 eabd
00000150: ddd0 d3bd 4d9f 6bbd ac2a b23d 4e2e 93bd
00000160: f57c 053e 15d0 843d 110e 00be 5b71 b93d
00000170: 3e80 b83d 8d3e 0b3e 6ffd 6d3d 8d88 d23d
00000180: 3737 24bc 910d cb3a cf59 a6bc 88dd d23d
00000190: 478c 59bd ee1e 60bc 7d49 ae3d 7b28 1e3d
000001a0: ebfb 373d 8bff 733d 3fb9 b23c 777b cabd
000001b0: 3579 5d3d d476 b23c a866 0cbe 92c8 7b3c
000001c0: 22b9 393d 292d f6bb 60cd 393d 03e4 05be
000001d0: 4e34 6f3c 95a3 013e 7185 043e e879 f7bd
000001e0: 343d 05bb 4374 7ebd 52a7 163d 87d6 e93d
000001f0: 1933 fc3d e053 973d e685 403d 053a d03b
00000200: adce bebd 3d44 ec3d 3b89 a63d e2d6 bf3b
00000210: 46b6 8fbd ac84 b53d 78d4 ef3d d85a fb3d
00000220: d47c 91bc 170e adbd f12c f23d db87 cbbd
00000230: d590 c13d 76ff 993d 114e be3c 567c b1bd
00000240: d4a2 ebbc f203 d43d 496c df3d 906a 0cbd
00000250: 25e4 88bc 1fbd fa3c b1f6 283d 604c a73d
00000260: 9e6b 073e ca7d cc3d aa48 a33d 59f0 a7bc
00000270: a843 0ebd 4e74 8c3d 9cf9 cc3c 6730 25bd
00000280: 248c d43d 5890 8f3d 0b1e e5bd 04ed 89bd
00000290: 39d5 383d ad0c 6c3d 81a2 d1bd fb0e 873d
000002a0: 80af 623d c36f 7c3d c163 b8bc 466f 92bc
000002b0: f0cb b5bd 477c 913d 363d 0cbe 580c 003e
000002c0: 104c 363d c74a ff3c abb3 513d c0b8 533c
000002d0: a52e 303c 7bf1 afbd f0b9 9dbd d388 a23d
000002e0: 9b85 0bbe 6d04 97bd 564d 763d b92d b33d
000002f0: 6e91 e73d a426 833d abcf 983d b27b 1abc
00000300: de94 6a3c 3352 013c 9036 dfbd c046 b13d
00000310: 357e dcbd e3d0 93bd 89f4 b83d e5ba 4638
00000320: 5268 673d a998 2cbc 23dc 46bd 955a e9bd
00000330: 9362 4fbd 4042 61bb 03b8 9d3c bb21 e13d
00000340: b379 423c dada 59bd 5d96 db3c 1453 033e
00000350: 6c59 9ebd b3a6 09be 2263 393c b244 96bd
00000360: c129 32bd d522 48bd 4423 fabd aaab bbbd
00000370: 94c0 fc3d b679 a6bd 7398 e33d 0bfb d63d
00000380: cea4 bfbb 2e55 f1bc 8871 00be 5041 ef3d
00000390: 75fd 7f3c 757e 01be df09 4f3d 5990 a43d
000003a0: 71df 543d db56 96bd 4413 f5bb b338 8f3d
000003b0: cdf4 4a3a 3b38 0b3c 5ef3 8cbd 29c2 093c
000003c0: b61a 9fbd 0a0c fd3d abe4 1ebd d473 17bc
000003d0: a50d cabd 8480 18bd 4189 d3bd 5b7f 823d
000003e0: 8c35 73bd c420 c8bd 2e96 a3bb eb1a 903d
000003f0: f4b9 a73d cb7d 02be 419d e2bd 250c b83d

convolution_layers.0.bias f4 [64]
-0.022211742 -0.023590643 0.0 0.048817877 0.0425017 0.0 -0.020485183 0.047300536
0.042795613 0.056697443 0.043079756 0.0 0.051971056 0.0 -0.012591769 0.033220887
0.052683607 -0.017601682 0.03125815 0.0 0.046846278 0.048003465 0.0 0.0
0.037198663 0.053701397 0.0 -0.041195642 0.021210464 0.043053124 -0.039677292 0.05335841
0.0 -0.0101536475 0.04098768 0.04703951 0.040270045 0.047852993 0.05144423 0.047891352
0.0 0.016058706 0.0 -0.044640057 -0.012726943 0.0 0.046084102 -0.036607828
-0.014599332 0.045094702 0.044748873 0.0 -0.0070138047 0.011614529 0.051799778 0.04881336
0.0 -0.014596553 0.040000543 0.047785293 -0.0267585 0.04820148 -0.028769143 -0.022801511
00000000: 66f5 b5bc 2a41 c1bc 0000 0000 41f5 473d
00000010: 4316 2e3d 0000 0000 8bd0 a7bc 35be 413d
00000020: 744a 2f3d 943b 683d 6674 303d 0000 0000
00000030: 9adf 543d 0000 0000 b54d 4ebc a012 083d
00000040: c4ca 573d 6731 90bc 8c08 003d 0000 0000
00000050: e2e1 3f3d 489f 443d 0000 0000 0000 0000
00000060: a05d 183d fff5 5b3d 0000 0000 c3bc 28bd
00000070: 91c1 ad3c 7958 303d a884 22bd 598e 5a3d
00000080: 0000 0000 7c5b 26bc b3e2 273d 80ac 403d
00000090: 34f2 243d 8001 443d 2fb7 523d b929 443d
000000a0: 0000 0000 8c8d 833c 0000 0000 7ed8 36bd
000000b0: ab84 50bc 0000 0000 afc2 3c3d 17f2 15bd
000000c0: 0932 6fbc 39b5 383d 984a 373d 0000 0000
000000d0: 0fd4 e5bb de4a 3e3c 012c 543d 85f0 473d
000000e0: 0000 0000 6126 6fbc 9cd7 233d 83ba 433d
000000f0: a434 dbbc ea6e 453d 44ad ebbc 3cca babc

convolution_layers.1.weight f4 [64, 32]
0.16963091 -0.23363696 -0.019569106 0.04738588 -0.10060847 -0.14712058 0.17112176 0.023236483
-0.14120618 0.12850977 -0.16229492 0.103089236 -0.025775371 -0.10667591 0.07470138 -0.15374582
0.11593478 -0.025989473 0.026801227 0.08057626 0.007788987 0.14602293 0.020802723 -0.0019135621
-0.14861307 0.009558234 0.12150085 -0.025432955 0.16871333 -0.15867057 -0.07561581 -0.19487795
0.15790118 -0.11416245 -0.07789114 0.21268244 0.21693978 -0.14572962 0.17264791 -0.07280076
0.102501206 -0.10017137 -0.14080223 0.09023392 0.24943116 -0.12059633 0.024331545 -0.14886703
0.0334685 0.16203058 -0.07551757 0.20934373 -0.16866773 -0.11464979 0.14362621 -0.11876266
0.121326916 -0.15855108 -0.15407777 -0.19392672 -0.13085775 -0.16721094 -0.05162409 -0.15584476
0.15414777 -0.050696433 -0.043177634 -0.11841041 -0.13022736 0.14755046 0.07009706 -0.20599344
0.007950395 -0.14329219 0.17798838 -0.12871057 -0.12473315 0.19914529 0.14539078 -0.083197296
0.008829683 0.06534973 0.11334458 -0.13656837 0.11751413 -0.020694137 -0.19275752 0.2067818
-0.044893175 0.19706887 0.0034285784 -0.00025483966 0.1550504 -0.015281439 0.16470209 -0.17227417
-0.065559454 -0.08193081 -0.17827128 -0.012904141 -0.24979654 -0.041643556 0.058559876 0.24854751
-0.1473538 0.17398193 -0.055422097 0.26238224 -0.052658148 0.100377366 -0.26576066 -0.2113263
0.21798427 -0.024157733 0.13334234 0.12991239 -0.1382659 0.18614742 -0.24214585 0.23814347
0.004968182 0.19976194 -0.031963646 -0.15907411 -0.24318565 0.06451744 -0.16389848 0.109014876
-0.09511861 -0.046879783 0.15131634 0.093577534 -0.11167705 -0.07374983 0.113335386 0.067867264
0.14905208 0.017122684 0.2844466 -0.016093561 0.26890376 0.14787088 -0.26920015 -0.13275205
0.084808834 0.09366813 -0.028978879 0.12013557 0.07571271 0.19087654 -0.0088674715 0.18543671
0.16556837 -0.10317842 -0.18792242 -0.1373788 0.12366425 0.24375105 0.18507777 -0.010414466
-0.16877282 0.23931065 0.0049443245 -0.16578543 0.11989254 0.08345869 -0.056657523 0.06336349
-0.16634256 -0.2019327 0.12991408 0.24510804 -0.14621904 0.029226243 0.005348325 0.030934095
0.07075739 -0.02284342 -0.053386927 0.06179139 0.14422601 -0.10444665 -0.10800552 -0.080863714
0.18117574 0.0358679 0.15111557 -0.035475135 0.123220235 -0.045371443 0.07919413 0.011817455
0.17664471 -0.22312216 0.13035256 -0.14506742 -0.011054128 0.19267826 -0.13239095 0.10104588
-0.048709285 0.17010066 -0.10294343 0.24853349 0.2026283 0.18754959 -0.26602963 0.2187412
-0.20704341 0.18185759 -0.13617781 0.06664499 0.20890452 -0.16670187 0.09375653 -0.16092099
0.041898575 -0.13900135 0.0009812117 -0.051609125 0.04193512 -0.01821201 0.08569806 -0.06304435
-0.1661529 -0.110390775 0.20794427 0.05504416 -0.037541717 -0.040860526 0.21614158 0.26160315
-0.01380824 0.27833188 0.28541854 0.2496963 0.17375743 -0.074649476 -0.088835336 0.058825884
-0.034938887 -0.16927886 -0.03682951 0.22415033 -0.14409947 -0.020691989 -0.09073142 0.11022271
0.06676297 -0.24083892 0.19245413 0.10429221 0.016335752 -0.101688474 0.087994486 0.18891053
00000000: bab3 2d3e 873e 6fbe 644f a0bc b217 423d
00000010: d00b cebd c7a6 16be 8b3a 2f3e 705a be3c
00000020: 5a98 10be 1198 033e a430 26be 7320 d33d
00000030: df26 d3bc e678 dabd 0afd 983d 8b6f 1dbe
00000040: 376f ed3d e0e7 d4bc 3f8e db3c 2b05 a53d
00000050: c23a ff3b 0987 153e 796a aa3c 7dd0 faba
00000060: 062e 18be 249a 1c3c 70d5 f83d c658 d0bc
00000070: 30c3 2c3e 8a7a 22be 76dc 9abd 168e 47be
00000080: d9b0 213e 01ce e9bd 6485 9fbd 6dc9 593e
00000090: 7625 5e3e 253a 15be 9dca 303e 9118 95bd
000000a0: 27ec d13d a626 cdbd 762e 10be 90cc b83d
000000b0: e26a 7f3e 35fb f6bd f352 c73c 9970 18be
000000c0: 4416 093d 58eb 253e f5a8 9abd 345e 563e
000000d0: 3cb7 2cbe 82cd eabd c012 133e d639 f3bd
000000e0: 3f7a f83d 375b 22be 90c6 1dbe ba94 46be
000000f0: 93ff 05be 5839 2bbe c873 53bd c595 1fbe
00000100: ead8 1d3e 10a7 4fbd 08db 30bd 2881 f2bd
00000110: 525a 05be 7817 173e 0c8f 8f3d f2ef 52be
00000120: 6042 023c 30bb 12be 9642 363e b4cc 03be
00000130: 1874 ffbd beec 4b3e 52e1 143e 5863 aabd
00000140: 60aa 103c 14d6 853d 3421 e83d 94d8 0bbe
00000150: 40ab f03d c086 a9bc 3a62 45be 9cbe 533e
00000160: e8e1 37bd 6ccc 493e 00b2 603b 009c 85b9
00000170: 88c5 1e3e 005f 7abc aaa7 283e a468 30be
00000180: 0944 86bd 57cb a7bd bf8c 36be e46b 53bc
00000190: aaca 7fbe 6f92 2abd 7bdc 6f3d 3d83 7e3e
000001a0: eae3 16be 5228 323e 4802 63bd f756 863e
000001b0: 12b0 57bd a692 cd3d c811 88be ec65 58be
000001c0: 4537 5f3e 70e6 c5bc e58a 083e c107 053e
000001d0: 9395 0dbe 6e9d 3e3e 15f5 77be e2db 733e
000001e0: 22cc a23b 658e 4c3e 50ec 02bd 53e4 22be
000001f0: a905 79be b821 843d 01d5 27be 3143 df3d
00000200: 8ccd c2bd 0405 40bd acf2 1a3e 94a5 bf3d
00000210: f0b6 e4bd 270a 97bd 621c e83d fefd 8a3d
00000220: 1ca1 183e df44 8c3c fca2 913e a5d6 83bc
00000230: c1ad 893e 776b 173e 9ad4 89be 27f0 07be
00000240: 41b0 ad3d 14d5 bf3d 1d65 edbc a309 f63d
00000250: 440f 9b3d 2475 433e df48 11bc 1fe3 3d3e
00000260: c18a 293e 354f d3bd bc6e 40be 07ad 0cbe
00000270: af43 fd3d e099 793e 0785 3d3e 70a1 2abc
00000280: c8d2 2cbe da0d 753e 0004 a23b a8c3 29be
00000290: 388a f53d 64ec aa3d b811 68bd b8c4 813d
000002a0: b455 2abe 72c7 4ebe 3208 053e 9afd 7a3e
000002b0: 72ba 15be e06b ef3c 0041 af3b 8069 fd3c
000002c0: 40e9 903d 2022 bbbc 40ac 5abd f818 7d3d
000002d0: fcaf 133e 20e8 d5bd 0032 ddbd e09b a5bd
000002e0: 2286 393e 38ea 123d 0abe 1a3e 604e 11bd
000002f0: e45a fc3d 68d7 39bd 8830 a23d 009e 413c
00000300: 5ae2 343e 237a 64be 247b 053e 8e8c 14be
00000310: 601c 35bc 734d 453e 7e91 07be 24f1 ce3d
00000320: 6383 47bd de2e 2e3e 01d4 d2bd 907f 7e3e
00000330: cb7d 4f3e 000d 403e 0935 88be b1fd 5f3e
00000340: 3003 54be e038 3a3e 3272 0bbe 2b7d 883d
00000350: 11eb 553e e5b3 2abe 6c03 c03d 79c8 24be
00000360: d79d 2b3d 5f56 0ebe 009c 803a 1764 53bd
00000370: 29c4 2b3d 5a31 95bc 7782 af3d 651d 81bd
00000380: fc23 2abe 8f14 e2bd 58ef 543e fc75 613d
00000390: 58c5 19bd 5e5d 27bd 3854 5d3e d9f0 853e
000003a0: f53b 62bc 8481 8e3e 6122 923e 63b0 7f3e
000003b0: 78ed 313e d3e1 98bd 4def b5bd 69f3 703d
000003c0: 141c 0fbd 7057 2dbe 8ada 16bd aa87 653e
000003d0: d08e 13be 3f82 a9bc 65d1 b9bd 72bc e13d
000003e0: 06bb 883d 7a9e 76be b212 453e 2797 d53d
000003f0: 8ed2 853c 0c42 d0bd 7436 b43d c371 413e

convolution_layers.1.bias f4 [32]
0.048665404 -0.0058563794 0.049332734 0.05156202 0.0 -0.005824611 -0.0119175045 0.04701955
-0.012706982 0.046401344 0.04838631 0.052736472 0.046136964 -0.04205839 -0.021202909 -0.015767068
0.047735546 0.0 0.04697812 0.04965778 -0.009770929 0.05608051 -0.02978558 0.05004077
-0.027007328 -0.030545093 0.0 -0.035167582 -0.012355867 0.05307194 0.056637563 0.046479378
00000000: 6055 473d dfe6 bfbb 1f11 4a3d b232 533d
00000010: 0000 0000 61dc bebb a341 43bc 9297 403d
00000020: f230 50bc 560f 3e3d b930 463d 3302 583d
00000030: 1dfa 3c3d 6b45 2cbd b9b1 adbc f029 81bc
00000040: 5986 433d 0000 0000 216c 403d f565 4b3d
00000050: 3f16 20bc adb4 653d e300 f4bc 8df7 4c3d
00000060: 793e ddbc b439 fabc 0000 0000 e20b 10bd
00000070: 4370 4abc f661 593d cafc 673d 2961 3e3d

classify.weight f4 [1, 32]
0.1029847 -0.06648082 0.12275228 0.21350892 0.13219367 -0.10572558 -0.076002836 0.15660314
-0.07825342 0.20076644 0.18432786 0.19989036 0.21755311 -0.14101803 -0.12520464 -0.0053505935
0.17016369 -0.1484307 0.15798849 0.09591407 -0.11703149 0.13144654 -0.029817853 0.18014602
0.0017449292 -0.056313735 -0.036865868 -0.14007758 -0.16410625 0.19081269 0.060236897 0.20019388
00000000: a4e9 d23d 1927 88bd 8c65 fb3d 15a2 5a3e
00000010: c75d 073e a786 d8bd 60a7 9bbd 935c 203e
00000020: 5443 a0bd b895 4d3e 71c0 3c3e 0fb0 4c3e
00000030: 3ec6 5e3e 0867 10be a535 00be 0854 afbb
00000040: 643f 2e3e 38fe 17be bcc7 213e 996e c43d
00000050: 35ae efbd ec99 063e 9244 f4bc 3378 383e
00000060: 1cb6 e43a 3ba9 66bd aa00 17bd 7f70 0fbe
00000070: 780b 28be 6764 433e f7ba 763d a0ff 4c3e
