checkpoints/epoch_06_val_loss_5.9370.pt (torch, 76530 bytes, 5 tensors)

convolution_layers.0.weight f4 [253, 64]
0	0xbc9149e3	-0.017735427
1	0xbbbbe78b	-0.005734389
2	0x3c3bd8f6	0.011465302
3	0xbcdcab08	-0.026937023
4	0x3d2d902e	0.04237383
5	0x3d29c529	0.041447792
6	0xbd04ffee	-0.032470636
7	0xbd948f45	-0.07253889
8	0xbd5c0d06	-0.053723358
9	0x3ddcfc26	0.10790281
10	0xbdcc8437	-0.099861555
11	0x3e06acaa	0.13151804
12	0x3df07aac	0.11742148
13	0xbd82c3e1	-0.06385017
14	0xbd09a44a	-0.033603944
15	0x3e043447	0.12910567
16	0xbdff34bf	-0.124612324
17	0xbac49409	-0.0014997731
18	0x3cb68d8d	0.022284294
19	0xbdb38631	-0.08765829
20	0x3d701592	0.05861432
21	0xbd3c877e	-0.046027653
22	0xbc0fce2d	-0.0087771835
23	0xbd571c80	-0.052517414
24	0xbd77825a	-0.060427047
25	0xbde0193b	-0.10942312
26	0x3cedc7dd	0.029025966
27	0xbdb42f14	-0.08798042
28	0x3dcf985c	0.10136482
29	0xbd83b10b	-0.06430253
30	0x3da2061b	0.07911321
31	0xbd9849bc	-0.07435939
32	0x3d880f5d	0.06643555
33	0x3dea0cd6	0.114282295
34	0xbd87858a	-0.066172674
35	0x3dd4241d	0.103584506
36	0xbe03c16f	-0.12866758
37	0x3ddf5ad9	0.10906
38	0xbd9017e6	-0.07035808
39	0x3d985bb9	0.0743937
40	0xbde16650	-0.11005843
41	0xbcda3b91	-0.026639732
42	0x3e0ae802	0.13565066
43	0xbdb80983	-0.08986189
44	0x3db7025d	0.08935998
45	0xba123fac	-0.0005578946
46	0xbd92fc7a	-0.07177062
47	0xbdea263d	-0.114330746
48	0x3db384d5	0.0876557
49	0x3dc76f94	0.09738079
50	0xbd58e0b3	-0.052948665
51	0xbcf55533	-0.029947853
52	0x3d4c24ef	0.04983991
53	0xbd78a4a8	-0.060703903
54	0xbbe5721d	-0.0070021288
55	0x3dcec1f4	0.100955874
56	0x3d3a20f9	0.0454416
57	0x3d4b8dc9	0.049695764
58	0xbd3c1c64	-0.045925513
59	0xbdebcced	-0.11513696
60	0x3e0c448e	0.13698027
61	0x3dcbfb13	0.09959998
62	0x3bae0584	0.005310716
63	0xbb9a0f37	-0.004701521
64	0x3dc25efe	0.094907746
65	0x3ba0f1b7	0.004911627
66	0xbdb53f8c	-0.08850011
67	0x3df3b8ea	0.11900504
68	0xbdec308a	-0.115326956
69	0x3d737876	0.059441052
70	0x3cfdc5b6	0.030978065
71	0x3b033fe5	0.0020027098
72	0x3c98010d	0.018555189
73	0xbc847a1f	-0.016171513
74	0x3da06965	0.078326024
75	0x3dda727e	0.10666369
76	0xbdbd5595	-0.09244839
77	0x3df2293f	0.11824273
78	0xbb66480b	-0.0035138156
79	0xbd042c64	-0.032268897
80	0xbd9a46a2	-0.075330034
81	0x3dcc0feb	0.099639736
82	0xbca0710c	-0.019585155
83	0xbdea97d8	-0.11454743
84	0xbdd3d0dd	-0.10342572
85	0xbd6b9f4d	-0.057524968
86	0x3db22aac	0.08699545
87	0xbd932e4e	-0.07186566
88	0x3e057cf5	0.13035949
89	0x3d84d015	0.06485001
90	0xbe000e11	-0.12505366
91	0x3db9715b	0.09054824
92	0x3db8803e	0.09008835
93	0x3e0b3e8d	0.1359808
94	0x3d6dfd6f	0.05810302
95	0x3dd2888d	0.10279951
96	0xbc243737	-0.01002293
97	0x3acb0d91	0.0015491714
98	0xbca659cf	-0.020306496
99	0x3dd2dd88	0.1029616
100	0xbd598c47	-0.053112295
101	0xbc601eee	-0.013679249
102	0x3dae497d	0.085101105
103	0x3d1e287b	0.038612824
104	0x3d37fbeb	0.044917982
105	0x3d73ff8b	0.059569877
106	0x3cb2b93f	0.021816848
107	0xbdca7b77	-0.0988683
108	0x3d5d7935	0.05407067
109	0x3cb276d4	0.021785177
110	0xbe0c66a8	-0.13711035
111	0x3c7bc892	0.015367644
112	0x3d39b922	0.045342572
113	0xbbf62d29	-0.0075127077
114	0x3d39cd60	0.045361876
115	0xbe05e403	-0.13075261
116	0x3c6f344e	0.014599873
117	0x3e01a395	0.12660058
118	0x3e048571	0.12941529
119	0xbdf779e8	-0.12083799
120	0xbb053d34	-0.002033067
121	0xbd7e7443	-0.062122595
122	0x3d16a752	0.036780663
123	0x3de9d687	0.11417871
124	0x3dfc3319	0.123144336
125	0x3d9753e0	0.07389045
126	0x3d4085e6	0.047002696
127	0x3bd03a05	0.0063545727
128	0xbdbecead	-0.09316764
129	0x3dec443d	0.11536453
130	0x3da6893b	0.081316434
131	0x3bbfd6e2	0.0058544734
132	0xbd8fb646	-0.07017188
133	0x3db584ac	0.08863196
134	0x3defd478	0.11710447
135	0x3dfb5ad8	0.122731864
136	0xbc917cd4	-0.017759718
137	0xbdad0e17	-0.08449953
138	0x3df22cf1	0.11824978
139	0xbdcb87db	-0.09938022
140	0x3dc190d5	0.09451453
141	0x3d99ff76	0.075194284
142	0x3cbe4e11	0.023230584
143	0xbdb17c56	-0.08666293
144	0xbceba2d4	-0.028764166
145	0x3dd403f2	0.10352315
146	0x3ddf6c49	0.10909326
147	0xbd0c6a90	-0.034281313
148	0xbc88e425	-0.01671035
149	0x3cfabd1f	0.030607758
150	0x3d28f6b1	0.04125089
151	0x3da74c60	0.08168864
152	0x3e076b9e	0.13224646
153	0x3dcc7dca	0.0998493
154	0x3da348aa	0.07972844
155	0xbca7f059	-0.020500349
156	0xbd0e43a8	-0.03473249
157	0x3d8c744e	0.06858121
158	0x3cccf99c	0.025021367
159	0xbd253067	-0.040329363
160	0x3dd48c24	0.10378292
161	0x3d8f9058	0.07009953
162	0xbde51e0b	-0.11187371
163	0xbd89ed04	-0.0673466
164	0x3d38d539	0.04512522
165	0x3d6c0cad	0.057629276
166	0xbdd1a281	-0.10236073
167	0x3d870efb	0.06594654
168	0x3d62af80	0.05534315
169	0x3d7c6fc3	0.06163002
170	0xbcb863c1	-0.022508504
171	0xbc926f46	-0.017875325
172	0xbdb5cbf0	-0.088767886
173	0x3d917c47	0.07103782
174	0xbe0c3d36	-0.13695225
175	0x3e000c58	0.12504709
176	0x3d364c10	0.044506133
177	0x3cff4ac7	0.031163586
178	0x3d51b3ab	0.051196735
179	0x3c53b8c0	0.012922466
180	0x3c302ea5	0.010753308
181	0xbdaff17b	-0.085909806
182	0xbd9db9f0	-0.077014804
183	0x3da288d3	0.079362534
184	0xbe0b859b	-0.13625185
185	0xbd97046d	-0.07373891
186	0x3d764d56	0.060132347
187	0x3db32db9	0.08748955
188	0x3de7916e	0.113070354
189	0x3d8326a4	0.064038545
190	0x3d98cfab	0.074614845
191	0xbc1a7bb2	-0.009428905
192	0x3c6a94de	0.014317719
193	0x3c015233	0.007893133
194	0xbddf3690	-0.10899079
195	0x3db146c0	0.086560726
196	0xbddc7e35	-0.107662596
197	0xbd93d0e3	-0.07217576
198	0x3db8f489	0.090310164
199	0x3846bae5	4.7380938e-05
200	0x3d676852	0.056495972
201	0xbc2c98a9	-0.010534444
202	0xbd46dc23	-0.048549782
203	0xbde95a95	-0.1139423
204	0xbd4f6293	-0.050631117
205	0xbb614240	-0.0034371763
206	0x3c9db803	0.019252783
207	0x3de121bb	0.10992762
208	0x3c4279b3	0.011869836
209	0xbd59dada	-0.05318723
210	0x3cdb965d	0.026805097
211	0x3e035314	0.1282466
212	0xbd9e596c	-0.077318996
213	0xbe09a6b3	-0.13442497
214	0x3c396322	0.011315139
215	0xbd9644b2	-0.07337321
216	0xbd3229c1	-0.04349685
217	0xbd4822d5	-0.048861343
218	0xbdfa2344	-0.12213758
219	0xbdbbabaa	-0.09163602
220	0x3dfcc094	0.12341419
221	0xbda679b6	-0.08128683
222	0x3de39873	0.11113062
223	0x3dd6fb0b	0.104971014
224	0xbbbfa4ce	-0.0058485037
225	0xbcf1552e	-0.029459562
226	0xbe007188	-0.12543309
227	0x3def4150	0.11682379
228	0x3c7ffd75	0.015624394
229	0xbe017e75	-0.12645896
230	0x3d4f09df	0.050546523
231	0x3da49059	0.08035345
232	0x3d54df71	0.051970903
233	0xbd9656db	-0.07340785
234	0xbbf51344	-0.0074791033
235	0x3d8f38b3	0.069932364
236	0x3a4af4cd	0.00077421666
237	0x3c0b383b	0.008497293
238	0xbd8cf35e	-0.06882356
239	0x3c09c229	0.008408108
240	0xbd9f1ab6	-0.077687666
241	0x3dfd0c0a	0.12355812
242	0xbd1ee4ab	-0.038792294
243	0xbc1773d4	-0.009243924
244	0xbdca0da5	-0.09865884
245	0xbd188084	-0.037231937
246	0xbdd38941	-0.103289135
247	0x3d827f5b	0.063719474
248	0xbd73358c	-0.05937724
249	0xbdc820c4	-0.097718745
250	0xbba3962e	-0.004992268
251	0x3d901aeb	0.07036384
252	0x3da7b9f4	0.081897646
253	0xbe027dcb	-0.12743299
254	0xbde29d41	-0.1106515
255	0x3db80c25	0.089866914

convolution_layers.0.bias f4 [64]
0	0xbcafcc53	-0.021459734
1	0xbd1abe71	-0.037779275
2	0x00000000	0.0
3	0x3d4f8c58	0.05067095
4	0x3d4168e6	0.04721918
5	0x00000000	0.0
6	0xbca03d9c	-0.019560628
7	0x3d4d72dc	0.050158367
8	0x3d75efbf	0.060043093
9	0x3d79ef3d	0.06101917
10	0x3d43b27d	0.04777764
11	0x00000000	0.0
12	0x3d6043f8	0.05475232
13	0x00000000	0.0
14	0xbc4e4db5	-0.012591769
15	0x3d1c454c	0.038152024
16	0x3d696735	0.05698319
17	0xbc903167	-0.017601682
18	0x3d0f08f2	0.03492064
19	0x00000000	0.0
20	0x3d5126f0	0.051062524
21	0x3d5cc7bc	0.05390142
22	0x00000000	0.0
23	0x00000000	0.0
24	0x3d8511f2	0.064975634
25	0x3d87bbbe	0.06627606
26	0x00000000	0.0
27	0xbd28a7b7	-0.04117557
28	0x3ce76003	0.028244024
29	0x3d805008	0.06265265
30	0xbd2bd978	-0.04195544
31	0x3d67932a	0.05653683
32	0x00000000	0.0
33	0xbc1fdd38	-0.0097573325
34	0x3d458556	0.048222862
35	0x3d4e4a83	0.05036403
36	0x3d398f07	0.045302417
37	0x3d52235c	0.051303253
38	0x3d6bcbce	0.05756741
39	0x3d4ea12a	0.050446667
40	0x00000000	0.0
41	0x3cc2887a	0.023746718
42	0x00000000	0.0
43	0xbd533205	-0.051561374
44	0xbc3446c5	-0.011003201
45	0x00000000	0.0
46	0x3d5f16cb	0.054465096
47	0xbd3487f9	-0.044074986
48	0xbba2eddf	-0.004972204
49	0x3d38b2c7	0.04509237
50	0x3d38e5b3	0.045140933
51	0x00000000	0.0
52	0xbbe5d40f	-0.0070138047
53	0x3ca35977	0.019940121
54	0x3d5f04fd	0.054448117
55	0x3d556a98	0.05210361
56	0x00000000	0.0
57	0xb8a10ae1	-7.6791046e-05
58	0x3d1f379d	0.038871396
59	0x3d57d7d8	0.05269608
60	0xbcdb34a4	-0.0267585
61	0x3d4fef7c	0.0507655
62	0xbd1260f7	-0.035737004
63	0xbcd1e31c	-0.02562099

convolution_layers.1.weight f4 [64, 32]
0	0x3e30110a	0.17194
1	0xbe6f3e87	-0.23363696
2	0xbc821f4f	-0.01588407
3	0x3d71930d	0.05897813
4	0xbdce0bd0	-0.10060847
5	0xbe16a6c7	-0.14712058
6	0x3e2f3a8b	0.17112176
7	0x3cce6c83	0.025198227
8	0xbe10985a	-0.14120618
9	0x3e05816d	0.13037653
10	0xbe23ee6d	-0.16008921
11	0x3ddb8db3	0.10720386
12	0xbcc45fe6	-0.02397151
13	0xbdd8aee1	-0.105802305
14	0x3d998e12	0.07497801
15	0xbe1d6aec	-0.15372819
16	0x3df19e51	0.117977746
17	0xbcd4e7e0	-0.025989473
18	0x3cebab44	0.02876819
19	0x3daa25bb	0.08307978
20	0x3ba38de4	0.00499128
21	0x3e20a9c3	0.15689759
22	0x3caa6a79	0.020802723
23	0x3c570f69	0.013126233
24	0xbe183340	-0.148633
25	0x3c13c37c	0.009018775
26	0x3df8d570	0.12150085
27	0xbcd52f2f	-0.026023475
28	0x3e2a428f	0.16626953
29	0xbe1b2cad	-0.15153761
30	0xbd91b59c	-0.07114717
31	0xbe45a072	-0.19299486
32	0x3e204fe4	0.15655476
33	0xbde9ce01	-0.11416245
34	0xbda2978b	-0.07939061
35	0x3e579de0	0.21056318
36	0x3e5e2576	0.21693978
37	0xbe153a90	-0.14573121
38	0x3e30ca9d	0.17264791
39	0xbd975992	-0.07390131
40	0x3dd2188f	0.102585904
41	0xbdcf47ab	-0.101210915
42	0xbe117703	-0.14205556
43	0x3db55b05	0.08855251
44	0x3e7e6c99	0.24846114
45	0xbdf256af	-0.1183294
46	0x3ccc073c	0.024905793
47	0xbe187092	-0.14886692
48	0x3d03f1f3	0.032213163
49	0x3e25eb58	0.16203058
50	0xbd9cedc1	-0.076625355
51	0x3e54d317	0.2078365
52	0xbe2cff88	-0.16894352
53	0xbdef6e37	-0.11690944
54	0x3e1312c0	0.14362621
55	0xbdf7f395	-0.121070065
56	0x3df7da8b	0.12102231
57	0xbe2231a6	-0.15839252
58	0xbe1dc690	-0.15407777
59	0xbe43934a	-0.19099155
60	0xbe057dd9	-0.13036288
61	0xbe2ce045	-0.16882427
62	0xbd5d6918	-0.054055303
63	0xbe20a86e	-0.15689251
64	0x3e1dd8ea	0.15414777
65	0xbd4fa710	-0.050696433
66	0xbd30db08	-0.043177634
67	0xbdf28128	-0.11841041
68	0xbe055a52	-0.13022736
69	0x3e171778	0.14755046
70	0x3d8f8f0c	0.07009706
71	0xbe52eff2	-0.20599344
72	0x3c024260	0.007950395
73	0xbe12bb30	-0.14329219
74	0x3e364296	0.17798838
75	0xbe03ccb4	-0.12871057
76	0xbdff7418	-0.12473315
77	0x3e4becbe	0.19914529
78	0x3e14e152	0.14539078
79	0xbdaa6358	-0.083197296
80	0x3c10aa60	0.008829683
81	0x3d85d614	0.06534973
82	0x3de82134	0.11334458
83	0xbe0bd894	-0.13656837
84	0x3df0ab40	0.11751413
85	0xbca986c0	-0.020694137
86	0xbe45623a	-0.19275752
87	0x3e53be9c	0.2067818
88	0xbd37e1e8	-0.044893175
89	0x3e49cc6c	0.19706887
90	0x3b60b200	0.0034285784
91	0xb9859c00	-0.00025483966
92	0x3e1ec588	0.1550504
93	0xbc7a5f00	-0.015281439
94	0x3e28a7aa	0.16470209
95	0xbe3068a4	-0.17227417
96	0xbd879ba9	-0.06621487
97	0xbda7cb57	-0.08193081
98	0xbe3751ab	-0.17902248
99	0xbc54ee57	-0.012996278
100	0xbe7fcaaa	-0.24979654
101	0xbd2a269e	-0.041540734
102	0x3d6fdc7b	0.058559876
103	0x3e7e05c1	0.24806882
104	0xbe1465d4	-0.1449197
105	0x3e31b3a4	0.17353684
106	0xbd64f612	-0.055898733
107	0x3e86224a	0.26198035
108	0xbd593a16	-0.05303391
109	0x3dd49be3	0.103812955
110	0xbe87b5fb	-0.26506028
111	0xbe58665b	-0.21132796
112	0x3e5eafc7	0.21746741
113	0xbcc5e670	-0.024157733
114	0x3e080b00	0.13285446
115	0x3e0439cc	0.12912673
116	0xbe0c9018	-0.13726842
117	0x3e3df197	0.1854919
118	0xbe77f515	-0.24214585
119	0x3e7393e7	0.23786889
120	0x3b90ee86	0.0044229655
121	0x3e4d597d	0.20053668
122	0xbd02ec50	-0.031963646
123	0xbe1e6e1e	-0.15471694
124	0xbe7782a0	-0.24170923
125	0x3d8338f7	0.064073496
126	0xbe293c56	-0.16526923
127	0x3dde58f4	0.1085681
128	0xbdc25e74	-0.09490672
129	0xbd400504	-0.046879783
130	0x3e1b1b0a	0.15147033
131	0x3dc1cfaa	0.09463437
132	0xbde4b6f0	-0.11167705
133	0xbd96d9f7	-0.07365792
134	0x3de81c62	0.113335386
135	0x3d8baa4b	0.0681959
136	0x3e193cdf	0.14964627
137	0x3c8f186e	0.017467704
138	0x3e91d7c1	0.2848492
139	0xbc7d965b	-0.015477742
140	0x3e89e23c	0.26930416
141	0x3e1a61ec	0.15076417
142	0xbe8aa489	-0.27078655
143	0xbe07f09a	-0.13275376
144	0x3dae6a4a	0.08516367
145	0x3dbfd514	0.09366813
146	0xbceac2d8	-0.028657362
147	0x3df64063	0.120239995
148	0x3d9e886c	0.07740864
149	0x3e43ed69	0.19133534
150	0xbc114950	-0.008867577
151	0x3e3ece80	0.18633461
152	0x3e28f9d2	0.16501549
153	0xbdd1f28c	-0.1025134
154	0xbe406ebc	-0.18792242
155	0xbe08d745	-0.13363369
156	0x3e00a3dd	0.12562509
157	0x3e7a29ce	0.2443001
158	0x3e3d29b7	0.18472944
159	0xbc24f250	-0.010067537
160	0xbe2cd2c8	-0.16877282
161	0x3e750dda	0.23931065
162	0x3ba20400	0.0049443245
163	0xbe29c3a8	-0.16578543
164	0x3df58a38	0.11989254
165	0x3daaec64	0.08345869
166	0xbd6811b8	-0.056657523
167	0x3d81c4b8	0.06336349
168	0xbe2a55b4	-0.16634256
169	0xbe4ec772	-0.2019327
170	0x3e050832	0.12991408
171	0x3e7afd9a	0.24510804
172	0xbe15ba72	-0.14621904
173	0x3cef6be0	0.029226243
174	0x3baf4100	0.005348325
175	0x3cfd6980	0.030934095
176	0x3d90e940	0.07075739
177	0xbcbb2220	-0.02284342
178	0xbd5aac40	-0.053386927
179	0x3d7d18f8	0.06179139
180	0x3e13affc	0.14422601
181	0xbdd5e820	-0.10444665
182	0xbddd3200	-0.10800552
183	0xbda59be0	-0.080863714
184	0x3e398622	0.18117574
185	0x3d12ea38	0.0358679
186	0x3e1abe0a	0.15111557
187	0xbd114e60	-0.035475135
188	0x3dfc5ae4	0.123220235
189	0xbd39d768	-0.045371443
190	0x3da23088	0.07919413
191	0x3c419e00	0.011817455
192	0x3e34b410	0.17646813
193	0xbe647a23	-0.22312216
194	0x3e053bf1	0.13011147
195	0xbe134b4a	-0.14384189
196	0xbc351c60	-0.011054128
197	0x3e455e09	0.19274153
198	0xbe07917e	-0.13239095
199	0x3dced1aa	0.10098584
200	0xbd471b90	-0.04861027
201	0x3e2e22c5	0.17005451
202	0xbdd2d4f5	-0.102945246
203	0x3e7ed531	0.24886014
204	0x3e4f7e66	0.20263061
205	0x3e429813	0.19003324
206	0xbe877432	-0.26455837
207	0x3e5ffdb1	0.2187412
208	0xbe540fbe	-0.2070913
209	0x3e3a38e0	0.18185759
210	0xbe0b8468	-0.13624728
211	0x3d87f623	0.06638744
212	0x3e54d6ba	0.20785037
213	0xbe2a64bc	-0.1663999
214	0x3dc0036c	0.09375653
215	0xbe23be3b	-0.15990536
216	0x3d2a6459	0.041599605
217	0xbe0e210e	-0.13879797
218	0x3a809c00	0.0009812117
219	0xbd494b48	-0.04914406
220	0x3d2d50ce	0.04231339
221	0xbc937f48	-0.018005028
222	0x3dae49eb	0.085101925
223	0xbd8135a1	-0.06309057
224	0xbe2eab94	-0.1705764
225	0xbde2148f	-0.110390775
226	0x3e501d3e	0.20323655
227	0x3d4a15e3	0.04933728
228	0xbd19c558	-0.037541717
229	0xbd265d9e	-0.040616624
230	0x3e5d5438	0.21614158
231	0x3e83ecbf	0.2576656
232	0xbc2f18f6	-0.0106871035
233	0x3e8c8dd7	0.27451965
234	0x3e8ff496	0.28116292
235	0x3e7a8ace	0.24467012
236	0x3e2e2b6a	0.17008749
237	0xbd8e99ac	-0.06962904
238	0xbdb228a7	-0.0869916
239	0x3d70f18b	0.058824103
240	0xbd208da3	-0.039197575
241	0xbe2d5770	-0.16927886
242	0xbd270d9b	-0.04078446
243	0x3e60b8a2	0.21945432
244	0xbe10a0ac	-0.14123791
245	0xbcd9ccde	-0.026586946
246	0xbdb9d16c	-0.09073147
247	0x3dd5860e	0.104259595
248	0x3d878c23	0.06618526
249	0xbe75b33f	-0.23994158
250	0x3e4512b2	0.19245413
251	0x3de4391d	0.11143706
252	0x3c983e52	0.018584404
253	0xbdda4fe2	-0.10659768
254	0x3da7c395	0.08191601
255	0x3e3d8561	0.18507911

convolution_layers.1.bias f4 [32]
0	0x3d8ca764	0.06867865
1	0xbbbfe6df	-0.0058563794
2	0x3d8fe48e	0.07026015
3	0x3d9e1e58	0.07720631
4	0x00000000	0.0
5	0xbbbecfca	-0.00582311
6	0xbc4341a3	-0.0119175045
7	0x3d860d79	0.065455385
8	0xbc30f40a	-0.010800371
9	0x3d83c4ad	0.06433997
10	0x3d8ab477	0.06772702
11	0x3d99f4b7	0.07517379
12	0x3d8283f1	0.06372822
13	0xbd560f39	-0.05226061
14	0xbcb61a86	-0.022229444
15	0xbc8146d8	-0.015780851
16	0x3d88befb	0.06677052
17	0x00000000	0.0
18	0x3d8606cf	0.065442674
19	0x3d90342a	0.070411995
20	0xbc5026d1	-0.012704567
21	0x3da8aff8	0.082366884
22	0xbcf4010b	-0.029785654
23	0x3da0187a	0.078171685
24	0xbcdb425b	-0.02676504
25	0xbcf22b10	-0.02956155
26	0x00000000	0.0
27	0xbd520859	-0.051277492
28	0xbc4bdc02	-0.012442591
29	0x3d9b11b1	0.07571734
30	0x3da76fba	0.08175607
31	0x3d842095	0.06451527

classify.weight f4 [1, 32]
0	0x3dd38314	0.103277355
1	0xbd882719	-0.06648082
2	0x3e01989c	0.12655872
3	0x3e5c47dd	0.21511789
4	0x3e075dc7	0.13219367
5	0xbdd891f3	-0.105747126
6	0xbd9ba760	-0.076002836
7	0x3e1de9d0	0.15421224
8	0xbda658da	-0.08122416
9	0x3e4ce1a7	0.20007955
10	0x3e3a4d36	0.18193516
11	0x3e4fc0bc	0.20288366
12	0x3e5c6a7b	0.21524994
13	0xbe1227ef	-0.14273046
14	0xbe05b7e3	-0.13058428
15	0xbbaf565d	-0.0053508715
16	0x3e2cf309	0.16889586
17	0xbe17fe38	-0.1484307
18	0x3e206b6c	0.15665978
19	0x3dc22bb6	0.094809934
20	0xbe12cc6d	-0.14335795
21	0x3e10045a	0.1406416
22	0xbcf44492	-0.029817853
23	0x3e3ee4aa	0.18641916
24	0x391c93e2	0.0001493241
25	0xbd67af50	-0.056563675
26	0xbd1700aa	-0.036865868
27	0xbe26ae6a	-0.16277471
28	0xbe2c391f	-0.16818665
29	0x3e47d871	0.1951616
30	0x3d6f9989	0.058496032
31	0x3e4c3a69	0.19944157
