checkpoints/epoch_13_val_loss_5.3188.pt (torch, 76530 bytes, 5 tensors)

convolution_layers.0.weight f4 [253, 64]
-0.017735427 -0.005734389 0.011465302 -0.026937023 0.04237383 0.041447792 -0.032470636 -0.07253889
-0.053723358 0.10790281 -0.099861555 0.13151804 0.11742148 -0.06385017 -0.033603944 0.12910567
-0.124612324 -0.0014997731 0.022284294 -0.08765829 0.05861432 -0.046027653 -0.0087771835 -0.052517414
-0.060427047 -0.10942312 0.029025966 -0.08798042 0.10136482 -0.06430253 0.07911321 -0.07435939
0.06643555 0.114282295 -0.066172674 0.103584506 -0.12866758 0.10906 -0.07035808 0.0743937
-0.11005843 -0.026639732 0.13565066 -0.08986189 0.08935998 -0.0005578946 -0.07177062 -0.114330746
0.0876557 0.09738079 -0.052948665 -0.029947853 0.04983991 -0.060703903 -0.0070021288 0.100955874
0.0454416 0.049695764 -0.045925513 -0.11513696 0.13698027 0.09959998 0.005310716 -0.004701521
0.094907746 0.004911627 -0.08850011 0.11900504 -0.115326956 0.059441052 0.030978065 0.0020027098
0.018555189 -0.016171513 0.078326024 0.10666369 -0.09244839 0.11824273 -0.0035138156 -0.032268897
-0.075330034 0.099639736 -0.019585155 -0.11454743 -0.10342572 -0.057524968 0.08699545 -0.07186566
0.13035949 0.06485001 -0.12505366 0.09054824 0.09008835 0.1359808 0.05810302 0.10279951
-0.01002293 0.0015491714 -0.020306496 0.1029616 -0.053112295 -0.013679249 0.085101105 0.038612824
0.044917982 0.059569877 0.021816848 -0.0988683 0.05407067 0.021785177 -0.13711035 0.015367644
0.045342572 -0.0075127077 0.045361876 -0.13075261 0.014599873 0.12660058 0.12941529 -0.12083799
-0.002033067 -0.062122595 0.036780663 0.11417871 0.123144336 0.07389045 0.047002696 0.0063545727
-0.09316764 0.11536453 0.081316434 0.0058544734 -0.07017188 0.08863196 0.11710447 0.122731864
-0.017759718 -0.08449953 0.11824978 -0.09938022 0.09451453 0.075194284 0.023230584 -0.08666293
-0.028764166 0.10352315 0.10909326 -0.034281313 -0.01671035 0.030607758 0.04125089 0.08168864
0.13224646 0.0998493 0.07972844 -0.020500349 -0.03473249 0.06858121 0.025021367 -0.040329363
0.10378292 0.07009953 -0.11187371 -0.0673466 0.04512522 0.057629276 -0.10236073 0.06594654
0.05534315 0.06163002 -0.022508504 -0.017875325 -0.088767886 0.07103782 -0.13695225 0.12504709
0.044506133 0.031163586 0.051196735 0.012922466 0.010753308 -0.085909806 -0.077014804 0.079362534
-0.13625185 -0.07373891 0.060132347 0.08748955 0.113070354 0.064038545 0.074614845 -0.009428905
0.014317719 0.007893133 -0.10899079 0.086560726 -0.107662596 -0.07217576 0.090310164 4.7380938e-05
0.056495972 -0.010534444 -0.048549782 -0.1139423 -0.050631117 -0.0034371763 0.019252783 0.10992762
0.011869836 -0.05318723 0.026805097 0.1282466 -0.077318996 -0.13442497 0.011315139 -0.07337321
-0.04349685 -0.048861343 -0.12213758 -0.09163602 0.12341419 -0.08128683 0.11113062 0.104971014
-0.0058485037 -0.029459562 -0.12543309 0.11682379 0.015624394 -0.12645896 0.050546523 0.08035345
0.051970903 -0.07340785 -0.0074791033 0.069932364 0.00077421666 0.008497293 -0.06882356 0.008408108
-0.077687666 0.12355812 -0.038792294 -0.009243924 -0.09865884 -0.037231937 -0.103289135 0.063719474
-0.05937724 -0.097718745 -0.004992268 0.07036384 0.081897646 -0.12743299 -0.1106515 0.089866914
00000000: e349 91bc 8be7 bbbb f6d8 3b3c 08ab dcbc
00000010: 2e90 2d3d 29c5 293d eeff 04bd 458f 94bd
00000020: 060d 5cbd 26fc dc3d 3784 ccbd aaac 063e
00000030: ac7a f03d e1c3 82bd 4aa4 09bd 4734 043e
00000040: bf34 ffbd 0994 c4ba 8d8d b63c 3186 b3bd
00000050: 9215 703d 7e87 3cbd 2dce 0fbc 801c 57bd
00000060: 5a82 77bd 3b19 e0bd ddc7 ed3c 142f b4bd
00000070: 5c98 cf3d 0bb1 83bd 1b06 a23d bc49 98bd
00000080: 5d0f 883d d60c ea3d 8a85 87bd 1d24 d43d
00000090: 6fc1 03be d95a df3d e617 90bd b95b 983d
000000a0: 5066 e1bd 913b dabc 02e8 0a3e 8309 b8bd
000000b0: 5d02 b73d ac3f 12ba 7afc 92bd 3d26 eabd
000000c0: d584 b33d 946f c73d b3e0 58bd 3355 f5bc
000000d0: ef24 4c3d a8a4 78bd 1d72 e5bb f4c1 ce3d
000000e0: f920 3a3d c98d 4b3d 641c 3cbd edcc ebbd
000000f0: 8e44 0c3e 13fb cb3d 8405 ae3b 370f 9abb
00000100: fe5e c23d b7f1 a03b 8c3f b5bd eab8 f33d
00000110: 8a30 ecbd 7678 733d b6c5 fd3c e53f 033b
00000120: 0d01 983c 1f7a 84bc 6569 a03d 7e72 da3d
00000130: 9555 bdbd 3f29 f23d 0b48 66bb 642c 04bd
00000140: a246 9abd eb0f cc3d 0c71 a0bc d897 eabd
00000150: ddd0 d3bd 4d9f 6bbd ac2a b23d 4e2e 93bd
00000160: f57c 053e 15d0 843d 110e 00be 5b71 b93d
00000170: 3e80 b83d 8d3e 0b3e 6ffd 6d3d 8d88 d23d
00000180: 3737 24bc 910d cb3a cf59 a6bc 88dd d23d
00000190: 478c 59bd ee1e 60bc 7d49 ae3d 7b28 1e3d
000001a0: ebfb 373d 8bff 733d 3fb9 b23c 777b cabd
000001b0: 3579 5d3d d476 b23c a866 0cbe 92c8 7b3c
000001c0: 22b9 393d 292d f6bb 60cd 393d 03e4 05be
000001d0: 4e34 6f3c 95a3 013e 7185 043e e879 f7bd
000001e0: 343d 05bb 4374 7ebd 52a7 163d 87d6 e93d
000001f0: 1933 fc3d e053 973d e685 403d 053a d03b
00000200: adce bebd 3d44 ec3d 3b89 a63d e2d6 bf3b
00000210: 46b6 8fbd ac84 b53d 78d4 ef3d d85a fb3d
00000220: d47c 91bc 170e adbd f12c f23d db87 cbbd
00000230: d590 c13d 76ff 993d 114e be3c 567c b1bd
00000240: d4a2 ebbc f203 d43d 496c df3d 906a 0cbd
00000250: 25e4 88bc 1fbd fa3c b1f6 283d 604c a73d
00000260: 9e6b 073e ca7d cc3d aa48 a33d 59f0 a7bc
00000270: a843 0ebd 4e74 8c3d 9cf9 cc3c 6730 25bd
00000280: 248c d43d 5890 8f3d 0b1e e5bd 04ed 89bd
00000290: 39d5 383d ad0c 6c3d 81a2 d1bd fb0e 873d
000002a0: 80af 623d c36f 7c3d c163 b8bc 466f 92bc
000002b0: f0cb b5bd 477c 913d 363d 0cbe 580c 003e
000002c0: 104c 363d c74a ff3c abb3 513d c0b8 533c
000002d0: a52e 303c 7bf1 afbd f0b9 9dbd d388 a23d
000002e0: 9b85 0bbe 6d04 97bd 564d 763d b92d b33d
000002f0: 6e91 e73d a426 833d abcf 983d b27b 1abc
00000300: de94 6a3c 3352 013c 9036 dfbd c046 b13d
00000310: 357e dcbd e3d0 93bd 89f4 b83d e5ba 4638
00000320: 5268 673d a998 2cbc 23dc 46bd 955a e9bd
00000330: 9362 4fbd 4042 61bb 03b8 9d3c bb21 e13d
00000340: b379 423c dada 59bd 5d96 db3c 1453 033e
00000350: 6c59 9ebd b3a6 09be 2263 393c b244 96bd
00000360: c129 32bd d522 48bd 4423 fabd aaab bbbd
00000370: 94c0 fc3d b679 a6bd 7398 e33d 0bfb d63d
00000380: cea4 bfbb 2e55 f1bc 8871 00be 5041 ef3d
00000390: 75fd 7f3c 757e 01be df09 4f3d 5990 a43d
000003a0: 71df 543d db56 96bd 4413 f5bb b338 8f3d
000003b0: cdf4 4a3a 3b38 0b3c 5ef3 8cbd 29c2 093c
000003c0: b61a 9fbd 0a0c fd3d abe4 1ebd d473 17bc
000003d0: a50d cabd 8480 18bd 4189 d3bd 5b7f 823d
000003e0: 8c35 73bd c420 c8bd 2e96 a3bb eb1a 903d
000003f0: f4b9 a73d cb7d 02be 419d e2bd 250c b83d

convolution_layers.0.bias f4 [64]
-0.0063285963 -0.024944004 0.0 0.063183166 0.07099049 0.0 -0.024357772 0.05833493
0.12188311 0.08588938 0.07989777 0.0 0.070051044 0.0 -0.012591769 0.07147659
0.07316348 -0.017601682 0.0652355 0.0 0.073313914 0.06785286 0.0 0.0
0.13954873 0.120831504 0.0 -0.04929846 0.065885335 0.14914048 -0.045697443 0.08706017
0.0 -0.00955166 0.070475236 0.063812695 0.070606574 0.069398776 0.08984684 0.05945166
0.0 0.050746992 0.0 -0.06153881 -0.0046312576 0.0 0.09632324 -0.10295663
0.027220257 0.053447805 0.0538074 0.0 -0.0070138047 0.05699146 0.08316468 0.08326826
0.0 -0.0064610858 0.05932553 0.0669529 -0.0267585 0.058431905 -0.04596809 0.0063449214
00000000: 1d60 cfbb 5e57 ccbc 0000 0000 2d66 813d
00000010: 7663 913d 0000 0000 f389 c7bc 9cf0 6e3d
00000020: da9d f93d c5e6 af3d 71a1 a33d 0000 0000
00000030: ec76 8f3d 0000 0000 b54d 4ebc 5262 923d
00000040: bcd6 953d 6731 90bc 319a 853d 0000 0000
00000050: 9b25 963d 71f6 8a3d 0000 0000 0000 0000
00000060: dde5 0e3e 8276 f73d 0000 0000 2fed 49bd
00000070: e4ee 863d 48b8 183e 3e2d 3bbd 9a4c b23d
00000080: 0000 0000 917e 1cbc 5255 903d 3bb0 823d
00000090: 2e9a 903d f220 8e3d 9f01 b83d 9583 733d
000000a0: 0000 0000 14dc 4f3d 0000 0000 1f10 7cbd
000000b0: cec1 97bb 0000 0000 1e45 c53d edda d2bd
000000c0: 04fd de3c 16ec 5a3d 2665 5c3d 0000 0000
000000d0: 0fd4 e5bb e16f 693d 3e52 aa3d 8d88 aa3d
000000e0: 0000 0000 84b7 d3bb 54ff 723d 9a1e 893d
000000f0: a434 dbbc 4b56 6f3d 0949 3cbd 0fe9 cf3b

convolution_layers.1.weight f4 [64, 32]
0.22042812 -0.23363696 0.04967434 0.16346347 -0.10060847 -0.23182328 0.16123573 0.0664859
-0.26542622 0.17105757 -0.11513545 0.17386392 0.014785496 -0.103465065 0.024081225 -0.15372819
0.1617229 -0.025989473 0.06999643 0.13396318 -0.038721718 0.2531257 0.019042926 0.116406426
-0.14863326 0.00019478652 0.12150085 -0.033677064 0.21818852 -0.06899855 -0.00092676305 -0.15229066
0.16835093 -0.11416245 -0.06622341 0.23455425 0.21693978 -0.15645383 0.17269875 -0.06353723
0.080169655 -0.09086519 -0.13039674 0.10448111 0.25841862 -0.121738605 -0.025908096 -0.14886692
0.043940395 0.16203058 -0.066249035 0.21994355 -0.1908682 -0.0977596 0.14373304 -0.09895215
0.121009946 -0.1638051 -0.15407777 -0.19777232 -0.13637923 -0.15342884 -0.039390936 -0.14653462
0.15414777 -0.050696433 -0.043177634 -0.11841041 -0.13022736 0.14755046 0.07009706 -0.20599344
0.007950395 -0.14329219 0.17798838 -0.12871057 -0.12473315 0.19914529 0.14539078 -0.083197296
0.008829683 0.06534973 0.11334458 -0.13656837 0.11751413 -0.020694137 -0.19275752 0.2067818
-0.044893175 0.19706887 0.0034285784 -0.00025483966 0.1550504 -0.015281439 0.16470209 -0.17227417
-0.05409091 -0.08193081 -0.16565925 0.01384424 -0.25004768 -0.005663709 0.05963922 0.25950614
-0.11194755 0.18526168 -0.043835066 0.27746844 -0.041610364 0.10595688 -0.2407019 -0.21132796
0.22964837 -0.024157733 0.14429355 0.14113654 -0.1554575 0.20282838 -0.24066643 0.25996855
0.004398239 0.19936602 -0.031963646 -0.15631567 -0.24381408 0.07979351 -0.15315188 0.12017377
-0.0789299 -0.046879783 0.16877832 0.12442798 -0.11167705 -0.050722353 0.1143496 0.083247386
0.1537732 0.03279885 0.3006895 0.0036376491 0.2842839 0.14947224 -0.2634048 -0.13275376
0.10119243 0.09366813 -0.013599235 0.13612127 0.054454595 0.21248132 -0.0073363692 0.21194395
0.16498892 -0.10781429 -0.18792242 -0.13975637 0.122223705 0.2635951 0.20094189 0.0051850774
-0.16877282 0.23931065 0.0049443245 -0.16578543 0.11989254 0.08345869 -0.056657523 0.06336349
-0.16634256 -0.2019327 0.12991408 0.24510804 -0.14621904 0.029226243 0.005348325 0.030934095
0.07075739 -0.02284342 -0.053386927 0.06179139 0.14422601 -0.10444665 -0.10800552 -0.080863714
0.18117574 0.0358679 0.15111557 -0.035475135 0.123220235 -0.045371443 0.07919413 0.011817455
0.18572895 -0.22312216 0.14038382 -0.12247729 -0.010365078 0.20946401 -0.13229848 0.1093218
-0.056022067 0.17843372 -0.093465485 0.26144746 0.21075141 0.18953754 -0.26695356 0.2187412
-0.19760358 0.18185759 -0.12790765 0.07576182 0.18854831 -0.15193257 0.09394348 -0.14211197
0.041584212 -0.14153475 0.0009812117 -0.052413337 0.037397746 -0.0056084357 0.09564254 -0.054713525
-0.17262441 -0.110390775 0.20220001 0.065088876 -0.06351578 0.040013257 0.21821472 0.25598383
0.057633825 0.27344874 0.27938336 0.24687138 0.16877863 -0.0567236 -0.013047867 0.058824103
-0.041070923 -0.16927886 -0.04258352 0.2168065 -0.1322321 -0.023671955 -0.08747082 0.11375214
0.06616158 -0.22886555 0.19245413 0.12394443 0.030312812 -0.103779376 0.07773058 0.18343514
00000000: e9b7 613e 873e 6fbe 5277 4b3d f862 273e
00000010: d00b cebd 1563 6dbe fb1a 253e c229 883d
00000020: f2e5 87be b729 2f3e 23cc ebbd 6209 323e
00000030: dd3e 723c 7ee5 d3bd fd45 c53c ec6a 1dbe
00000040: b09a 253e e0e7 d4bc 4a5a 8f3d a52d 093e
00000050: aa9a 1ebd b199 813e e9ff 9b3c 7e66 ee3d
00000060: 5133 18be 9c3f 4c39 70d5 f83d f6f0 09bd
00000070: d06c 5f3e 1d4f 8dbd 04f2 72ba 15f2 1bbe
00000080: 3064 2c3e 01ce e9bd 24a0 87bd fd2e 703e
00000090: 7625 5e3e 6f35 20be f1d7 303e cf1f 82bd
000000a0: fd2f a43d 8717 babd b986 05be 31fa d53d
000000b0: 724f 843e 1752 f9bd 373d d4bc 9270 18be
000000c0: d8fa 333d 58eb 253e 93ad 87bd e238 613e
000000d0: f472 43be 2f36 c8bd c12e 133e 6da7 cabd
000000e0: 10d4 f73d 86bc 27be 90c6 1dbe d484 4abe
000000f0: ffa6 0bbe 731c 1dbe 6458 21bd 2c0d 16be
00000100: ead8 1d3e 10a7 4fbd 08db 30bd 2881 f2bd
00000110: 525a 05be 7817 173e 0c8f 8f3d f2ef 52be
00000120: 6042 023c 30bb 12be 9642 363e b4cc 03be
00000130: 1874 ffbd beec 4b3e 52e1 143e 5863 aabd
00000140: 60aa 103c 14d6 853d 3421 e83d 94d8 0bbe
00000150: 40ab f03d c086 a9bc 3a62 45be 9cbe 533e
00000160: e8e1 37bd 6ccc 493e 00b2 603b 009c 85b9
00000170: 88c5 1e3e 005f 7abc aaa7 283e a468 30be
00000180: 6e8e 5dbd 57cb a7bd 94a2 29be f4d2 623c
00000190: 4006 80be a296 b9bb 4148 743d fddd 843e
000001a0: c244 e5bd 3db5 3d3e 668c 33bd 5810 8e3e
000001b0: a16f 2abd ecff d83d 8f7a 76be 5b66 58be
000001c0: f128 6b3e 70e6 c5bc b0c1 133e 1986 103e
000001d0: 4030 1fbe 3eb2 4f3e 4371 76be 991a 853e
000001e0: 1a1f 903b 9b26 4c3e 50ec 02bd 3711 20be
000001f0: 66aa 79be c86a a33d d9d3 1cbe aa1d f63d
00000200: 00a6 a1bd 0405 40bd 39d4 2c3e 19d4 fe3d
00000210: f0b6 e4bd 3ec2 4fbd 2030 ea3d 9b7d aa3d
00000220: b976 1d3e 1658 063d f9f3 993e a065 6e3b
00000230: a98d 913e 400f 193e fedc 86be 9af0 07be
00000240: fa3d cf3d 14d5 bf3d 53cf 5ebc 6063 0b3e
00000250: c80b 5f3d b494 593e ed65 f0bb d607 593e
00000260: dbf2 283e bdcd dcbd bc6e 40be 4b1c 0fbe
00000270: 6c50 fa3d f0f5 863e b6c3 4d3e 95e7 a93b
00000280: c8d2 2cbe da0d 753e 0004 a23b a8c3 29be
00000290: 388a f53d 64ec aa3d b811 68bd b8c4 813d
000002a0: b455 2abe 72c7 4ebe 3208 053e 9afd 7a3e
000002b0: 72ba 15be e06b ef3c 0041 af3b 8069 fd3c
000002c0: 40e9 903d 2022 bbbc 40ac 5abd f818 7d3d
000002d0: fcaf 133e 20e8 d5bd 0032 ddbd e09b a5bd
000002e0: 2286 393e 38ea 123d 0abe 1a3e 604e 11bd
000002f0: e45a fc3d 68d7 39bd 8830 a23d 009e 413c
00000300: bb2f 3e3e 237a 64be c7c0 0f3e 60d5 fabd
00000310: 4ad2 29bc bc7d 563e 4179 07be 1ce4 df3d
00000320: 6577 65bd 54b7 363e d56a bfbd 71dc 853e
00000330: 38cf 573e 2116 423e 23ae 88be b1fd 5f3e
00000340: 9858 4abe e038 3a3e 39fa 02be 0329 9b3d
00000350: cf12 413e 3694 1bbe 7065 c03d cd85 11be
00000360: 3554 2a3d 7cee 10be 009c 803a 5eaf 56bd
00000370: 612e 193d f8c6 b7bb 3ce0 c33d 4a1b 60bd
00000380: 74c4 30be 8f14 e2bd 850d 4f3e 514d 853d
00000390: 9014 82bd f1e4 233d ae73 5f3e 5010 833e
000003a0: 7211 6c3d 7901 8c3e 560b 8f3e dacb 7c3e
000003b0: 4ed4 2c3e 0157 68bd b9c6 55bc 8bf1 703d
000003c0: fc39 28bd 7057 2dbe 0f6c 2ebd 8602 5e3e
000003d0: da67 07be b0eb c1bc e723 b3bd e2f6 e83d
000003e0: b97f 873d bb5b 6abe b212 453e 94d6 fd3d
000003f0: 9352 f83c 488a d4bd 3631 9f3d 6cd6 3b3e

convolution_layers.1.bias f4 [32]
0.110808186 -0.0058563794 0.116051815 0.14033392 -0.021472672 -0.050732803 -0.0068724155 0.10428217
-0.05911426 0.10397276 0.107452385 0.12393753 0.101775706 -0.07169177 -0.037084766 -0.015780851
0.10703245 0.0 0.10410583 0.11257348 -0.024598211 0.1374896 -0.023433147 0.14232194
-0.026769647 -0.044293314 0.0 -0.07702513 -0.021289287 0.12571901 0.12758541 0.103356525
00000000: 67ef e23d dfe6 bfbb 93ac ed3d b2b3 0f3e
00000010: 75e7 afbc 33cd 4fbd 0032 e1bb e491 d53d
00000020: cb21 72bd acef d43d ff0f dc3d f6d2 fd3d
00000030: c86f d03d 22d3 92bd 32e6 17bd d846 81bc
00000040: d433 db3d 0000 0000 7035 d53d ed8c e63d
00000050: 3082 c9bc 13ca 0c3e dff6 bfbc d8bc 113e
00000060: 054c dbbc e86c 35bd 0000 0000 5abf 9dbd
00000070: df66 aebc 7cbc 003e c0a5 023e 96ac d33d

classify.weight f4 [1, 32]
0.12616546 -0.06648082 0.16889723 0.30080688 0.10942668 -0.32920718 -0.07832019 0.17025672
-0.2838416 0.22686067 0.20109053 0.24670291 0.2345119 -0.16731076 -0.41321003 -0.0053508715
0.19700107 -0.1484307 0.16981179 0.11633885 -0.27828163 0.19669002 -0.03372307 0.2652977
-6.197995e-05 -0.09963567 -0.036865868 -0.2518107 -0.19285117 0.2384645 0.07999595 0.22474888
00000000: 8531 013e 1927 88bd 65f3 2c3e 5c03 9a3e
00000010: 181b e03d d88d a8be 5666 a0bd c757 2e3e
00000020: b053 91be 2a4e 683e adea 4d3e b09f 7c3e
00000030: e323 703e 8353 2bbe 4490 d3be 5d56 afbb
00000040: a6ba 493e 38fe 17be 24e3 2d3e 1043 ee3d
00000050: ee7a 8ebe 1c69 493e 3421 0abd 1ad5 873e
00000060: 3bfb 81b8 c90d ccbd aa00 17bd 55ed 80be
00000070: c77a 45be 0a30 743e ebd4 a33d 9224 663e
