checkpoints/epoch_10_val_loss_5.5936.pt (torch, 76530 bytes, 5 tensors)

convolution_layers.0.weight f4 [253, 64]
-0.017735427 -0.005734389 0.011465302 -0.026937023 0.04237383 0.041447792 -0.032470636 -0.07253889
-0.053723358 0.10790281 -0.099861555 0.13151804 0.11742148 -0.06385017 -0.033603944 0.12910567
-0.124612324 -0.0014997731 0.022284294 -0.08765829 0.05861432 -0.046027653 -0.0087771835 -0.052517414
-0.060427047 -0.10942312 0.029025966 -0.08798042 0.10136482 -0.06430253 0.07911321 -0.07435939
0.06643555 0.114282295 -0.066172674 0.103584506 -0.12866758 0.10906 -0.07035808 0.0743937
-0.11005843 -0.026639732 0.13565066 -0.08986189 0.08935998 -0.0005578946 -0.07177062 -0.114330746
0.0876557 0.09738079 -0.052948665 -0.029947853 0.04983991 -0.060703903 -0.0070021288 0.100955874
0.0454416 0.049695764 -0.045925513 -0.11513696 0.13698027 0.09959998 0.005310716 -0.004701521
0.094907746 0.004911627 -0.08850011 0.11900504 -0.115326956 0.059441052 0.030978065 0.0020027098
0.018555189 -0.016171513 0.078326024 0.10666369 -0.09244839 0.11824273 -0.0035138156 -0.032268897
-0.075330034 0.099639736 -0.019585155 -0.11454743 -0.10342572 -0.057524968 0.08699545 -0.07186566
0.13035949 0.06485001 -0.12505366 0.09054824 0.09008835 0.1359808 0.05810302 0.10279951
-0.01002293 0.0015491714 -0.020306496 0.1029616 -0.053112295 -0.013679249 0.085101105 0.038612824
0.044917982 0.059569877 0.021816848 -0.0988683 0.05407067 0.021785177 -0.13711035 0.015367644
0.045342572 -0.0075127077 0.045361876 -0.13075261 0.014599873 0.12660058 0.12941529 -0.12083799
-0.002033067 -0.062122595 0.036780663 0.11417871 0.123144336 0.07389045 0.047002696 0.0063545727
-0.09316764 0.11536453 0.081316434 0.0058544734 -0.07017188 0.08863196 0.11710447 0.122731864
-0.017759718 -0.08449953 0.11824978 -0.09938022 0.09451453 0.075194284 0.023230584 -0.08666293
-0.028764166 0.10352315 0.10909326 -0.034281313 -0.01671035 0.030607758 0.04125089 0.08168864
0.13224646 0.0998493 0.07972844 -0.020500349 -0.03473249 0.06858121 0.025021367 -0.040329363
0.10378292 0.07009953 -0.11187371 -0.0673466 0.04512522 0.057629276 -0.10236073 0.06594654
0.05534315 0.06163002 -0.022508504 -0.017875325 -0.088767886 0.07103782 -0.13695225 0.12504709
0.044506133 0.031163586 0.051196735 0.012922466 0.010753308 -0.085909806 -0.077014804 0.079362534
-0.13625185 -0.07373891 0.060132347 0.08748955 0.113070354 0.064038545 0.074614845 -0.009428905
0.014317719 0.007893133 -0.10899079 0.086560726 -0.107662596 -0.07217576 0.090310164 4.7380938e-05
0.056495972 -0.010534444 -0.048549782 -0.1139423 -0.050631117 -0.0034371763 0.019252783 0.10992762
0.011869836 -0.05318723 0.026805097 0.1282466 -0.077318996 -0.13442497 0.011315139 -0.07337321
-0.04349685 -0.048861343 -0.12213758 -0.09163602 0.12341419 -0.08128683 0.11113062 0.104971014
-0.0058485037 -0.029459562 -0.12543309 0.11682379 0.015624394 -0.12645896 0.050546523 0.08035345
0.051970903 -0.07340785 -0.0074791033 0.069932364 0.00077421666 0.008497293 -0.06882356 0.008408108
-0.077687666 0.12355812 -0.038792294 -0.009243924 -0.09865884 -0.037231937 -0.103289135 0.063719474
-0.05937724 -0.097718745 -0.004992268 0.07036384 0.081897646 -0.12743299 -0.1106515 0.089866914
00000000: e349 91bc 8be7 bbbb f6d8 3b3c 08ab dcbc
00000010: 2e90 2d3d 29c5 293d eeff 04bd 458f 94bd
00000020: 060d 5cbd 26fc dc3d 3784 ccbd aaac 063e
00000030: ac7a f03d e1c3 82bd 4aa4 09bd 4734 043e
00000040: bf34 ffbd 0994 c4ba 8d8d b63c 3186 b3bd
00000050: 9215 703d 7e87 3cbd 2dce 0fbc 801c 57bd
00000060: 5a82 77bd 3b19 e0bd ddc7 ed3c 142f b4bd
00000070: 5c98 cf3d 0bb1 83bd 1b06 a23d bc49 98bd
00000080: 5d0f 883d d60c ea3d 8a85 87bd 1d24 d43d
00000090: 6fc1 03be d95a df3d e617 90bd b95b 983d
000000a0: 5066 e1bd 913b dabc 02e8 0a3e 8309 b8bd
000000b0: 5d02 b73d ac3f 12ba 7afc 92bd 3d26 eabd
000000c0: d584 b33d 946f c73d b3e0 58bd 3355 f5bc
000000d0: ef24 4c3d a8a4 78bd 1d72 e5bb f4c1 ce3d
000000e0: f920 3a3d c98d 4b3d 641c 3cbd edcc ebbd
000000f0: 8e44 0c3e 13fb cb3d 8405 ae3b 370f 9abb
00000100: fe5e c23d b7f1 a03b 8c3f b5bd eab8 f33d
00000110: 8a30 ecbd 7678 733d b6c5 fd3c e53f 033b
00000120: 0d01 983c 1f7a 84bc 6569 a03d 7e72 da3d
00000130: 9555 bdbd 3f29 f23d 0b48 66bb 642c 04bd
00000140: a246 9abd eb0f cc3d 0c71 a0bc d897 eabd
00000150: ddd0 d3bd 4d9f 6bbd ac2a b23d 4e2e 93bd
00000160: f57c 053e 15d0 843d 110e 00be 5b71 b93d
00000170: 3e80 b83d 8d3e 0b3e 6ffd 6d3d 8d88 d23d
00000180: 3737 24bc 910d cb3a cf59 a6bc 88dd d23d
00000190: 478c 59bd ee1e 60bc 7d49 ae3d 7b28 1e3d
000001a0: ebfb 373d 8bff 733d 3fb9 b23c 777b cabd
000001b0: 3579 5d3d d476 b23c a866 0cbe 92c8 7b3c
000001c0: 22b9 393d 292d f6bb 60cd 393d 03e4 05be
000001d0: 4e34 6f3c 95a3 013e 7185 043e e879 f7bd
000001e0: 343d 05bb 4374 7ebd 52a7 163d 87d6 e93d
000001f0: 1933 fc3d e053 973d e685 403d 053a d03b
00000200: adce bebd 3d44 ec3d 3b89 a63d e2d6 bf3b
00000210: 46b6 8fbd ac84 b53d 78d4 ef3d d85a fb3d
00000220: d47c 91bc 170e adbd f12c f23d db87 cbbd
00000230: d590 c13d 76ff 993d 114e be3c 567c b1bd
00000240: d4a2 ebbc f203 d43d 496c df3d 906a 0cbd
00000250: 25e4 88bc 1fbd fa3c b1f6 283d 604c a73d
00000260: 9e6b 073e ca7d cc3d aa48 a33d 59f0 a7bc
00000270: a843 0ebd 4e74 8c3d 9cf9 cc3c 6730 25bd
00000280: 248c d43d 5890 8f3d 0b1e e5bd 04ed 89bd
00000290: 39d5 383d ad0c 6c3d 81a2 d1bd fb0e 873d
000002a0: 80af 623d c36f 7c3d c163 b8bc 466f 92bc
000002b0: f0cb b5bd 477c 913d 363d 0cbe 580c 003e
000002c0: 104c 363d c74a ff3c abb3 513d c0b8 533c
000002d0: a52e 303c 7bf1 afbd f0b9 9dbd d388 a23d
000002e0: 9b85 0bbe 6d04 97bd 564d 763d b92d b33d
000002f0: 6e91 e73d a426 833d abcf 983d b27b 1abc
00000300: de94 6a3c 3352 013c 9036 dfbd c046 b13d
00000310: 357e dcbd e3d0 93bd 89f4 b83d e5ba 4638
00000320: 5268 673d a998 2cbc 23dc 46bd 955a e9bd
00000330: 9362 4fbd 4042 61bb 03b8 9d3c bb21 e13d
00000340: b379 423c dada 59bd 5d96 db3c 1453 033e
00000350: 6c59 9ebd b3a6 09be 2263 393c b244 96bd
00000360: c129 32bd d522 48bd 4423 fabd aaab bbbd
00000370: 94c0 fc3d b679 a6bd 7398 e33d 0bfb d63d
00000380: cea4 bfbb 2e55 f1bc 8871 00be 5041 ef3d
00000390: 75fd 7f3c 757e 01be df09 4f3d 5990 a43d
000003a0: 71df 543d db56 96bd 4413 f5bb b338 8f3d
000003b0: cdf4 4a3a 3b38 0b3c 5ef3 8cbd 29c2 093c
000003c0: b61a 9fbd 0a0c fd3d abe4 1ebd d473 17bc
000003d0: a50d cabd 8480 18bd 4189 d3bd 5b7f 823d
000003e0: 8c35 73bd c420 c8bd 2e96 a3bb eb1a 903d
000003f0: f4b9 a73d cb7d 02be 419d e2bd 250c b83d

convolution_layers.0.bias f4 [64]
-0.01925939 -0.042183567 0.0 0.0566992 0.058432106 0.0 -0.03189363 0.056289975
0.09556568 0.07316856 0.062708385 0.0 0.06298423 0.0 -0.012591769 0.051139522
0.06616787 -0.017601682 0.04998296 0.0 0.059145108 0.06256428 0.0 0.0
0.10914322 0.09660841 0.0 -0.047442466 0.0482222 0.11136459 -0.04383039 0.07107995
0.0 -0.009545811 0.059333533 0.057765063 0.058066446 0.060377527 0.074439846 0.056491558
0.0 0.036572143 0.0 -0.07684379 -0.016040172 0.0 0.076933935 -0.07390527
0.0024080141 0.049635895 0.047620952 0.0 -0.0070138047 0.038500946 0.067279994 0.06907491
0.0 -0.006482727 0.049023774 0.06115143 -0.0267585 0.056685638 -0.046817012 -0.012574018
00000000: dec5 9dbc adc8 2cbd 0000 0000 6c3d 683d
00000010: 8156 6f3d 0000 0000 e5a2 02bd 5190 663d
00000020: f0b7 c33d 66d9 953d 416d 803d 0000 0000
00000030: e0fd 803d 0000 0000 b54d 4ebc ad77 513d
00000040: 0583 873d 6731 90bc efba 4c3d 0000 0000
00000050: 2442 723d b421 803d 0000 0000 0000 0000
00000060: 7b86 df3d a1da c53d 0000 0000 0853 42bd
00000070: a484 453d 1e13 e43d 7f87 33bd 5d92 913d
00000080: 0000 0000 0966 1cbc b807 733d 0f9b 6c3d
00000090: 15d7 6d3d 6d4e 773d eb73 983d b163 673d
000000a0: 0000 0000 accc 153d 0000 0000 4760 9dbd
000000b0: ae66 83bc 0000 0000 8a8f 9d3d a55b 97bd
000000c0: c6cf 1d3b 024f 4b3d 300e 433d 0000 0000
000000d0: 0fd4 e5bb 2bb3 1d3d 18ca 893d 2577 8d3d
000000e0: 0000 0000 0e6d d4bb 27cd 483d ec79 7a3d
000000f0: a434 dbbc 332f 683d 32c3 3fbd 4103 4ebc

convolution_layers.1.weight f4 [64, 32]
0.188207 -0.23363696 0.009086193 0.10937823 -0.10060847 -0.20005189 0.17112176 0.038637526
-0.24052191 0.14339189 -0.14505945 0.1337105 -0.0115768155 -0.10283029 0.055743836 -0.15372819
0.13223855 -0.025989473 0.042285945 0.10056986 -0.0045927386 0.20392375 0.02080002 0.06605313
-0.14863326 0.007852721 0.12150085 -0.026727675 0.18100092 -0.11374888 -0.04263543 -0.17990734
0.16235468 -0.11416245 -0.07305757 0.22302745 0.21693978 -0.13603577 0.17264791 -0.0686483
0.10336471 -0.095999174 -0.13610642 0.09662096 0.25354236 -0.119289964 0.013028262 -0.14886692
0.038092274 0.16203058 -0.071337365 0.21375926 -0.1724122 -0.107421905 0.14362621 -0.109883934
0.12100978 -0.15939759 -0.15407777 -0.19358923 -0.13161395 -0.16106826 -0.04716147 -0.15166454
0.15414777 -0.050696433 -0.043177634 -0.11841041 -0.13022736 0.14755046 0.07009706 -0.20599344
0.007950395 -0.14329219 0.17798838 -0.12871057 -0.12473315 0.19914529 0.14539078 -0.083197296
0.008829683 0.06534973 0.11334458 -0.13656837 0.11751413 -0.020694137 -0.19275752 0.2067818
-0.044893175 0.19706887 0.0034285784 -0.00025483966 0.1550504 -0.015281439 0.16470209 -0.17227417
-0.059455916 -0.08193081 -0.17186947 0.0006042042 -0.25062975 -0.0011223347 0.05856015 0.2545858
-0.10532726 0.18012948 -0.048962947 0.2701971 -0.046507537 0.10525551 -0.22663751 -0.21132796
0.22437233 -0.024157733 0.13941295 0.13579875 -0.14065053 0.19444801 -0.24214423 0.24912156
0.004397178 0.2024638 -0.031963646 -0.1553153 -0.24282919 0.072264574 -0.15878513 0.115159646
-0.08603923 -0.046879783 0.16080377 0.10979668 -0.11167705 -0.04169954 0.11333418 0.07671083
0.16545801 0.026061302 0.2938835 -0.005194924 0.27779892 0.15039004 -0.24356821 -0.13275376
0.09418643 0.09366813 -0.020091435 0.1290293 0.07339167 0.20243748 -0.008864681 0.19948915
0.1649879 -0.10221275 -0.18792242 -0.13657857 0.12491451 0.2545415 0.19343281 -0.0014717345
-0.16877282 0.23931065 0.0049443245 -0.16578543 0.11989254 0.08345869 -0.056657523 0.06336349
-0.16634256 -0.2019327 0.12991408 0.24510804 -0.14621904 0.029226243 0.005348325 0.030934095
0.07075739 -0.02284342 -0.053386927 0.06179139 0.14422601 -0.10444665 -0.10800552 -0.080863714
0.18117574 0.0358679 0.15111557 -0.035475135 0.123220235 -0.045371443 0.07919413 0.011817455
0.1809744 -0.22312216 0.13500781 -0.13216372 -0.010365078 0.22081172 -0.13239095 0.10518867
-0.04291337 0.17425859 -0.098093346 0.25530523 0.20676698 0.19088514 -0.24187271 0.2187412
-0.20233485 0.18185759 -0.13201678 0.070907466 0.20499043 -0.1591504 0.09376041 -0.15059161
0.04158378 -0.13820828 0.0009812117 -0.049812473 0.041290097 -0.011689568 0.0898894 -0.058878474
-0.17091437 -0.110390775 0.20296949 0.056472164 -0.053494263 0.027870987 0.21614228 0.25760964
0.04656786 0.2745871 0.28119227 0.24557078 0.17023277 -0.06352362 -0.021054331 0.058824103
-0.039247334 -0.16927886 -0.04083172 0.21890676 -0.13851845 -0.025477013 -0.09069824 0.10838806
0.06616042 -0.23398487 0.19245413 0.11700535 0.021684883 -0.10563696 0.0804131 0.18511909
00000000: 56b9 403e 873e 6fbe 41de 143c b201 e03d
00000010: d00b cebd 67da 4cbe 8b3a 2f3e 6242 1e3d
00000020: 604b 76be 53d5 123e 778a 14be 68eb 083e
00000030: afac 3dbc b098 d2bd a653 643d ec6a 1dbe
00000040: 8b69 073e e0e7 d4bc 0734 2d3d 92f7 cd3d
00000050: af7e 96bb 63d1 503e ce64 aa3c dd46 873d
00000060: 5133 18be b3a8 003c 70d5 f83d fff3 dabc
00000070: 4e58 393e 2cf5 e8bd 7da2 2ebd a139 38be
00000080: 4e40 263e 01ce e9bd 359f 95bd 4f61 643e
00000090: 7625 5e3e f64c 0bbe 9dca 303e 7b97 8cbd
000000a0: e1b0 d33d 379b c4bd 7b5f 0bbe 36e1 c53d
000000b0: 4ed0 813e 4c4e f4bd 7e74 553c 9270 18be
000000c0: a506 1c3d 58eb 253e 5319 92bd b5e3 5a3e
000000d0: d38c 30be 0400 dcbd c012 133e d40a e1bd
000000e0: fad3 f73d 1f39 23be 90c6 1dbe 413c 46be
000000f0: cfc5 06be 14ef 24be 632c 41bd f34d 1bbe
00000100: ead8 1d3e 10a7 4fbd 08db 30bd 2881 f2bd
00000110: 525a 05be 7817 173e 0c8f 8f3d f2ef 52be
00000120: 6042 023c 30bb 12be 9642 363e b4cc 03be
00000130: 1874 ffbd beec 4b3e 52e1 143e 5863 aabd
00000140: 60aa 103c 14d6 853d 3421 e83d 94d8 0bbe
00000150: 40ab f03d c086 a9bc 3a62 45be 9cbe 533e
00000160: e8e1 37bd 6ccc 493e 00b2 603b 009c 85b9
00000170: 88c5 1e3e 005f 7abc aaa7 283e a468 30be
00000180: 0c88 73bd 57cb a7bd 8dfe 2fbe 7563 1e3a
00000190: 8b52 80be 4e1b 93ba c5dc 6f3d 1259 823e
000001a0: d2b5 d7bd dd73 383e 5f8d 48bd 4657 8a3e
000001b0: b07e 3ebd 3390 d73d aa13 68be 5b66 58be
000001c0: dcc1 653e 70e6 c5bc 45c2 0e3e d40e 0b3e
000001d0: b106 10be 611d 473e a8f4 77be b919 7f3e
000001e0: 3416 903b ac52 4f3e 50ec 02bd f90a 1fbe
000001f0: 37a8 78be 73ff 933d 9298 22be d2d8 eb3d
00000200: 5635 b0bd 0405 40bd bea9 243e 15dd e03d
00000210: f0b6 e4bd 23cd 2abd c01b e83d 911a 9d3d
00000220: d36d 293e 837e d53c e677 963e 2e3a aabb
00000230: a93b 8e3e d9ff 193e f269 79be 9af0 07be
00000240: d1e4 c03d 14d5 bf3d cb96 a4bc 4220 043e
00000250: 5f4e 963d c54b 4f3e 2b3d 11bc e246 4c3e
00000260: 97f2 283e eb54 d1bd bc6e 40be 41db 0bbe
00000270: 2ed3 ff3d 4353 823e 4013 463e 37e7 c0ba
00000280: c8d2 2cbe da0d 753e 0004 a23b a8c3 29be
00000290: 388a f53d 64ec aa3d b811 68bd b8c4 813d
000002a0: b455 2abe 72c7 4ebe 3208 053e 9afd 7a3e
000002b0: 72ba 15be e06b ef3c 0041 af3b 8069 fd3c
000002c0: 40e9 903d 2022 bbbc 40ac 5abd f818 7d3d
000002d0: fcaf 133e 20e8 d5bd 0032 ddbd e09b a5bd
000002e0: 2286 393e 38ea 123d 0abe 1a3e 604e 11bd
000002f0: e45a fc3d 68d7 39bd 8830 a23d 009e 413c
00000300: 5a51 393e 237a 64be 7d3f 0a3e ed55 07be
00000310: 4ad2 29bc 781c 623e 7e91 07be 286d d73d
00000320: eec5 2fbd d870 323e 2ae5 c8bd 5eb7 823e
00000330: b9ba 533e 6577 433e 7bad 77be b1fd 5f3e
00000340: de30 4fbe e038 3a3e 682f 07be ef37 913d
00000350: 03e9 513e 53f8 22be 7505 c03d b034 1abe
00000360: c153 2a3d 7986 0dbe 009c 803a 2a08 4cbd
00000370: ce1f 293d 9a85 3fbc ef17 b83d 8e2a 71bd
00000380: 2d04 2fbe 8f14 e2bd 3cd7 4f3e 5b4f 673d
00000390: cd1c 5bbd b251 e43c 6754 5d3e 69e5 833e
000003a0: f1bd 3e3d ae96 8c3e 6ff8 8f3e e876 7b3e
000003b0: 8051 2e3e ac18 82bd 227a acbc 8bf1 703d
000003c0: d0c1 20bd 7057 2dbe 293f 27bd 1829 603e
000003d0: c8d7 0dbe 2bb5 d0bc 00c0 b9bd 8ffa dd3d
000003e0: 1d7f 873d bb99 6fbe b212 453e 80a0 ef3d
000003f0: 7fa4 b13c 3158 d8bd a0af a43d dc8f 3d3e

convolution_layers.1.bias f4 [32]
0.09470151 -0.0058563794 0.09779209 0.11182307 -0.021465627 -0.028861862 -0.0119180195 0.08972554
-0.02797965 0.08856313 0.09282993 0.10390452 0.08741767 -0.06723333 -0.008265761 -0.015780851
0.091858536 0.0 0.08984019 0.09675062 -0.015011981 0.11476952 -0.029722283 0.113952115
-0.026770275 -0.031637125 0.0 -0.06618056 -0.020549404 0.1047357 0.11037705 0.088744335
00000000: def2 c13d dfe6 bfbb 3847 c83d 7e03 e53d
00000010: afd8 afbc b66f ecbc cc43 43bc 06c2 b73d
00000020: 9435 e5bc 9660 b53d 9e1d be3d e5cb d43d
00000030: 0908 b33d a1b1 89bd 1d6d 07bc d846 81bc
00000040: 5420 bc3d 0000 0000 22fe b73d 3025 c63d
00000050: d0f4 75bc 480c eb3d 257c f3bc ba5f e93d
00000060: 564d dbbc ee95 01bd 0000 0000 ac89 87bd
00000070: 3957 a8bc ac7f d63d 5d0d e23d 97bf b53d

classify.weight f4 [1, 32]
0.1141374 -0.06648082 0.1465345 0.25283852 0.11003736 -0.20877457 -0.07600257 0.16140576
-0.16666949 0.21245822 0.1908859 0.22272922 0.22396088 -0.1501358 -0.25597844 -0.0053508715
0.18186782 -0.1484307 0.16382949 0.10513026 -0.17651163 0.16729026 -0.029823106 0.22305861
-5.5086115e-05 -0.06415704 -0.036865868 -0.18990871 -0.17857836 0.21537791 0.06849323 0.21128866
00000000: dfc0 e93d 1927 88bd 240d 163e 0d74 813e
00000010: 445b e13d 00c9 55be 3ca7 9bbd 8d47 253e
00000020: 68ab 2abe a68e 593e 9877 433e 2113 643e
00000030: 0056 653e 33bd 19be 9b0f 83be 5d56 afbb
00000040: 8f3b 3a3e 38fe 17be ebc2 273e 894e d73d
00000050: 77bf 34be 234e 2b3e 964f f4bc 7a69 643e
00000060: 440c 67b8 c464 83bd aa00 17bd 6e77 42be
00000070: 3fdd 36be 078c 5c3e 2e46 8c3d 0e5c 583e
